domain_adaption/best_sc_net.pth.tar (torch, 811125 bytes, 16 tensors)

gcn1.w f4 [10, 64]
00000000: c4c2 70b8 74a7 74bc 2acf 44b8 076e bf39
00000010: c935 023a 7fdf 3d3a 6a10 7bbc 0536 66b6
00000020: 8341 5c39 06e5 6eba dbe1 6cba d0c9 a2b8
00000030: 8b38 61bc 6dc2 15b9 cdb0 2eba 4d1c 35bc
00000040: 543a 493c 8822 3f3a 7481 143c 1db9 a5bb
00000050: 575a 1a3c bff9 76ba 5682 1bba 2968 2eb9
00000060: 795a 27ba ae13 03bc 7cb4 f7b8 ffb6 cd36
00000070: e999 f936 20c4 89b9 8442 9ab9 2123 03ba
00000080: 4ac5 42ba 54ae 8239 1ebf d039 6159 3039
00000090: 4260 053a ff9e b838 d2f6 06ba 7262 eab9
000000a0: 507e 9739 8da5 81b9 954b 0ebb d79f 59b9
000000b0: 8497 c7b9 b9de 6cb9 7a2e d6bb e3da ffbb
000000c0: 6a0e a1bc ff3f 0b3a 36d4 a9b7 bdff 233c
000000d0: d211 cdb7 affa c239 69ab e139 c9e7 98bb
000000e0: 21a6 34ba 7057 5938 6fdb b237 e6e8 92b9
000000f0: 28db f0b8 ff7d d9b9 7b89 19ba d165 22b9
00000100: fcc0 9939 8605 413c e60c 07b9 9150 69b9
00000110: 19f1 21bc 8852 3336 827e fe38 bf16 7339
00000120: 00f2 5e3b 5e3e bdb8 4cdf f2b9 5f07 c93b
00000130: 583d 3a3b f22a c4ba 6e2d 6c39 ded2 e3bb
00000140: 445a d8b8 dd91 583a 1e81 c1bb e87a 833b
00000150: 8653 74b9 b0dd b239 5e1c b738 fead 183a
00000160: 55c8 b439 c18b 3fb9 be0f a6bb fb26 74bb
00000170: 41b6 66bc 255f 7eb9 e963 8bbb 0dc5 58ba
00000180: dbec 1db9 4ad4 1039 fc83 1d39 0d17 12bc
00000190: dbc5 01ba add5 30bc 9e22 c036 7427 8537
000001a0: 2881 073a 34b4 10b9 85b2 9838 8c8b 9b39
000001b0: d290 1039 2547 093c 342b 42bc 9936 edb8
000001c0: 3cdf 78b9 c6d1 b1b7 2d95 683b dedc 2db9
000001d0: 8168 0d3c 338b 4d39 ef81 0d3a 6227 253a
000001e0: 0a4e 723b 6215 17b6 b6fc c1b8 c3b2 ddb8
000001f0: 25d6 8cb9 5c8c 3c3b d7c8 59b9 581f 2dba
00000200: af98 29b8 fa25 35ba 63b5 66ba b765 553b
00000210: 83ee 233a c9fa 9738 3510 d2ba 0c25 92b7
00000220: b959 a5bb b996 543b df90 86ba 3e9a babb
00000230: c55c d5bb 65f1 19b8 2031 14b6 5352 04ba
00000240: 7ce2 8ab9 dd6c 24b9 198c 5839 a933 bbbb
00000250: 4c81 7f39 c22c f1b8 ca6f 13ba ed39 bfb9
00000260: 503a be3b 3f28 6ebc b55d c43a 0832 cbb6
00000270: 9d0a 693c 5bd6 3db8 6e09 1fb9 7d6b 0d3a
00000280: 6a1e ca3b fa86 363a e714 dd3a 1468 2fbb
00000290: 1bd6 f2b9 61a7 b73b a602 8ab8 2dff 3cba
000002a0: 30f9 77b9 7d8d 263c a47f 08bc c641 883c
000002b0: 391e eb38 c7af be3a 9ac9 21b9 50c9 80bb
000002c0: b114 42bc d6fd 42bc e48d 173a af91 03bb
000002d0: 0d2c 0139 47ee 473c 75e8 54b9 321b 7ab8
000002e0: 69b1 893b 5708 483b ace3 55b9 7d1e b938
000002f0: 1984 053a 0af8 93ba 5a7a a9bb ddbe da38
00000300: 6451 6738 5818 7bbc a206 54ba 2f94 3aba
00000310: f8bd 34ba 4aca e1b8 7cc5 7bb9 3718 5bbc
00000320: d883 36ba 5720 3cbc 5c33 6dba b454 223c
00000330: 546d 96b9 1ddc 97ba e8b6 e239 d728 40ba
00000340: 880d d3ba aee5 3d3a e4aa f738 555f d8ba
00000350: 3136 ff39 897e 833c 3d54 0c3b 9c51 1f3a
00000360: fa54 f239 a90a a53b ec10 5db8 1192 30ba
00000370: 4872 6d38 d628 4e38 822f 64b8 c4c8 e03b
00000380: a9c6 29ba 56b9 793a 445b 0839 be39 0f3a
00000390: 1ffc ae37 96c2 173a 4351 5c3c d71e 3fba
000003a0: 34dc a838 6479 1e39 fc65 86b8 31a7 2b39
000003b0: e123 dc38 329b 2d3a 5a5f 6139 5876 cb37
000003c0: 1f69 8fb9 7339 54bb 93b3 06bb f77a 583c
000003d0: da79 6a37 045a 42bb 2d42 43ba aee5 1a3a
000003e0: ab1f 2c3c 4a99 b2b8 2b67 3aba 39f0 89bc
000003f0: f490 6339 3264 3eba 26c5 2cb7 0a1f 8538
-5.740185e-05 -0.014932502 -4.6922978e-05 0.00036512336 0.0004967121 0.00072430813 -0.015323738 -3.4304114e-06
0.0002100524 -0.00091131066 -0.00090363406 -7.7623525e-05 -0.013746391 -0.00014282177 -0.00066639186 -0.011054111
0.012281973 0.00072912173 0.009064067 -0.0050574676 0.009420953 -0.00094213703 -0.00059322023 -0.00016632736
-0.0006384026 -0.0080002975 -0.00011811496 6.1307796e-06 7.438696e-06 -0.000262768 -0.00029422727 -0.0005002488
-0.0007429911 0.00024925417 0.00039815245 0.00016817964 0.0005087891 8.803419e-05 -0.00051484734 -0.00044705305
0.00028895075 -0.00024728142 -0.002171253 -0.00020754278 -0.00038069126 -0.00022589685 -0.006536302 -0.0078080758
-0.019660193 0.00053119654 -2.0245188e-05 0.010009703 -2.4446203e-05 0.00037189337 0.00043043055 -0.004666303
-0.000689121 5.1818264e-05 2.1321435e-05 -0.00028020813 -0.00011484913 -0.0004148334 -0.0005856973 -0.00015487453
0.0002932622 0.011781102 -0.00012879408 -0.00022250625 -0.009884142 2.6721118e-06 0.00012135228 0.0002318276
0.0034018755 -9.023839e-05 -0.00046324206 0.006134912 0.0028417911 -0.0014966412 0.00022523638 -0.0069526276
-0.00010316496 0.00082614814 -0.0059052845 0.0040124543 -0.00023300768 0.00034115976 8.731404e-05 0.00058242667
0.00034481534 -0.00018267242 -0.0050677946 -0.003725468 -0.014081539 -0.00024258772 -0.0042538536 -0.0008269109
-0.00015060922 0.00013811994 0.00015021855 -0.008916629 -0.0004950442 -0.010793132 5.726076e-06 1.5873207e-05
0.0005169087 -0.00013800041 7.281177e-05 0.00029667874 0.0001378686 0.008378779 -0.011851121 -0.0001131121
-0.00023734284 -2.1197728e-05 0.0035489306 -0.00016580845 0.008630873 0.00019602179 0.0005398085 0.0006300119
0.0036972784 -2.25132e-06 -9.250028e-05 -0.00010571398 -0.0002686243 0.0028770184 -0.00020769551 -0.0006604097
-4.0434938e-05 -0.0006910261 -0.00088008324 0.0032561847 0.00062534976 7.2469535e-05 -0.0016026559 -1.7421808e-05
-0.005046096 0.003243847 -0.0010266564 -0.0056946566 -0.006511303 -3.670286e-05 -2.2082313e-06 -0.00050476677
-0.00026490155 -0.00015680814 0.00020651556 -0.0057129455 0.00024366862 -0.00011500112 -0.0005624263 -0.00036473517
0.0058052912 -0.014535963 0.001498154 -6.055696e-06 0.014223722 -4.5260746e-05 -0.00015166934 0.000539474
0.0061681764 0.0006962862 0.0016867191 -0.0026764916 -0.00046317358 0.00560467 -6.580846e-05 -0.0007209655
-0.00023648585 0.010165569 -0.008331213 0.016632926 0.000112113026 0.0014548235 -0.00015429259 -0.0039302483
-0.0118457535 -0.0119013395 0.0005781336 -0.0020075848 0.00012318809 0.012202806 -0.00020304493 -5.9629972e-05
0.004202057 0.003052255 -0.00020398077 8.827166e-05 0.00050932314 -0.0011289131 -0.005172056 0.00010430601
5.5150493e-05 -0.015325628 -0.00080881466 -0.0007117418 -0.00068947626 -0.00010766515 -0.00024010794 -0.0133724725
-0.0006962395 -0.01148232 -0.00090484857 0.00990789 -0.00028691685 -0.0011585985 0.00043242355 -0.00073303044
-0.0016102055 0.0007244003 0.00011809709 -0.0016507903 0.00048677766 0.016051548 0.0021412515 0.00060775294
0.0004622115 0.005036671 -5.2706266e-05 -0.0006735633 5.6611636e-05 4.915226e-05 -5.440368e-05 0.0068598706
-0.0006476441 0.00095262134 0.0001300397 0.00054636213 2.085982e-05 0.00057891884 0.013447109 -0.0007290667
8.05188e-05 0.00015113276 -6.408614e-05 0.00016370114 0.000104971004 0.0006622552 0.00021493193 2.4254594e-05
-0.00027353407 -0.0032382875 -0.0020553812 0.013212911 1.3975858e-05 -0.0029655704 -0.00074485206 0.0005908859
0.010505597 -8.516254e-05 -0.000711071 -0.01683818 0.00021702406 -0.0007262855 -1.0297901e-05 6.347716e-05

gcn2.w f4 [64, 64]
00000000: 6b42 28b9 a475 3dba b391 3dba 34f6 813c
00000010: dc15 2a39 7523 5eb8 5a73 3c3a be79 033a
00000020: 8894 5d36 7480 59bc b480 4c38 45cf 08b9
00000030: 4e08 5c39 020e 08b7 ced8 153a a584 3dba
00000040: d1ef 91bb 98e2 12ba fa26 1d3c 414b ff37
00000050: 8ce7 1eba 118d e439 479b 3ebc 6aa9 48bb
00000060: 346c 6f3c 0895 fa38 0179 e83a 64ef 31ba
00000070: c631 4ab8 96c2 83b8 2ca9 3537 8e38 763c
00000080: 072c 1fba 0b1d 93b8 c99d 3aba 30df ce38
00000090: 6c60 3bba b09a 65b8 555c 2737 6e15 ec37
000000a0: 6e62 76bb dfde 90ba fe53 b538 69f4 1fbc
000000b0: 079a 343a 8e09 adb9 5e19 b03a 110e a0b8
000000c0: 2516 1e3c 616b 843c 5c8f 27ba 3aaf 86bc
000000d0: 725a a0b9 6a16 123a cbab d2bb 4de3 c2b8
000000e0: 4e5c 99b8 4f69 be3b 2141 ca39 5907 3039
000000f0: 2312 3b39 c589 8cb9 c781 c3bb e6a1 d138
00000100: b522 0f3a ee2e dd37 f418 4a39 d1f7 8c39
00000110: 44d6 f9b8 1409 da39 6f32 1e37 ec35 3a38
00000120: 8150 d138 73a4 94b9 d12d 5538 bd49 1dbb
00000130: c78b 9d38 99fe c1ba 68b9 d6bb 52dc 7cb8
00000140: 3a3e 2c3c 27ca d038 2e08 4a36 483e 4a3b
00000150: e97b 013a f0f6 c739 105d 053a 6a66 d2b8
00000160: 5325 da38 6eca b5b9 dc4a 66bc c8fc e0b7
00000170: 90a6 be39 f2fb 9bb9 1531 4c39 7239 3039
00000180: 808a 7a3c 0e0e fb38 a9ba 0fb8 2948 6e3c
00000190: 970b 53bc ceb4 92b9 e348 fe38 3706 413c
000001a0: 6e2f 8639 ff67 4939 1f4e 4237 0c23 b0b5
000001b0: 2803 0139 f90c 9739 85a9 9cb9 c9ca 3e39
000001c0: 2346 fe38 97c4 20ba d373 b838 c531 8939
000001d0: 24e9 c4b6 7b92 18b9 51dc 8fb7 14ca 2639
000001e0: 1869 963b 4d31 f3b6 5765 f63b 26b6 ccbb
000001f0: 709d 1d37 dc3a 70bc a556 00bb b4b1 6239
00000200: fd8b 073c e1ce 84b7 6f3d 26bc 24f2 a3b8
00000210: dcd3 dd3b 3238 1ab9 52a6 da37 0036 0fbc
00000220: 4215 a9b9 c6d8 2db8 5112 31bc c447 4fb9
00000230: 2d7e 703c 9fa6 efb7 3af7 b33b a58f 00bc
00000240: 6728 5d3a e924 883c 92ee 1338 907f 5539
00000250: 2412 f6bb 22b4 50b8 7e87 66b7 21ea 9fba
00000260: 5ee1 1f3c c81a 523c f791 11bb 21f5 253b
00000270: 8004 373c 1df7 473b 1f10 1d38 eebb 43bc
00000280: a6a7 43bc 6962 3f3c e4df beb5 3850 b03a
00000290: 46bc aa39 5c6e fab9 1c4e ceba 78f7 0d39
000002a0: 4b6f d638 a71b 0937 87d4 3db9 411b 283a
000002b0: b0d8 2d3a f528 13ba 30cd 31b9 4781 a936
000002c0: 7fda b4bb 1da7 6539 e2dd ddb9 e3a4 81bc
000002d0: f9e5 313a a5eb 3239 11a7 fa37 583f f3b8
000002e0: 3a62 4dba 31d6 f038 9b96 603c b5a3 3439
000002f0: da19 813c db7d 9937 76a0 403a 34b0 3b3b
00000300: bdae c438 9e95 83b9 5669 07ba 60fe 3e38
00000310: 2327 a2b6 4dc8 9338 ea03 2039 b56b 2aba
00000320: 9ee0 573c a21a 2a38 4a17 c2b9 ec52 32b8
00000330: 1150 0838 55e0 9ebb b86e 233c aca1 453c
00000340: 6fc0 1eba ab18 f2b7 b805 23ba fa06 0ebc
00000350: 5ea3 d0b9 a0b4 99b9 60e4 2d39 1c9f 33b8
00000360: d179 b2b8 9117 70b7 2b12 82b7 4d03 a3bb
00000370: 003e 813c 8722 dcb8 1c38 afb8 8c33 0b37
00000380: d3f6 503b 2517 71bb 4212 103c fbea 1e3b
00000390: 2df2 2b39 43e7 beb9 5191 74bb b2f7 a6b8
000003a0: 82ce 7d39 63af 30ba bf82 303a 764d 22b9
000003b0: f9ee 2bb8 3220 a739 8ba5 d63b 281b 8538
000003c0: 71a2 a638 d134 0f3a 98af 9238 6206 9437
000003d0: 1e22 ceba 0fa3 97b9 a8a9 a338 54b1 36bb
000003e0: 066a 37ba 9594 fbb8 165e 1f3a ebbe 0d37
000003f0: 43e4 333b 5aae 46b9 34c9 a1b9 4f0a 8139
-0.00016046471 -0.00072273077 -0.00072314887 0.01586447 0.00016220607 -5.2961946e-05 0.00071888196 0.00050153944
3.3018023e-06 -0.0132752545 4.8757254e-05 -0.00013047185 0.00020983929 -8.109493e-06 0.00057162053 -0.00072295434
-0.004453637 -0.0005603223 0.009591812 3.0433412e-05 -0.0006061725 0.00043592651 -0.011633701 -0.0030618557
0.0146132 0.00011948688 0.0017736257 -0.0006787686 -4.8206908e-05 -6.282811e-05 1.0827829e-05 0.015028132
-0.0006071929 -7.014916e-05 -0.0007118849 9.8644174e-05 -0.0007147852 -5.474192e-05 9.975473e-06 2.8143371e-05
-0.003759529 -0.0011052749 8.646397e-05 -0.009762862 0.0006889407 -0.0003300425 0.0013435294 -7.6320146e-05
0.009648834 0.016164484 -0.00063919066 -0.016440976 -0.00030584965 0.0005572798 -0.0064291707 -9.292979e-05
-7.3128016e-05 0.0058108936 0.00038576967 0.00016787405 0.00017840466 -0.00026805527 -0.0059663984 9.9960525e-05
0.0005460189 2.6367106e-05 0.00019273517 0.00026887518 -0.00011913155 0.00041586964 9.429276e-06 4.4396074e-05
9.9808916e-05 -0.00028351284 5.0825827e-05 -0.002400025 7.512379e-05 -0.0014800607 -0.006552864 -6.028667e-05
0.010512883 9.955867e-05 3.0105107e-06 0.0030859876 0.00049394235 0.0003814022 0.0005087415 -0.000100326564
0.00010402002 -0.00034673832 -0.014055934 -2.6820591e-05 0.00036363723 -0.00029751618 0.0001947324 0.00016806068
0.01529181 0.000119712306 -3.4267698e-05 0.0145435715 -0.012881181 -0.00027982 0.0001212524 0.011781267
0.0002559381 0.00019207595 1.158149e-05 -1.3123222e-06 0.00012303574 0.0002881063 -0.0002988094 0.00018195355
0.00012124728 -0.000613281 8.795378e-05 0.00026167757 -5.8683963e-06 -0.00014550418 -1.7149521e-05 0.00015906274
0.004590165 -7.2477037e-06 0.007519405 -0.0062472997 9.3945855e-06 -0.014662471 -0.0019582894 0.00021619239
0.008273122 -1.5831962e-05 -0.010146483 -7.817548e-05 0.0067696404 -0.00014707519 2.6065074e-05 -0.008740902
-0.0003225003 -4.14483e-05 -0.01080759 -0.00019767793 0.01467852 -2.856861e-05 0.005492118 -0.0078467475
0.00084365014 0.016619163 3.5269717e-05 0.00020360784 -0.0075094867 -4.9758826e-05 -1.3740615e-05 -0.0012200513
0.009758322 0.012823768 -0.0022212246 0.002532311 0.0111705065 0.0030512281 3.744673e-05 -0.011946661
-0.011941826 0.011681178 -1.4221264e-06 0.0013451641 0.000325652 -0.0004776594 -0.0015739831 0.00013538997
0.00010225045 8.172275e-06 -0.00018103617 0.00064127526 0.0006631715 -0.0005613708 -0.00016956474 5.0516423e-06
-0.005519211 0.00021901396 -0.0004231772 -0.015825694 0.0006786283 0.00017063187 2.9880119e-05 -0.00011598942
-0.00078347663 0.00011483988 0.013707782 0.00017227123 0.015759397 1.8297627e-05 0.00073481293 0.002863896
9.378556e-05 -0.0002509774 -0.00051655376 4.5536435e-05 -4.8325323e-06 7.046815e-05 0.00015260247 -0.0006501035
0.0131761115 4.0555962e-05 -0.00037019915 -4.2515734e-05 3.2499494e-05 -0.00484852 0.009975128 0.012062471
-0.00060558965 -2.8860135e-05 -0.00062188087 -0.0086686555 -0.0003979457 -0.0002931701 0.00016583642 -4.2825108e-05
-8.5103915e-05 -1.4310602e-05 -1.5505668e-05 -0.0049747587 0.015776634 -0.00010496849 -8.3551015e-05 8.297047e-06
0.00318854 -0.0036787477 0.0087934155 0.0024248946 0.00016398048 -0.00036411927 -0.003731806 -7.961634e-05
0.0002420489 -0.0006740002 0.000673335 -0.0001547838 -4.0992138e-05 0.0003187671 0.006550496 6.3469924e-05
7.945754e-05 0.00054628873 6.9945294e-05 1.7645947e-05 -0.001572672 -0.00028922452 7.8040466e-05 -0.0027876692
-0.0006996695 -0.00011996288 0.00060793885 8.4487065e-06 0.0027449287 -0.00018947702 -0.0003085822 0.00024612478

gcn3.w f4 [14, 64]
00000000: 9dac 3439 9501 3ab9 90e2 123c f341 d6b6
00000010: dc13 1539 0dcf c9b8 58c4 abbb 2fd0 8aba
00000020: f184 57bc e4fb ca3b b04e d638 d1bf aebb
00000030: 890b 40ba 4158 1cbc dd97 91b8 1654 c139
00000040: ecd8 93b9 57be 3c3a f63f 37b9 b663 c138
00000050: 8dfe dd39 1bcc 1939 c20d a037 203e 1c3a
00000060: 7547 a139 4fab aeb9 91bd 4cb9 034d a738
00000070: a358 5e3c 60ba 1eba 0164 2abc e457 e536
00000080: a19c b737 84f1 ecb9 cbc2 73bb 0c52 12ba
00000090: 9bab 153c d5f6 063c b914 8338 8b88 143c
000000a0: bf2f d83b e6d5 76b9 1ec8 66b9 d8c5 97b7
000000b0: b901 de3b 15a3 0fbc 33f2 f9b8 e718 08bc
000000c0: c4d4 5a3b cd10 f239 dbda 21ba 818b 3939
000000d0: 45aa 14b9 593c 88bc 1914 4c3b fe0b 7b39
000000e0: 13f0 063a 1115 0539 f56e 5639 9376 2c3a
000000f0: 4a51 2eb8 2b6e 3238 e850 e0bb 1ac7 14b9
00000100: 72f8 8ab8 beaa 9239 7c58 bc3a d6f2 4139
00000110: 88cc 8f39 5277 d3b7 0722 273a d49f 2c3a
00000120: 9862 d7b7 14c3 203a 5042 553c fd47 0eb6
00000130: a2cf a3b9 2a0b 403a 65e5 87ba 610f 633a
00000140: 0420 1ab9 8d45 d0ba e4cf e0b8 8510 91b9
00000150: a528 f438 8963 203c 7a86 f3b8 4f4e 7938
00000160: 650c 3db9 f789 d53b 5bcd 66bc b28a 7337
00000170: ac87 da38 33b7 92b8 cf5d 82ba 51b8 c438
00000180: 5986 c437 67a1 1bb9 9248 81bc ff84 f139
00000190: d688 a4b9 01ca b1b7 30e9 d239 f671 1fbc
000001a0: 6c2a efbb 4646 d539 cad9 ea38 d6f9 0bb9
000001b0: b03a 08bc eae8 f2bb beca f7b9 22b3 40ba
000001c0: 8d61 a6b9 43ac 593c 6d81 deba 642b 03ba
000001d0: a658 27b9 ce5a 6b38 9c15 88b9 5492 2f3b
000001e0: 7d87 c1b7 1013 d538 de62 49b9 2d0d 54b9
000001f0: 02ff 683c 7c72 59b8 3f2b 3d39 623f a83b
00000200: f843 823a c9dd 5839 2486 9b39 0b1e 2b3a
00000210: e8ad b4b7 021a ddb9 486e 36bb 5186 2cb9
00000220: 5563 6fbb 3308 8db9 a040 1a36 5fa9 76bc
00000230: 941c eb39 a18a 5eb9 3f4f ddb9 a9cd 50ba
00000240: 99fd eb36 d2f9 f339 7795 1838 9065 1d39
00000250: 8e6c 82bb 3b8a dfb8 5d69 2137 aa6f 1e38
00000260: 20de c23b 888c 56ba 22dc 7ebc 46a5 cbb8
00000270: 0f63 85ba ffb0 35b8 a322 8f39 9166 55ba
00000280: 9a8d f937 dba9 24bc d34e 123c 7886 9a3a
00000290: 782b 5139 50f9 9eb9 d83f 6bb9 810e 22ba
000002a0: 4dab fb39 77e3 4db9 ed7d 373a 6609 7237
000002b0: f93f 2238 e0c6 53b8 ba96 5f37 2e7a 9d3a
000002c0: 546e 183c 6afe 88b9 290e 193c 1df2 a2b9
000002d0: 747c 29bb a5a3 7bba 682d 0f34 cfb1 9d39
000002e0: d1b9 ed3b fb21 94bb effc a9b9 ee7a 103c
000002f0: e3ae a538 52f4 21bb 3da9 fd38 0cd0 b6ba
00000300: 0a35 9639 d8b4 9137 9b6f 0c3b 5e57 33bc
00000310: fe47 323a cc63 493c 18c1 3d37 8754 943b
00000320: 79b9 1d37 4cea 013b 3b47 8cba 66e5 6139
00000330: 5434 edb9 04b9 67b8 185f 2cb8 4f64 82b8
00000340: fc18 34b9 a126 16bb 72af af39 0d7a d33b
00000350: 6a27 90bb d068 6fb8 37bf ee38 d878 4fbb
00000360: 1a64 87b9 8874 51ba 910c 32bc 390c c439
00000370: a635 003c 01ca 1cb9 a190 c7b9 ceae 1a3a
00000380: dd87 07bc 370b 34ba 9cf9 9938 d3c2 a4bc
00000390: b3e1 34b9 a3f8 5abc 904a f1b9 520b 34b8
000003a0: eb7f 83b8 f77a 91bb 8dd5 383c 65f2 85b9
000003b0: 8889 8938 fa24 19b7 4d23 bcb8 16fb 43bc
000003c0: 3127 ce3b 7660 5eb8 4818 9a3a 3128 b23a
000003d0: 859c 8eb9 4ccd 1d3c 28dc 06ba c114 5039
000003e0: 5c34 2ab8 c38c 253c 1948 e1b8 bec2 2fba
000003f0: 2b03 d3b8 9e7d 763a 5aa3 3db9 ca75 3f39
0.00017230441 -0.00017738932 0.0089651495 -6.3853745e-06 0.00014217146 -9.622993e-05 -0.005241912 -0.0010590608
-0.013154254 0.0061945785 0.00010218972 -0.005332925 -0.00073259376 -0.009542526 -6.9424255e-05 0.00036874478
-0.00028199644 0.00071999937 -0.00017476067 9.22153e-05 0.0004234206 0.00014667252 1.9079893e-05 0.0005960185
0.00030761553 -0.000333155 -0.00019525575 7.977525e-05 0.013570937 -0.0006054994 -0.010399819 6.8349636e-06
2.1888236e-05 -0.0004519337 -0.0037194963 -0.0005581684 0.009135152 0.00823756 6.250427e-05 0.0090657575
0.0065974887 -0.00023540072 -0.00022009059 -1.809273e-05 0.0067751077 -0.008766909 -0.00011918358 -0.008306718
0.0033390978 0.00046170354 -0.00061742746 0.00017694944 -0.0001417781 -0.016630339 0.0031139909 0.00023941693
0.0005147468 0.00012691716 0.00020449965 0.0006578948 -4.156054e-05 4.254111e-05 -0.0068455823 -0.00014188551
-6.626629e-05 0.00027974503 0.0014369632 0.00018496378 0.00027427473 -2.5208723e-05 0.0006375615 0.00065850955
-2.5675909e-05 0.00061325845 0.013016298 -2.1201552e-06 -0.0003124448 0.00073258823 -0.0010368048 0.00086616544
-0.00014698511 -0.0015889868 -0.00010719875 -0.00027668863 0.00011642397 0.009789356 -0.00011612191 5.9439157e-05
-0.00018029062 0.006516691 -0.0140870465 1.4516221e-05 0.00010420321 -6.995946e-05 -0.000994617 9.38034e-05
2.3427581e-05 -0.00014842079 -0.015781675 0.00046066192 -0.00031382468 -2.119411e-05 0.0004022806 -0.00973176
-0.0072987583 0.00040678884 0.00011198556 -0.00013349144 -0.008314773 -0.0074130194 -0.00047262566 -0.00073509116
-0.00031734668 0.013285699 -0.0016975828 -0.0005003719 -0.00015959385 5.6112935e-05 -0.00025956042 0.00267901
-2.3070485e-05 0.00010160182 -0.00019205685 -0.00020222804 0.014220955 -5.1843454e-05 0.00018040555 0.005134509
0.0009938469 0.00020681987 0.00029663846 0.0006527609 -2.1538654e-05 -0.00042171782 -0.002783673 -0.00016453235
-0.0036527712 -0.00026899725 2.2985405e-06 -0.01505503 0.00044843985 -0.00021223213 -0.00042211448 -0.0007965216
7.0330684e-06 0.00046534702 3.6378824e-05 0.00015010522 -0.003980226 -0.00010659216 9.62088e-06 3.777413e-05
0.0059468895 -0.0008184393 -0.015555413 -9.710579e-05 -0.0010176616 -4.3318603e-05 0.00027300892 -0.0008140589
2.9749051e-05 -0.010050262 0.008929926 0.0011789342 0.00019947987 -0.0003032186 -0.0002243513 -0.0006181971
0.0004800208 -0.00019635061 0.00069996604 1.4426512e-05 3.868339e-05 -5.0491537e-05 1.332693e-05 0.0012014562
0.009303648 -0.00026129495 0.009341755 -0.00031079436 -0.0025861533 -0.0009599275 1.3334432e-07 0.0003007785
0.007254817 -0.0045206524 -0.00032422642 0.008818371 7.900388e-05 -0.0024712277 0.00012095503 -0.0013947501
0.00028649747 1.7369559e-05 0.0021428827 -0.010946123 0.0006800889 0.01229186 1.1310236e-05 0.004526678
9.401113e-06 0.001982349 -0.0010702381 0.0002154313 -0.0004524315 -5.5247e-05 -4.109656e-05 -6.217567e-05
-0.00017175445 -0.0022911208 0.00033509318 0.0064537586 -0.00439923 -5.7079655e-05 0.00011384341 -0.0031657722
-0.00025823788 -0.0007990082 -0.010867254 0.0003739314 0.007825291 -0.00014952572 -0.00038063995 0.0005900682
-0.008272138 -0.0006868126 7.342102e-05 -0.02011243 -0.00017250217 -0.013364944 -0.00046022655 -4.2925887e-05
-6.270393e-05 -0.0044397074 0.011281383 -0.00025548335 6.558286e-05 -9.12812e-06 -8.971114e-05 -0.011961719
0.006291293 -5.301876e-05 0.0011756504 0.00135923 -0.00027200967 0.009631466 -0.00051445 0.00019844157
-4.0579922e-05 0.010104361 -0.00010742265 -0.0006704739 -0.00010061854 0.00094028737 -0.00018085298 0.0001825906

gcn4.w f4 [64, 64]
00000000: fe00 123a cdbb d338 a19b 7dbc c54b 48ba
00000010: e0b9 8cb8 6ded 7739 0740 5a38 52d0 ea3b
00000020: 8b02 26ba 3211 a839 81cd 983b 0adf cf39
00000030: 63c6 db3a 20fb 31b8 f506 96b8 496e 26bc
00000040: 6d0e 4b3a a94e 1b38 624d d0b9 6203 c3b8
00000050: 6322 b8b8 e4cd 6c3c 22f6 e5bb 16a0 6e38
00000060: b540 a9b9 c8ba 58bc f9ef 2739 d65e 6bb9
00000070: 28d9 30b9 3232 01b8 1778 23bc 3846 263a
00000080: 06fa 01ba 140d f2bb a5ea 63b9 2f1b 07ba
00000090: e60a aeb9 8dd3 52b9 95b0 6b3c d457 6235
000000a0: 1bb8 19b8 8bb5 a738 398c e7b9 2f56 17bb
000000b0: 0487 7bb9 6735 1db7 3579 7138 e52c 40b8
000000c0: 477e 92bc 015f 9ab6 a979 24b8 c10b 3eba
000000d0: 0bcc 9938 c6b9 4e3a 13d7 c2b8 54ce fd38
000000e0: 5b7e 59b9 3018 2fbc dab1 ffb9 b5d6 55bc
000000f0: ff40 8f38 7791 973b be2f 023b 5d73 69bc
00000100: 9b4b 5837 f48a 303a e5b0 7f36 13d3 cdb7
00000110: 1be6 9f39 3c27 c339 4699 beb9 b688 b8b9
00000120: 09b1 983b e9f8 25ba f04b 3939 ecbc eabb
00000130: 5501 1d3c c598 e239 1325 cdb8 9caa 7ab8
00000140: 29ab 3839 6230 3dba 3ea1 4b3b 1528 21b8
00000150: 14fd 293a 3a42 d1b9 4c51 0dba 0d83 1dbb
00000160: 26b5 0539 d2e0 35ba 3576 fd3b f481 1ebc
00000170: 2734 3e3c 91c5 0abb 0dc1 10b9 1628 0ebc
00000180: 0b15 84b6 51fe 45bc ec7e f2b8 d319 dcb8
00000190: 3ec9 0d38 5d8d 4cbc fe0c 2eb8 22d3 a738
000001a0: f702 7dbc bcd0 ac3a 39fa 51bb d72d 6bb8
000001b0: 9118 8038 b470 e539 4d95 8139 1d11 063a
000001c0: a976 21b7 1000 613b 6311 d73a 3e5b 05b8
000001d0: 9d86 893c 0c5d 693a f179 53bb 90af 213c
000001e0: 00f6 eeb8 c831 88b8 f690 3c3a 7124 3039
000001f0: 8d3d 0638 d949 2eb8 cd53 2238 860b 4b3c
00000200: f4aa 89bb 24a2 283a 4298 0239 45d7 de38
00000210: 36f0 9539 aeae b139 95d2 153c 525b 6bbc
00000220: 44b6 ac38 f5ab c4b9 6e11 5b39 bc7d 18b8
00000230: ab96 0539 bed3 20bc 60fa 3db9 fbdb e637
00000240: a22d ab38 27eb acb8 2ed2 39bb da75 d0b9
00000250: 3757 2638 c52d 34ba e06a 7d39 4a6c 82bc
00000260: a96f 333a 0c4b 83b7 c82e c83b 46ab 91bb
00000270: 7519 81b9 0a9f e3b8 448b ad3a 13d5 ddb8
00000280: b2f1 9f38 dbed 833c cac9 6c38 79e6 293a
00000290: ebdd dab8 0471 47bc 9a4d 863b 5324 243a
000002a0: 6815 23b9 ca01 b0b7 27a5 e038 e286 3f37
000002b0: b32d 1b38 7c31 63bc 9acf ca37 f6d6 b437
000002c0: a161 9039 dba0 0c3c c7fe 8439 9037 7b39
000002d0: 62ad ff3b 9f89 6bbb 440a 8736 54de 1bb9
000002e0: 04fc 15b8 b7d8 3c38 7030 a138 b1db b039
000002f0: 6cc1 f9b8 dd61 8738 cabe ebbb 1c04 b0bb
00000300: 5d39 ea38 6730 7039 3d62 97b9 a2c5 0639
00000310: 7b6a 9437 70b2 833a 1d42 06b9 2e3c 2c39
00000320: b2da 413b bc18 d2bb d8c7 5cb8 1c42 9b39
00000330: b736 3139 6947 04ba 1871 c636 6429 f6b6
00000340: 8061 d03b e023 fcb8 90b7 023a eb99 ee3b
00000350: 2ff9 8b37 404d 3d39 8f2c f237 76ab 42bc
00000360: cc2f 9c39 a37a 273b 12c1 c6b8 db23 3cba
00000370: 411f 39ba 33da 24b8 d429 4abc 50b5 373a
00000380: 85be 82b8 85af 21ba 6217 e0b9 9380 68bc
00000390: bb0f 82bb c919 f53b b11c c9b7 a6b3 2aba
000003a0: ac1b 56bc 625c 5d39 d837 3a3a b0d0 21bc
000003b0: 50d4 4039 a024 30ba c181 7637 7b4d 0538
000003c0: 6cd3 62b8 ff65 3a37 53be 17b9 e6ac 693a
000003d0: ecb9 b236 2dab 2fbc c0c7 3cba d83c 5dbc
000003e0: 3c18 073c 6e2b 27b9 47fd 5bb9 7d44 0239
000003f0: 53ed 9437 e691 813c 73ec c8b8 33ca 0cba
0.0005569606 0.00010096245 -0.015478999 -0.0007640685 -6.710342e-05 0.00023644204 5.203488e-05 0.007165947
-0.00063327764 0.00032056269 0.00466317 0.00039648294 0.0016767498 -4.2433967e-05 -7.153853e-05 -0.01015813
0.0007745985 3.7028138e-05 -0.00039730506 -9.298955e-05 -8.780209e-05 0.014453385 -0.0070178667 5.6892713e-05
-0.00032282402 -0.013228126 0.00016015758 -0.00022446676 -0.00016865565 -3.0802745e-05 -0.009977362 0.0006342861
-0.0004958216 -0.007386813 -0.00021735819 -0.0005153892 -0.00033195986 -0.0002010597 0.014385362 8.431937e-07
-3.6649504e-05 7.9969956e-05 -0.00044164227 -0.002309214 -0.00023987523 -9.370363e-06 5.757176e-05 -4.581818e-05
-0.01788248 -4.6006176e-06 -3.9213952e-05 -0.0007249676 7.3336145e-05 0.0007885959 -9.2907016e-05 0.00012102412
-0.00020741804 -0.010686919 -0.000487699 -0.013051678 6.830878e-05 0.004625495 0.0019864882 -0.014248696
1.28922065e-05 0.0006734573 3.8100927e-06 -2.4536193e-05 0.00030498285 0.0003722253 -0.00036353822 -0.00035197072
0.004659776 -0.0006331341 0.00017671264 -0.0071636345 0.009582837 0.000432199 -9.782067e-05 -5.9763537e-05
0.0001761137 -0.00072169874 0.003107145 -3.842272e-05 0.000648455 -0.0003991293 -0.00053908373 -0.0024034411
0.00012751351 -0.0006938103 0.0077350386 -0.009674538 0.011609114 -0.0021174888 -0.00013804827 -0.008676549
-3.9363563e-06 -0.01208456 -0.000115631 -0.000104952276 3.380444e-05 -0.0124848755 -4.1496933e-05 8.002507e-05
-0.015442601 0.0013184766 -0.0032040013 -5.6071058e-05 6.1080915e-05 0.00043762254 0.00024716035 0.00051142444
-9.6239755e-06 0.0034332313 0.001640838 -3.1794647e-05 0.016787821 0.00089021097 -0.0032268728 0.0098685175
-0.000113945454 -6.494258e-05 0.0007193232 0.00016798243 3.2005413e-05 -4.155361e-05 3.8701855e-05 0.012392884
-0.0042012874 0.0006432852 0.00012454487 0.00010625882 0.00028598466 0.00033890217 0.009144445 -0.014365034
8.235549e-05 -0.0003751215 0.0002089196 -3.6356723e-05 0.00012739997 -0.009816108 -0.00018117717 2.7520573e-05
8.162415e-05 -8.2454e-05 -0.0028354037 -0.00039760658 3.965871e-05 -0.0006873275 0.00024167774 -0.015920777
0.0006844947 -1.5651363e-05 0.0061090924 -0.004445466 -0.00024623764 -0.00010853827 0.0013240357 -0.00010577789
7.62673e-05 0.01610463 5.6454715e-05 0.00064811815 -0.000104363855 -0.012172941 0.0040986063 0.0006261516
-0.00015552866 -2.0981668e-05 0.000107119144 1.1415892e-05 3.699744e-05 -0.013866778 2.4176949e-05 2.1557771e-05
0.0002753856 0.008583273 0.00025366826 0.00023957924 0.0078026513 -0.0035940183 4.0245086e-06 -0.00014864776
-3.5759076e-05 4.5024524e-05 7.6861004e-05 0.0003373302 -0.00011909273 6.45553e-05 -0.0071943747 -0.0053715836
0.00011168674 0.00022906215 -0.00028874158 0.0001285286 1.7692559e-05 0.0010047685 -0.00012803865 0.00016425617
0.0029579815 -0.00641164 -5.2638206e-05 0.0002961316 0.00016900418 -0.00050460413 5.9140257e-06 -7.33619e-06
0.006359279 -0.000120229786 0.00049864594 0.007281532 1.6686126e-05 0.00018053222 2.8869397e-05 -0.0118817
0.0002979025 0.0025555275 -9.477338e-05 -0.0007176974 -0.0007061847 -3.930386e-05 -0.012339074 0.00070079137
-6.23437e-05 -0.0006167817 -0.0004274203 -0.014190811 -0.0039691604 0.0074798805 -2.3974428e-05 -0.0006511755
-0.013068121 0.00021110618 0.0007103658 -0.009876415 0.0001838964 -0.0006719325 1.4692953e-05 3.178183e-05
-5.40795e-05 1.1110212e-05 -0.00014471383 0.00089140085 5.3264575e-06 -0.010721964 -0.0007201396 -0.013503276
0.008245524 -0.0001594254 -0.0002097982 0.0001242328 1.7753488e-05 0.01581664 -9.580785e-05 -0.0005370706

fc1.weight f4 [64, 2]
00000000: b850 0cb8 076a 8bbe a299 3039 ce10 fb3e
00000010: 91af 5b3e 25d8 b93e 0772 5c3e 20fc 0f3f
00000020: 9e70 453e 8f89 7a3c 91f2 303e e6b4 56be
00000030: 2a11 973e 69be a33d 57b8 8bbe d0dd 823e
00000040: 879e 91bc c56d 9d3e 5380 94be 4514 83be
00000050: c64c df3e d6f6 0bbf ad99 23be 3a23 a4bd
00000060: 5d46 ef3a d06f 9cbd 766e 603e e486 c5be
00000070: 7d45 803e a694 023f ba03 4c3e 67cf 38bc
00000080: 428f 9d3e d330 453a d783 033d 06c1 c03e
00000090: e8ac 063f 06be a4be 1c3a f13e 4074 eebe
000000a0: 37e0 fbbc df6b cb3d 4b4d 45be a288 05bf
000000b0: 55f7 ba3e bb34 c2be 4162 07bf 918f 1d3b
000000c0: 0fb9 4f3d 9241 323e 5315 a4be ee7d a1be
000000d0: 1b6a 02bf 1ae6 b6be 1338 2a3a 5447 babc
000000e0: e274 c03e 2bc5 8f3e 7aff ae3e c494 543e
000000f0: 9118 ad3d e56d e63e 57a4 0dbf fe11 2a39
00000100: 42aa b3be b32d 0639 4d02 eabe ebd3 883d
00000110: 8105 c5be c1f8 a1bb c81e 40b8 74af 1dbe
00000120: 9338 123e 9b69 83bd 2da4 d5be 255e 00bf
00000130: 5af2 08bf 7a50 70bc ed05 a2be 0078 0e3f
00000140: c818 5ebb 1d2a a8be 3fde a03d f2c9 b53e
00000150: 86e3 3e3e eb5f 053e 9deb a83e 1823 113e
00000160: 88ba 89be cdc4 94be be73 af39 9afe d53d
00000170: 4016 9c3e cac4 abbe d234 0f3f 458f 013e
00000180: 8d3a 8c3b 41c4 ab3d 586a 693b 2a43 e9be
00000190: b8ea 383e e137 afbe e13b 813c b341 e0be
000001a0: 3c9b d53e c430 8c3e e8cd 9f3d 352d bebe
000001b0: 36c5 67be 0ee2 9c3e 0289 7f3b 828b f3bd
000001c0: 60b8 873b a594 f8be fd6b 293e ed8b 8039
000001d0: fec9 00bf 2c11 9635 d5f6 c8be 5242 4a3b
000001e0: d98a 2fbd 274a a43d 9b3f da3e 8023 063c
000001f0: 02fb c93e c8e3 2abe b56f b838 a224 a53d
-3.3453776e-05 -0.2722933 0.000168419 0.49036258 0.21453692 0.36297718 0.21527873 0.5624409
0.19281241 0.015291586 0.17280032 -0.20967445 0.29505283 0.07995302 -0.27289078 0.25559855
-0.017775787 0.3074781 -0.29004154 -0.25601402 0.4361326 -0.54673517 -0.15976591 -0.080145314
0.0018255223 -0.07638514 0.21917138 -0.38579476 0.25053015 0.5100807 0.19923297 -0.011279917
0.3077336 0.0007522229 0.032108154 0.37647265 0.52607584 -0.32176226 0.47114646 -0.46573067
-0.030746562 0.09932684 -0.19267766 -0.5216161 0.36516824 -0.37930855 -0.528843 0.002404187
0.050713595 0.17407826 -0.3204752 -0.3154139 -0.50943154 -0.3572243 0.0006493341 -0.02273909
0.37589175 0.28080115 0.34179288 0.20759875 0.08451951 0.45005718 -0.5532889 0.00016219166
-0.35090834 0.0001279626 -0.4570488 0.06681045 -0.38480762 -0.004942984 -4.5805034e-05 -0.15398961
0.14279394 -0.06416627 -0.4172682 -0.50143653 -0.534948 -0.014667625 -0.31645146 0.55651855
-0.0033889282 -0.3284463 0.0785489 0.35505635 0.18641481 0.13024871 0.3299226 0.14173543
-0.26900125 -0.29056397 0.00033464836 0.10448952 0.30485725 -0.33548576 0.5593997 0.12652309
0.0042794407 0.08387042 0.0035616364 -0.45559055 0.18058288 -0.3422232 0.015775623 -0.43800125
0.41719997 0.27380955 0.078029454 -0.37143865 -0.22633824 0.30641216 0.0038991575 -0.118918434
0.0041418523 -0.48550907 0.165451 0.00024518315 -0.50308216 1.1180869e-06 -0.39250818 0.0030862284
-0.042857025 0.08021956 0.42626652 0.008187175 0.39449316 -0.16688454 8.794611e-05 0.08063628

fc1.bias f4 [64]
00000000: 29f7 9abe 10ad f2be f8dc 3b3e 59f6 f03b
00000010: 0d8e a43e f4fa ddbe 15ff d8be 1cc0 913e
00000020: 5a60 b73d 2b0d 64bd 2c44 13be d141 b63e
00000030: e5b9 4b3e fd46 79bd 742e cbbd c110 0a3f
00000040: ae47 60bd f0c4 a2be 9855 2b3e 4dfa 803e
00000050: c504 693e 7987 df3e 0d36 4e3a 0dd7 e73e
00000060: 9b9b ae3d f91c c2be 2ecb 91be 6bc7 b4be
00000070: 114d 8abe 89c8 e03c ac1c 133e 3f51 f2bc
00000080: 1fbc 36bb dbf8 b63e d8df dd3e e042 1c39
00000090: cbb8 213a 1af2 efbe 8d5d d13e 9352 d4be
000000a0: 4b8f 06bf ecf5 f43e f32a cebd 3710 17be
000000b0: 8ad0 cfbe e008 41bb 3732 e339 1ab9 a43e
000000c0: b26e da3e 0620 fd3e 4976 0d3c 7ea0 a9be
000000d0: de26 d93d 7afb f03e 1fe0 bdbe 020c ae3e
000000e0: f1f3 093f a238 cabe 929c 3c3a abae e33e
000000f0: defc 09bc 8bd0 8abd 5cb5 3f3d 3d73 95be
-0.30266693 -0.4739766 0.18346012 0.0073535857 0.32139626 -0.43355525 -0.42382112 0.2846688
0.089539245 -0.05567662 -0.14381474 0.3559709 0.19895132 -0.060858715 -0.099209696 0.53931814
-0.05475586 -0.31790876 0.1673187 0.25190964 0.22755726 0.43658045 0.00078663306 0.45281258
0.08525773 -0.3791273 -0.28475326 -0.35308394 -0.27011922 0.027439373 0.14366406 -0.029579757
-0.0027883125 0.35736737 0.43334842 0.00014902232 0.0006169199 -0.46864396 0.40891686 -0.4146925
-0.525624 0.47843874 -0.10066786 -0.14752279 -0.4058879 -0.0029454753 0.00043334227 0.3217247
0.4266258 0.49438494 0.008634158 -0.33130258 0.106031165 0.4706686 -0.37085053 0.33993536
0.5388785 -0.39496332 0.00071949617 0.444692 -0.008422105 -0.06778058 0.046803817 -0.29189482

output_1.weight f4 [24, 2112]
00000000: e67d 973c 14df afbb df30 76bc f234 ad3c
00000010: 108c 8a3a ccd4 f03b d011 5e3c 94c6 243c
00000020: 0ca6 233c 10d4 553b 3855 683c 504a f3ba
00000030: 58b6 8cbb c825 6dbc f88a 633b 8079 b53b
00000040: 5c4e ad3c 7640 7abc 7c4d c63b d040 ffbb
00000050: 74cd 993b 38bd 163b a632 89bc 7049 daba
00000060: 7dac 25bc 0c58 bcbb 8030 3bbb 7c6a a73b
00000070: 0024 9a3c 4013 8d3c e815 24bb 484e 743b
00000080: b0b7 acbc 2041 aabb 80e2 1e3a 1215 a43c
00000090: 5059 a73b ee50 0a3c 901f 8d3b 18db 603b
000000a0: 4d1e 08bc cda1 87bc 1139 81bc 4603 913c
000000b0: 3e51 a43c 32fa 903c 4858 0d3c 7332 22bc
000000c0: c07a 5a3b bac1 aebc 05c9 9cbc 6087 d33b
000000d0: d991 2abc d069 d7ba 30ab b2bb 7efe 87bc
000000e0: 18ae c6bb b081 b53a 3624 193c b861 ae3b
000000f0: a8a0 11bc 00bb 003c c196 1cbc ab0f 8cbc
00000100: 8089 343c d7a6 a8bc c04f 623c c087 32bb
00000110: 7960 88bc c0c4 4bba 687e 793c 3899 efbb
00000120: 1805 153c 7950 84bc c03e 8939 a81a 6e3c
00000130: 4871 683b a079 8bbc ece6 16bc 3e7e f7bb
00000140: 14bd 443c d81c a03b c21f 82bc 1d4d 1abc
00000150: 6ac5 2dbc d86c 203c a451 b5bb 42dd 823c
00000160: 56b8 3fbc b885 38bb 1e89 6bbc a0c5 883c
00000170: 0dbd 3dbc d470 8ebb b661 8abc 20f3 1cbb
00000180: b041 adbc d84f a33b b003 9ebb 5040 0d3c
00000190: 8e6d 103c 0e7e 8fbc e484 b13c 5ae6 993c
000001a0: 4c06 a23b 904b b53b a4c0 723c a0da e4ba
000001b0: d29f eabb 0ac7 b13c 50dd 65bb 16b0 f6bb
000001c0: a8b7 ec3b 7574 a3bc ec11 4c3c 5013 773c
000001d0: 425b 8fbc d86b 093b 5887 193b 7478 b33b
000001e0: c8cf 993b 5027 a83c 80e2 713a 58a7 123b
000001f0: 38da 8ebc 48a4 473c 8c9c 2e3c 38a3 8d3c
00000200: 2432 88bc 75be 3abc 0814 633c ce1a 8a3c
00000210: b08b 85bc c266 883c baab 043c b084 c4bb
00000220: 34a7 8a3c eebc 7ebc 4874 5c3c d0c6 afbc
00000230: 35d7 8dbc b229 23bc e650 883c 584c 263c
00000240: 14df e2bb 9c44 263c e0e9 733b 0ce6 c83b
00000250: aacb 8d3c 5822 1dbc d507 63bc 5ea7 8cbc
00000260: 54a8 74bc 801d 61bb f0c4 873b 606e 8ebb
00000270: 4069 463b b91d 55bc bc0f 8dbc 5142 05bc
00000280: 5808 db3b 6ab9 a7bc a281 4ebc 8cf8 bd3b
00000290: 00df 00ba dc7c 1b3c 4a11 963c 8c9c 633c
000002a0: 7c67 81bc 0480 b13b c845 3fbb b8bf bdbb
000002b0: e4d0 653c c4be ad3c 3047 66bb 8a55 40bc
000002c0: 90ef 9dbb c2a4 8cbc 88b4 38bc a8f2 bf3b
000002d0: 9027 4bbb 80c6 b53b 60be f13a b0d2 4dbc
000002e0: 6473 99bb 2073 603c f0a0 aabb ea37 943c
000002f0: b911 7abc 4821 0bbb e2e6 22bc 94cc b63b
00000300: 919d 45bc 6486 9a3b 0048 6a3a 8056 c93b
00000310: 5569 3dbc e8bc 8dbb 94b1 90bb e40b ab3c
00000320: 0000 c8b9 e0cf 473c 2e02 9abc e4d6 d43b
00000330: 3023 013b 66e1 76bc 14ff a5bb ecad 953c
00000340: d897 623b aab5 ad3c 7aca 2abc 8088 12ba
00000350: f80f 973c 846b 8bbc 9e2a 9e3c b06d 90bb
00000360: 04b8 b13c 7aa1 90bc c244 79bc 6756 78bc
00000370: 32a0 3cbc 8836 043b 780a 253b bc50 743c
00000380: 92d0 993c b650 85bc 9077 27bc 7187 b0bc
00000390: a8de 553c 0008 63b7 90f2 7fbb c206 cabb
000003a0: f0af 3c3b 054e 0fbc cc63 a3bb ca83 56bc
000003b0: 0005 093c 4128 51bc 4487 453c 2ed2 ae3c
000003c0: d625 79bc 48e6 b8bb a6bd 09bc 7d79 a1bc
000003d0: 2add a7bc 22f7 8cbc 0e47 13bc 48c8 5d3c
000003e0: b287 013c 0e7a 193c 58a1 07bc 857b 08bc
000003f0: 40c2 243c a89a 0abb fcd0 5d3c 824d 8c3c
0.01849265 -0.005367169 -0.0150263 0.02114341 0.0010570306 0.007349586 0.0135540515 0.01005711
0.009988319 0.003262762 0.014180474 -0.0018561576 -0.004294198 -0.01447434 0.0034720283 0.0055381656
0.021155529 -0.015274158 0.0060517173 -0.0077897087 0.0046936814 0.0023000967 -0.016747784 -0.0016653966
-0.010111925 -0.0057478007 -0.0028562844 0.0051091295 0.018815994 0.017221093 -0.0025037471 0.0037278105
-0.021083683 -0.005195752 0.0006060973 0.020029578 0.0051070824 0.008442147 0.004306741 0.0034310278
-0.0083080055 -0.016556645 -0.015774282 0.017701756 0.02005827 0.017697427 0.008627005 -0.009899723
0.0033337325 -0.02133261 -0.019138822 0.006455347 -0.010410749 -0.0016434733 -0.005452536 -0.016600844
-0.006063234 0.0013847854 0.009347012 0.0053217076 -0.008888401 0.007857084 -0.009557427 -0.017097315
0.011019111 -0.020587368 0.013812959 -0.0027241558 -0.016647564 -0.00077731535 0.0152278915 -0.0073119663
0.009095453 -0.016151654 0.0002617743 0.0145327225 0.0035467912 -0.017025769 -0.0092103295 -0.007552891
0.01200797 0.004886251 -0.015884284 -0.009417799 -0.010606149 0.009791575 -0.005533414 0.015974645
-0.011701664 -0.0028155874 -0.014375953 0.016695797 -0.011580718 -0.0043469463 -0.016892295 -0.0023948625
-0.021149486 0.0049838834 -0.004822217 0.00862129 0.008815182 -0.017516162 0.021669813 0.018786598
0.0049445983 0.0055326894 0.014816437 -0.0017460175 -0.0071601653 0.021701355 -0.003507454 -0.0075283153
0.007224042 -0.019952992 0.012455445 0.015080288 -0.01749957 0.002096882 0.0023426618 0.0054770056
0.004693959 0.020526558 0.00092271715 0.0022377577 -0.01743804 0.012185164 0.010657441 0.017289743
-0.016625471 -0.011397948 0.013859756 0.016858485 -0.01630196 0.016650561 0.008097583 -0.005997263
0.016925432 -0.015547974 0.013455458 -0.021457106 -0.017314533 -0.009958671 0.016640138 0.010150038
-0.0069235656 0.010148194 0.0037218258 0.0061309393 0.017309029 -0.009590708 -0.013856848 -0.01716965
-0.014932711 -0.0034349859 0.00414335 -0.004346654 0.0030275136 -0.013007575 -0.017219417 -0.008133487
0.0066843443 -0.020474155 -0.012604149 0.0057974514 -0.0004916042 0.009490218 0.018318791 0.013892304
-0.015796416 0.005416872 -0.002918588 -0.005790677 0.014026854 0.021209128 -0.0035137646 -0.011739144
-0.004819818 -0.017168406 -0.011273511 0.0058577843 -0.0030998923 0.0055473447 0.0018443577 -0.012562439
-0.004682945 0.013699323 -0.0052071735 0.018093068 -0.0152630145 -0.0021229554 -0.009942742 0.005578587
-0.012061493 0.0047157276 0.00089371204 0.006144345 -0.011560758 -0.004325498 -0.0044157 0.020879693
-0.00038146973 0.012195557 -0.018799867 0.0064953435 0.0019704811 -0.015068388 -0.005065808 0.018271409
0.003457537 0.021204788 -0.010424251 -0.0005589798 0.018440232 -0.01701904 0.01930743 -0.004407607
0.02169419 -0.017655123 -0.015214147 -0.015157319 -0.011512803 0.0020174105 0.0025183242 0.014911827
0.018776212 -0.016273838 -0.010221377 -0.021548958 0.013053574 -1.3532117e-05 -0.003905449 -0.0061653564
0.002879139 -0.008746629 -0.004986262 -0.013092944 0.0083630085 -0.012765945 0.012056176 0.021340456
-0.015206775 -0.005642686 -0.008407032 -0.01971125 -0.020491201 -0.017207686 -0.008989109 0.01353652
0.007905887 0.009367479 -0.008278213 -0.008330231 0.010056078 -0.0021149311 0.013538595 0.017126802

output_1.bias f4 [24]
00000000: a050 eb3b 00a1 12ba 7be2 a4bc 186a 20bc
00000010: 6cd7 08bc 28cf a43b c00b 833b 5015 8cba
00000020: a60b 6bbc c44e 403c a04e f33a 74b5 043c
00000030: dcd3 8fbb 5cd2 6c3c bc02 2b3c 523e 983c
00000040: 0402 99bc fe0e 77bc 30b1 833b 4023 aebb
00000050: 508f 06bb 202d aaba 427a 113c f443 153c
0.007181242 -0.0005593449 -0.020127526 -0.00979092 -0.008352142 0.0050295778 0.0039992034 -0.0010687504
-0.014346039 0.011737529 0.0018562861 0.008099902 -0.0043892693 0.01445445 0.010437664 0.018584404
-0.018677719 -0.015079258 0.004018925 -0.0053142607 -0.0020532198 -0.0012983419 0.008879246 0.00911044

fc2.weight f4 [64, 2112]
00000000: 96bd 0bb8 d614 c8b8 647c e536 dd57 87b8
00000010: c8a2 0cb7 c102 0938 0156 08b8 5871 e737
00000020: add1 8436 a3d8 4db8 6c5c c637 aa5e d938
00000030: dae7 4938 753c 5db6 79f1 ceb7 5ee9 08b8
00000040: ea27 5237 1e58 dc36 af8f 6738 44fa 9f37
00000050: 2ad0 2f38 9808 6237 115d 09b7 a41b ffb8
00000060: 4033 a136 f33a 91b8 6f0f 9238 8fe4 f137
00000070: 59a8 a7b8 4303 17b8 5baa 33b8 1540 beb8
00000080: 7e36 59b8 bf03 2eb8 9c0f ccb7 df62 e1b7
00000090: 60a7 12b6 1f3a 25b8 5522 b438 b6f6 f1b8
000000a0: ab04 53b8 72f1 39b8 2cf4 6c38 9910 97b7
000000b0: 626e 25b8 16bd 0db8 fe4c b738 fe06 5bb7
000000c0: 04b9 9c37 f5f6 6a38 5680 3337 5aff 77b6
000000d0: 701f 0738 2cc7 2d38 98cd 0db8 39ce 0b38
000000e0: 7df5 6a38 6979 3237 9d3c c5b8 de93 a036
000000f0: 7b94 8b38 50c3 19b8 2a1d 40b8 5f91 a1b6
00000100: 07d1 1536 f4d0 08b8 7347 9cb6 e1a4 bc38
00000110: d57c f137 0a80 3eb7 2565 d4b6 e242 2c38
00000120: 80fb 9038 cb20 a1b7 a392 8f38 3aa4 7fb7
00000130: fb2f bc38 0354 4e37 677e c137 e94a d9b6
00000140: 8b31 e734 63a7 a338 3cd0 a738 8e12 b438
00000150: 281f 33b8 b7ea 2737 dab8 dc36 047c fa37
00000160: 96e8 2438 32b0 9937 3261 3437 f2d9 5f38
00000170: 1039 9137 3940 fdb7 1b0c 8fb6 fa42 efb7
00000180: 3ef5 6b36 43fd fbb7 b820 46b7 339b af36
00000190: 5473 88b4 d46b d6b5 28fe 4838 682f e6b8
000001a0: 6090 6fb7 a4f4 a438 cd62 20b8 99e5 73b8
000001b0: f277 ceb7 1e05 f135 cda6 ba37 7f9e 22b8
000001c0: 81a1 b5b8 a18e a4b8 1fec 8e37 da7a a9b8
000001d0: c4a9 e2b7 da99 00b8 30b6 eeb8 0961 f8b7
000001e0: 1920 02b9 6ce7 47b7 345c 28b7 a3a1 58b8
000001f0: e197 1338 c4ab b6b6 b638 6eb8 6944 3ab7
00000200: bea5 1938 596f d5b8 c648 25b8 c111 8d38
00000210: 9ed3 ec37 5484 3c38 760b 97b8 aeb9 2537
00000220: 2edf ecb8 97af a7b7 1407 8fb8 6f90 c837
00000230: 2ecf 4f38 22ef ae35 ff57 7f37 5471 09b7
00000240: 780c 9638 6846 bfb7 0a9a 4a37 a63b 3bb8
00000250: a7a7 8a37 d52b 3cb8 47d8 fb37 0e68 1fb7
00000260: 676a 39b8 dcb2 d2b8 f284 2538 ac1c 7c37
00000270: ea1d 11b8 2eae 3938 010e ba37 74d1 43b8
00000280: e9f2 1fb8 a282 49b8 3f31 6a37 92fa 00b8
00000290: 536c 0738 30d8 62b7 9196 fbb7 c031 48b8
000002a0: 88ca 0d38 66a5 d5b7 45f2 acb8 81e1 b4b8
000002b0: b4d5 a7b7 f260 f0b7 9cef 6ab8 9313 dbb6
000002c0: 48a6 8b37 4ae0 d2b6 c3ed 5238 35e8 0038
000002d0: 324e 2a38 27cf ae35 be5d 39b7 680a 6bb8
000002e0: e245 6eb8 4712 73b7 7b41 2eb8 93be 3d38
000002f0: 6c34 34b8 68ae b0b8 70c3 03b8 4d9b 5eb6
00000300: 305e c236 573d a9b8 fd79 a337 1603 1bb8
00000310: db9e 1c37 eb9d 0338 3237 8737 ee6b 92b8
00000320: 841e 53b8 ebde 7a38 110d a137 af7d dd38
00000330: 936a c038 17f2 57b7 ddfb 9537 186d 9238
00000340: f051 91b8 08fd 4ab7 02a1 d9b8 4dad 31b8
00000350: 06e2 3bb8 a861 9838 4989 b535 0cdb 9238
00000360: 8a30 cc37 2f27 05b8 37fe 8537 ff34 1436
00000370: 0c56 58b8 9b69 9f38 4c5d 0d36 77ff b935
00000380: ab2e e738 1346 57b7 23b3 a738 65d9 46b8
00000390: 7e1c 51b7 d913 2838 1d4e 1c38 41ee acb7
000003a0: fba9 4938 0166 f9b7 aca4 82b8 c618 4c37
000003b0: 2b5f d038 7297 0938 f24f e1b7 922d 27b8
000003c0: 62f5 9e38 c03c 25b8 4af6 f3b7 e023 2cb8
000003d0: e9a8 6bb8 e633 beb6 aa40 8db7 df09 9a37
000003e0: 5a2d 0e38 33f8 ea37 385f 78b7 c440 6cb7
000003f0: 587b b4b8 db69 5cb8 1b03 9b37 0e26 1838
-3.3316748e-05 -9.540624e-05 6.839213e-06 -6.4536674e-05 -8.382551e-06 3.266591e-05 -3.2505024e-05 2.7590126e-05
3.958316e-06 -4.9077567e-05 2.3646477e-05 0.00010364999 4.8138063e-05 -3.2966757e-06 -2.4669558e-05 -3.2642267e-05
1.2526269e-05 6.566769e-06 5.5208508e-05 1.9070816e-05 4.191712e-05 1.3472651e-05 -8.187505e-06 -0.00012164496
4.80414e-06 -6.925119e-05 6.964697e-05 2.883587e-05 -7.994538e-05 -3.6004243e-05 -4.283558e-05 -9.071842e-05
-5.178758e-05 -4.148832e-05 -2.4325964e-05 -2.686813e-05 -2.185312e-06 -3.9393195e-05 8.589464e-05 -0.00011537729
-5.0310668e-05 -4.43323e-05 5.6494187e-05 -1.8008332e-05 -3.9441868e-05 -3.379312e-05 8.740461e-05 -1.3055045e-05
1.8682804e-05 5.6019944e-05 1.0699112e-05 -3.6954502e-06 3.2215787e-05 4.1431907e-05 -3.3808494e-05 3.3332242e-05
5.6018576e-05 1.0637895e-05 -9.404982e-05 4.7855856e-06 6.655693e-05 -3.665994e-05 -4.580353e-05 -4.8150973e-06
2.23244e-06 -3.261953e-05 -4.65748e-06 8.99525e-05 2.8787568e-05 -1.1354694e-05 -6.329867e-06 4.1070285e-05
6.9133006e-05 -1.9207966e-05 6.8460846e-05 -1.5237421e-05 8.9734756e-05 1.2298117e-05 2.3066254e-05 -6.4758246e-06
4.306315e-07 7.803624e-05 8.001967e-05 8.586525e-05 -4.2705942e-05 1.00086245e-05 6.5780305e-06 2.9860072e-05
3.931726e-05 1.8321069e-05 1.0751466e-05 5.337032e-05 1.7311919e-05 -3.0189856e-05 -4.2631414e-06 -2.8522209e-05
3.5160479e-06 -3.0039466e-05 -1.1809338e-05 5.233474e-06 -2.5415886e-07 -1.5975625e-06 4.7920417e-05 -0.00010976085
-1.4279125e-05 7.865697e-05 -3.8238988e-05 -5.8149544e-05 -2.4612968e-05 1.7957389e-06 2.22506e-05 -3.877142e-05
-8.660835e-05 -7.846696e-05 1.7037672e-05 -8.081431e-05 -2.7020353e-05 -3.0660864e-05 -0.000113826594 -2.960909e-05
-0.00012409723 -1.1915206e-05 -1.0035048e-05 -5.164895e-05 3.518898e-05 -5.444019e-06 -5.6796438e-05 -1.1102392e-05
3.6632402e-05 -0.000101773716 -3.940684e-05 6.726711e-05 2.8231934e-05 4.4945933e-05 -7.202376e-05 9.877998e-06
-0.000112949274 -1.9989717e-05 -6.82009e-05 2.3909115e-05 4.9545597e-05 1.3033607e-06 1.5219673e-05 -8.192223e-06
7.15488e-05 -2.280176e-05 1.2076003e-05 -4.4639826e-05 1.6528951e-05 -4.4863515e-05 3.0022244e-05 -9.501366e-06
-4.4206532e-05 -0.000100468955 3.946288e-05 1.5027046e-05 -3.4598554e-05 4.4269655e-05 2.2179449e-05 -4.668669e-05
-3.813478e-05 -4.8043796e-05 1.3958953e-05 -3.075094e-05 3.2287393e-05 -1.3520985e-05 -2.9991645e-05 -4.773005e-05
3.380564e-05 -2.5468598e-05 -8.246725e-05 -8.625072e-05 -2.0007465e-05 -2.8655373e-05 -5.60131e-05 -6.5289873e-06
1.6647522e-05 -6.2845984e-06 5.0289334e-05 3.0733838e-05 4.0603984e-05 1.30243e-06 -1.1048685e-05 -5.6038058e-05
-5.6808705e-05 -1.4488184e-05 -4.1545816e-05 4.5238598e-05 -4.2964166e-05 -8.42482e-05 -3.141485e-05 -3.3170975e-06
5.7926154e-06 -8.0699734e-05 1.948792e-05 -3.6957754e-05 9.335311e-06 3.1379906e-05 1.6118956e-05 -6.981926e-05
-5.033474e-05 5.9812253e-05 1.919878e-05 0.000105615116 9.1751244e-05 -1.2871365e-05 1.7879467e-05 6.982143e-05
-6.929401e-05 -1.2099052e-05 -0.000103773564 -4.2361487e-05 -4.4794775e-05 7.266115e-05 1.3525506e-06 7.002623e-05
2.4341298e-05 -3.1746164e-05 1.5973214e-05 2.2084566e-06 -5.157855e-05 7.6013814e-05 2.1064943e-06 1.3857924e-06
0.00011023631 -1.2831314e-05 7.996547e-05 -4.7409343e-05 -1.2464005e-05 4.0072806e-05 3.7266047e-05 -2.0614943e-05
4.808044e-05 -2.9730612e-05 -6.2295556e-05 1.2165116e-05 9.935939e-05 3.280439e-05 -2.6859318e-05 -3.9858343e-05
7.579733e-05 -3.9395643e-05 -2.9082545e-05 -4.1041407e-05 -5.6185676e-05 -5.668483e-06 -1.6838621e-05 1.8362827e-05
3.3897675e-05 2.801055e-05 -1.4804122e-05 -1.4081776e-05 -8.6060434e-05 -5.2550673e-05 1.8478886e-05 3.6275065e-05

fc2.bias f4 [64]
00000000: db3f e13a f4f5 3c3d 5185 a73c c0b3 f63c
00000010: f3cb ba3b 505b 08b6 6d6f 8b3b 0dc9 ba3a
00000020: 54b7 c639 f8e6 a23a bfda 153d 90ff 7fbb
00000030: a652 2039 4a6f 243a d53e 203b 9ef4 20b9
00000040: ab1c 7c3a d39e 113a aeed cb3a 9185 0bb9
00000050: d2a2 013a 292f 86ba 9fc7 41b9 0001 70b8
00000060: 3d43 143d 432c 89b8 1dbd 9dbb 5e4a a9b9
00000070: a45f 8d38 7984 0b3d 5b02 f739 5471 893c
00000080: 1f52 1db9 6491 75b7 d600 2f3d 4160 fcba
00000090: 53b4 163d 6e07 9ab9 9676 f83b abc8 e53c
000000a0: 6c62 2ab9 9de3 1439 c64d 853a 5317 0e38
000000b0: 59cd e138 2324 123d dbcd 333d bf18 393c
000000c0: e00c 07ba 8ea1 393d d490 ee3c 9544 383d
000000d0: 8e3c 3b3a d073 503a 54b6 e73c d5d0 e3b8
000000e0: f142 c33a 0fbc d638 3a95 9c3c da99 c83c
000000f0: 98ed 3a3a 1cb7 f83a 5fd7 703c 027c 463d
0.0017185168 0.046132997 0.020449312 0.030115008 0.005700582 -2.031873e-06 0.0042552263 0.0014250592
0.00037902093 0.0012428453 0.036585566 -0.003906224 0.00015289578 0.0006272687 0.0024451513 -0.00015349916
0.0009617309 0.00055549777 0.0015558505 -0.0001330583 0.00049452216 -0.0010237443 -0.00018480279 -5.722139e-05
0.036196936 -6.5409135e-05 -0.004813804 -0.000322896 6.7412184e-05 0.034061883 0.00047113266 0.016777672
-0.00015003279 -1.4636989e-05 0.042725407 -0.001925476 0.036793064 -0.00029378704 0.007582496 0.028049788
-0.00016249128 0.00014199172 0.0010170273 3.387716e-05 0.00010767085 0.035678994 0.04389749 0.011297404
-0.000515176 0.045320086 0.029121794 0.04498728 0.0007142507 0.0007951828 0.028285183 -0.000108631015
0.001489727 0.00010239344 0.019114126 0.024487425 0.0007130741 0.0018975469 0.014699786 0.048458107
