domain_adaption/best_src_net.pth.tar (torch, 811125 bytes, 16 tensors)

gcn1.w f4 [10, 64]
0.008826663 0.045928586 0.4018453 0.16531244 -0.15980825 0.11117084 -0.029733425 -0.021938322
0.60276073 -0.11298188 -0.03554294 -0.050272893 -0.031961318 1.1053296 0.25833008 -0.086655684
0.028111711 -0.14411458 0.27098778 0.0022160078 -0.046862986 -0.19249438 -0.19531426 -0.02682519
-0.01733293 0.10383553 0.14427297 0.0035348742 0.02463404 -0.1797891 -0.072129294 -0.14383714
-0.15013318 0.6221762 -0.07518821 -0.09737559 -0.07156183 0.15086171 0.049848076 0.075429045
0.33691463 0.4677498 0.46720853 0.19934809 -0.10765532 -0.04287457 -0.1348631 -0.0037094126
0.063886695 -0.026741298 -0.08623014 -0.11840339 0.0646534 -0.2174557 -0.194915 -0.12463112
-0.10280168 -0.16790384 -0.12846546 -0.021441208 -0.10420727 -0.048388813 -0.23039514 0.23353207
-0.12127667 -0.16461535 0.32016227 0.3645222 -0.06944874 0.12065647 0.048114743 -0.09879352
0.5947499 -0.083635986 0.11746049 -0.0193099 0.06210569 0.83039784 0.12863801 0.0071989275
-0.036230065 0.06494124 0.22277863 0.06997723 -0.013762721 -0.05132928 0.16214909 -0.014638409
-0.10803175 -0.02413033 0.115959935 -0.1262123 -0.098444395 -0.18267399 -0.05056051 -0.018602753
-0.2112644 0.4871322 0.0102018565 -0.15719806 0.11133943 -0.009334127 -0.093621776 0.005967886
0.3834753 0.38045117 0.17245993 -0.05039096 -0.02279322 -0.026629072 0.044666525 -0.16414647
-0.15632893 -0.0125784 -0.06707724 -0.02828091 -0.07051352 -0.2517402 -0.049274445 -0.02762673
-0.094006374 -0.123026505 -0.0660786 -0.07470149 -0.013777508 -0.10948692 -0.23855153 0.42186463
-0.06532977 -0.051859844 0.6858788 0.24497852 0.003644788 0.07815413 -0.052640554 0.010205495
0.5442134 -0.13973072 0.2832863 -0.08783646 -0.019717898 0.9934228 0.086627774 -0.15459579
0.05788502 -0.011808957 0.350319 0.0024067706 -0.03490748 -0.06327602 0.23212966 -0.10070448
-0.096512645 0.16674106 -0.113909334 -0.08328892 -0.14989394 -0.1410241 -0.0927556 -0.13148098
-0.101386145 0.56174386 -0.14283425 -0.04710858 0.014419411 0.30549335 -0.076318204 -0.12384684
0.12841026 0.49746308 0.47260225 -0.06719136 -0.11491269 -0.2232846 -0.13026828 0.016323637
-0.09969027 -0.12839755 -0.14782144 0.0036583166 0.12282307 -0.16382846 -0.037643205 0.13764258
-0.083988525 -0.054244325 -0.02731638 -0.25126883 -0.1438661 -0.04938759 -0.16889012 0.32695872
-0.15399005 -0.09950482 0.56793964 0.1682242 -0.06322837 0.065469794 -0.16468987 -0.117638834
0.4572707 -0.04863005 0.1919413 -0.12599796 0.11424794 0.94478834 0.33234635 -0.15115125
-0.099912666 -0.18416697 0.24779364 -0.009650075 -0.106347136 0.02072637 -0.038643006 -0.07203474
-0.08275652 -0.1442981 0.10152256 0.050299156 -0.15055355 -0.09210764 -0.05797742 -0.18061548
-0.13905151 0.5772931 -0.20629925 0.08180663 0.1862758 0.095552236 -0.024732025 0.011008336
0.18056482 0.44479382 0.53827155 0.031956047 0.030883785 0.0017723559 0.054914646 -0.07895003
0.027238982 -0.02224287 -0.18119836 -0.08877633 -0.09720753 -0.22574128 0.012207775 -0.10501317
-0.08566393 -0.022954285 0.0027366413 -0.080327444 -0.006352081 -0.08169896 -0.075290404 0.24646237
00000000: b59d 103c 9d1f 3c3d abbe cd3e aa47 293e
00000010: c6a4 23be 8aad e33d 8393 f3bc ffb7 b3bc
00000020: 874e 1a3f 0b63 e7bd 7995 11bd f3ea 4dbd
00000030: dfe9 02bd 717b 8d3f d743 843e 8978 b1bd
00000040: 884a e63c c692 13be e9be 8a3e 713a 113b
00000050: 67f3 3fbd 3f1d 45be 7600 48be 80c0 dbbc
00000060: cafd 8dbc b9a7 d43d 4bbc 133e 59a9 673b
00000070: 54cd c93c a21a 38be 86b8 93bd 0b4a 13be
00000080: 83bc 19be f046 1f3f 47fc 99bd da6c c7bd
00000090: 028f 92bd 7e7b 1a3e 7f2d 4c3d 8b7a 9a3d
000000a0: 1380 ac3e e77c ef3e f535 ef3e e821 4c3e
000000b0: 647a dcbd 3f9d 2fbd 8d19 0abe 9e19 73bb
000000c0: 07d7 823d 9110 dbbc 6d99 b0bd 7a7d f2bd
000000d0: 0069 843d b5ac 5ebe cc97 47be 9a3e ffbd
000000e0: b089 d2bd fcee 2bbe 738c 03be 79a5 afbc
000000f0: 9f6a d5bd 5933 46bd b4ec 6bbe 0823 6f3e
00000100: e75f f8bd ed90 28be 4fec a33e a7a2 ba3e
00000110: 243b 8ebd bd1a f73d f713 453d 4254 cabd
00000120: 8841 183f 5849 abbd 208f f03d cc2f 9ebc
00000130: 8962 7e3d f494 543f afb9 033e fbe4 eb3b
00000140: fa65 14bd eaff 843d 1520 643e 3950 8f3d
00000150: 097d 61bc a73e 52bd 690a 263e f0d5 6fbc
00000160: c03f ddbd f8ac c5bc 677c ed3d cc3d 01be
00000170: 379d c9bd e40e 3bbe 8a18 4fbd cd64 98bc
00000180: b255 58be 6469 f93e b025 273c 87f8 20be
00000190: ed05 e43d 2bee 18bc c6bc bfbd 428e c33b
000001a0: e056 c43e 7fca c23e 5699 303e c066 4ebd
000001b0: d9b8 babc 3625 dabc 3ff4 363d 0316 28be
000001c0: b114 20be a215 4ebc cb5f 89bd 5ead e7bc
000001d0: 6469 90bd 17e4 80be 00d4 49bd 7451 e2bc
000001e0: 6a86 c0bd 52f5 fbbd 3854 87bd 18fd 98bd
000001f0: 0fbb 61bc ae3a e0bd da46 74be a4fe d73e
00000200: 9dcb 85bd fd6a 54bd c195 2f3f a6db 7a3e
00000210: 65dd 6e3b 460f a03d 9f9d 57bd f334 273c
00000220: 9251 0b3f 9215 0fbe e70a 913e 9ae3 b3bd
00000230: 6e87 a1bc f550 7e3f e769 b13d 5c4e 1ebe
00000240: d818 6d3d 5b7a 41bc 035d b33e e9ba 1d3b
00000250: 25fb 0ebd dc96 81bd 66b3 6d3e 273e cebd
00000260: 6ca8 c5bd 2bbe 2a3e 4c49 e9bd 6293 aabd
00000270: cc7d 19be 9f68 10be a6f6 bdbd f3a2 06be
00000280: 8aa3 cfbd 72ce 0f3f 2443 12be edf4 40bd
00000290: 653f 6c3c a069 9c3e b84c 9cbd 69a3 fdbd
000002a0: fb7d 033e 7bb3 fe3e ecf8 f13e a09b 89bd
000002b0: 5857 ebbd b8a4 64be 0c65 05be 26b9 853c
000002c0: 6a2a ccbd a67a 03be 815e 17be 5ec0 6f3b
000002d0: a98a fb3d a6c2 27be c32f 1abd 2df2 0c3e
000002e0: 2d02 acbd 4c2f 5ebd 9ac6 dfbc 4fa6 80be
000002f0: a351 13be a44a 4abd 88f1 2cbe 2267 a73e
00000300: 91af 1dbe 2fc9 cbbd 7e64 113f f742 2c3e
00000310: e07d 81bd 0715 863d 76a4 28be a1ec f0bd
00000320: 631f ea3e 4e30 47bd 438c 443e 9c05 01be
00000330: d3fa e93d a6dd 713f 4d29 aa3e 65c7 1abe
00000340: 039f ccbd 4496 3cbe 9ebd 7d3e 591b 1ebc
00000350: 87cc d9bd 59ca a93c 2148 1ebd f386 93bd
00000360: 407c a9bd e2c2 13be 0feb cf3d 7d06 4e3d
00000370: b62a 1abe eea2 bcbd bb79 6dbd 44f3 38be
00000380: 8563 0ebe 7bc9 133f 1c40 53be 3c8a a73d
00000390: 15bf 3e3e e4b0 c33d d19a cabc 4f5c 343c
000003a0: fce5 383e 04bc e33e 2acc 093f 58e4 023d
000003b0: feff fc3c 654e e83a 2eee 603d 8eb0 a1bd
000003c0: 4924 df3c ae36 b6bc 108c 39be 5dd0 b5bd
000003d0: be14 c7bd b928 67be 1f03 483c 2511 d7bd
000003e0: 9270 afbd a00a bcbc 3959 333b b782 a4bd
000003f0: 1e25 d0bb c951 a7bd db31 9abd a260 7c3e

gcn2.w f4 [64, 64]
0.13786633 -0.006075756 0.14153337 0.08504638 -0.10550179 -0.25685835 -0.01676442 0.06598909
0.2838945 0.055713218 0.3072251 0.0119742965 0.03400527 0.07498432 0.1125226 -0.10880361
0.008574709 0.046669908 0.056931555 0.09832563 -0.12230079 0.018959627 0.05403888 0.08482981
-0.31470022 -0.20935743 0.035453714 0.06456277 -0.0012727227 0.002178025 -0.08917768 -0.03074221
0.05374959 0.06893585 -0.026673848 0.058039967 -0.019107068 -0.08625458 -0.024899269 -0.042058937
-0.076008916 0.024558628 -0.021729572 -0.06403743 0.08543044 -0.104241416 0.049983624 0.05341818
0.12286774 0.07142278 -0.21049847 -0.008606343 0.058821402 -0.10590285 -0.08840686 0.10973144
0.037925284 -0.063786305 -0.13925414 -0.070161164 -0.012735894 -0.4233677 -0.009671732 0.10608019
0.054986082 0.07052326 -0.058858722 -0.09237774 -0.011564501 0.08470069 -0.0043033673 -0.092155196
-0.08984352 0.0012661973 -0.10692257 0.14944713 -0.07331715 -0.0815973 0.02202133 -0.088050306
-0.076088205 0.07243681 0.14675416 0.032369785 0.00926129 -0.04808758 -0.1567816 -0.06330228
0.0193236 -0.04607718 0.07303541 -0.0095603345 0.16810441 0.0374466 -0.14190693 -0.06420622
0.04316016 0.054859355 0.014602753 0.10846474 -0.06794399 -0.026848244 -0.0065320027 0.0009489597
0.13937971 0.04036973 -0.032905933 0.168099 0.043101788 -0.115756355 0.13073389 -0.035063867
0.0062381453 -0.1470277 0.0390143 0.05513366 -0.10474317 -0.13012356 -0.05255215 0.030430162
0.04255381 -0.06949435 -0.03867696 0.07585919 -0.039032396 -0.014578567 0.025737114 -0.14339224
0.38452533 -0.03277398 -0.2557889 0.1115939 -0.19736046 -0.112247944 0.30207235 -0.32473812
-0.100674495 0.034291584 0.57896566 0.23122656 0.2078842 -0.3758805 0.4004116 -0.1590446
-0.07494328 0.21724992 0.08062667 0.096309096 0.16054541 -0.06966194 0.03348839 0.08290007
-0.13372375 0.031301823 -0.05732752 0.09563997 0.018384745 0.021843608 -0.063448906 -0.18382502
0.0152158 0.3312935 -0.25900373 0.36571524 0.3719245 -0.050735205 0.23809879 0.15283582
-0.08166743 -0.25207153 0.3358131 0.12262586 -0.14717631 -0.096959166 -0.35315225 -0.092390366
-0.23595141 0.17760506 -0.5234028 0.29884386 0.20605738 -0.11427934 -0.017056748 0.1620897
-0.064060256 -0.23661397 0.08289855 0.35458618 -0.122267865 0.08832279 -0.4410274 -0.038515534
0.1096085 0.036284514 -0.29287717 0.0462642 -0.07223624 -0.17193623 0.19899477 -0.18196109
0.30533588 0.23392898 0.3073575 0.14589615 0.14740299 -0.3930222 0.22248034 -0.31252593
-0.103352 0.25892988 0.08916579 0.23146054 -0.2051879 0.05908464 -0.042861313 -0.006817173
-0.32638106 -0.023854055 0.07068099 0.13418841 0.117199816 0.011915914 -0.11013353 -0.0936957
-0.06699624 0.17098023 -0.27566049 0.17546964 -0.08718895 0.08837949 0.40736502 0.26759163
0.011119176 -0.2592139 0.20156822 0.06419702 -0.026429154 -0.12581539 -0.105470754 0.0227431
0.004158056 0.3288253 0.039582465 0.08658635 0.1837953 0.10483881 0.041451246 0.20939444
0.23249137 -8.304866e-05 0.13684082 -0.17132187 0.060941596 -0.12906337 -0.24528597 -0.030293025
00000000: d52c 0d3e 2317 c7bb 20ee 103e cc2c ae3d
00000010: 5311 d8bd f082 83be 8955 89bc 4a25 873d
00000020: 9f5a 913e 8b33 643d 9c4c 9d3e d72f 443c
00000030: 1c49 0b3d 6191 993d 4072 e63d 6dd4 debd
00000040: f07c 0c3c f228 3f3d 1031 693d f35e c93d
00000050: d678 fabd 3851 9b3c df57 5d3d 40bb ad3d
00000060: 6320 a1be cb61 56be ea37 113d 7c39 843d
00000070: 7dd1 a6ba 32bd 0e3b caa2 b6bd 16d7 fbbc
00000080: 8828 5c3d 3d2e 8d3d 1d83 dabc 51bb 6d3d
00000090: 6d86 9cbc 3ea6 b0bd 8df9 cbbc fe45 2cbd
000000a0: 90aa 9bbd 2d2f c93c 3702 b2bc 0e26 83bd
000000b0: 28f6 ae3d 867c d5bd a1bb 4c3d 06cd 5a3d
000000c0: 15a2 fb3d 1b46 923d e98c 57be 9e01 0dbc
000000d0: b6ee 703d 98e3 d8bd a80e b5bd e1ba e03d
000000e0: 8b57 1b3d 65a2 82bd a398 0ebe a8b0 8fbd
000000f0: 36aa 50bc a7c3 d8be 2f76 1ebc 9240 d93d
00000100: 1639 613d 806e 903d d815 71bd 8a30 bdbd
00000110: 0879 3dbc 8e77 ad3d 4303 8dbb ddbb bcbd
00000120: e1ff b7bd 88f6 a53a 38fa dabd ab08 193e
00000130: 4d27 96bd 7c1c a7bd 1466 b43c b853 b4bd
00000140: 22d4 9bbd c059 943d b946 163e 2e96 043d
00000150: aabc 173c 7bf7 44bd 5b8b 20be a0a4 81bd
00000160: 874c 9e3c 6dbb 3cbd 9793 953d f3a2 1cbc
00000170: 9023 2c3e 9b61 193d 0d50 11be 8d7e 83bd
00000180: b5c8 303d 34b4 603d 6340 6f3c c322 de3d
00000190: 3826 8bbd d9f0 dbbc 690a d6bb 9cc3 783a
000001a0: 8eb9 0e3e bb5a 253d 5fc8 06bd 2522 2c3e
000001b0: 808b 303d ab11 edbd 1bdf 053e 219f 0fbd
000001c0: 5b69 cc3b 6e8e 16be 75cd 1f3d d5d3 613d
000001d0: 9683 d6bd 1c3f 05be ec40 57bd ad48 f93c
000001e0: e74c 2e3d 0e53 8ebd bb6b 1ebd 105c 9b3d
000001f0: 6fe0 1fbd f1da 6ebc a4d6 d23c 6ad5 12be
00000200: 81e0 c43e 023e 06bd c3f6 82be 588b e43d
00000210: dc18 4abe 40e2 e5bd 3aa9 9a3e 1344 a6be
00000220: 6e2e cebd 5575 0c3d 1837 143f a8c6 6c3e
00000230: 99df 543e 6973 c0be c002 cd3e 96dc 22be
00000240: dd7b 99bd c376 5e3e 981f a53d b43d c53d
00000250: 0466 243e ebaa 8ebd 1f2b 093d 83c7 a93d
00000260: e1ee 08be 5736 003d 43d0 6abd e3de c33d
00000270: 9b9b 963c 5ef1 b23c 80f1 81bd a03c 3cbe
00000280: b14b 793c 4d9f a93e 239c 84be 073f bb3e
00000290: e36c be3e b8cf 4fbd 2bd0 733e fe80 1c3e
000002a0: 4141 a7bd 850f 81be b2ef ab3e 4423 fb3d
000002b0: 63b5 16be 8792 c6bd 5fd0 b4be 2937 bdbd
000002c0: 3f9d 71be 1ade 353e bafd 05bf 1002 993e
000002d0: b500 533e 490b eabd 98ba 8bbc d8fa 253e
000002e0: 0632 83bd ef4a 72be b7c6 a93d 528c b53e
000002f0: 9367 fabd 94e2 b43d 58ce e1be 77c2 1dbd
00000300: 6c7a e03d 129f 143d fff3 95be 887f 3d3d
00000310: 98f0 93bd 0d10 30be 49c5 4b3e 0254 3abe
00000320: fc54 9c3e 148b 6f3e f65d 9d3e cd65 153e
00000330: cff0 163e 353a c9be e3d1 633e 6603 a0be
00000340: 37aa d3bd 7592 843e 8e9c b63d fe03 6d3e
00000350: c71c 52be bc02 723d 588f 2fbd 9862 dfbb
00000360: 6b1b a7be 9469 c3bc 32c1 903d b068 093e
00000370: 7506 f03d f73a 433c b08d e1bd 88e3 bfbd
00000380: 5335 89bd 7115 2f3e 5f23 8dbe 50ae 333e
00000390: 1f90 b2bd 4e00 b53d 2692 d03e c501 893e
000003a0: 342d 363c afb7 84be e667 4e3e ba79 833d
000003b0: f481 d8bc c0d5 00be 0d01 d8bd bd4f ba3c
000003c0: 4d40 883b ca5b a83e 3921 223d 2f54 b13d
000003d0: d634 3c3e bbb5 d63d c8c8 293d 7f6b 563e
000003e0: 3812 6e3e 692a aeb8 0020 0c3e 006f 2fbe
000003f0: e59d 793d 3029 04be 3f2c 7bbe 1429 f8bc

gcn3.w f4 [14, 64]
-0.16627777 -0.06873795 0.8604046 -0.101071894 -0.12554961 -0.088120535 0.014081294 -0.0045707044
0.83237857 0.008629701 0.28121895 -0.15800153 0.37200955 -0.065782756 0.18184608 -0.08371688
0.12360502 -0.05489926 -0.05711088 1.0051808 -0.028510425 -0.011031286 -0.11730735 -0.103688635
0.8098418 0.4046168 -0.14543071 1.1700673 0.77417105 -0.16862893 0.89473295 0.9961588
1.0263054 -0.034993425 0.5927137 -0.21122743 -0.058412716 -0.109290734 -0.048425905 -0.017003596
-0.10493065 -0.11549747 0.5735128 1.0456806 -0.07563327 -0.103417255 -0.033744074 -0.0077345646
0.015480831 0.73742634 0.20100938 0.36104864 -0.07385522 -0.05334596 -0.05402511 0.83675075
0.10373248 -0.049115058 -0.15143201 -0.12561549 -0.11958058 -0.17845733 0.4441578 -0.013664756
-0.020774322 0.02682341 0.80877477 -0.03480488 0.020122794 -0.07736433 -0.100319035 -0.11216114
0.5892936 0.15480061 0.298266 -0.013405305 0.47413352 -0.03104091 0.1805923 -0.0863006
-0.035082635 -0.073076054 -0.024670923 1.1893765 -0.09488677 -0.117208846 0.012362113 -0.027872864
0.78552294 -0.01367214 -0.020955145 1.321251 0.62656885 -0.12485999 0.97023493 0.98526543
1.0127041 -0.092029035 0.24688451 -0.014505729 -0.12696365 -0.0026990057 -0.055295426 -0.20852116
-0.11056521 -0.1737735 0.65625435 0.87310874 -0.15461043 -0.06627768 -0.07693152 -0.062039416
-0.18222867 0.6178812 -0.11279866 0.48768726 -0.026971865 -0.042044874 -0.050642267 0.8355474
-0.12451243 -0.105767794 -0.22981548 0.025443066 -0.07286524 -0.20191056 0.16429974 -0.06861675
-0.08301916 -0.054272853 0.8523218 -0.11929418 -0.10018919 0.03785647 -0.053166326 -0.111231856
0.75282913 0.033169504 -0.01564146 0.025613103 0.24234365 -0.0899998 0.26341447 -0.039495423
-0.20454174 -0.028371481 -0.03276485 1.1047488 0.04758872 0.19313796 -0.012070412 -0.049578913
0.887884 0.4634421 -0.068782404 1.2030386 0.9068567 -0.11978583 1.0437518 1.0167377
1.1068991 -0.081065126 0.38317195 -0.027419178 -0.054171477 -0.14972314 0.012998227 -0.09652841
-0.07125641 0.009900669 0.70858264 0.87521267 0.019638147 -0.11019155 -0.15967388 -0.026586622
-0.015537141 0.77547497 -0.09314856 0.45872596 0.0074728443 -0.06312809 0.11147331 0.8708899
-0.075466976 -0.04497757 -0.1560834 -0.1114955 -0.076197036 -0.053531952 0.2561248 0.013604695
0.0311038 -0.007641466 0.8562225 0.08888195 0.015236331 0.061146438 -0.13456152 -0.07413694
0.5804801 0.1027331 -0.067437 -0.06654066 0.37008545 -0.14586563 0.40582088 -0.071339555
-0.045211785 0.046897084 -0.00085107173 0.9617578 0.019945031 -0.10754621 -0.09519853 -0.047066826
0.74895376 0.28324077 -0.12760527 1.0895953 0.75964093 -0.11213363 0.9485251 0.9379508
1.0314091 0.03531733 0.35934448 -0.08683743 -0.14951995 0.024083028 -0.092962824 -0.0040929457
-0.15483512 0.035761677 0.5433116 0.836341 -0.05962803 -0.1656118 -0.1419731 -0.034479525
-0.0027997873 0.49956307 -0.14704093 0.3914692 0.069432095 -0.012469652 -0.18798283 0.8226631
-0.09399591 0.04129254 0.010469623 -0.05098287 0.039524402 -0.20247886 0.25424775 -0.14859767
00000000: b844 2abe 7bc6 8cbd 7a43 5c3f c8fe cebd
00000010: 1490 00be 8a78 b4bd 3ab5 663c d9c5 95bb
00000020: c316 553f 9763 0d3c eefb 8f3e 27cb 21be
00000030: 0978 be3e 1cb9 86bd dc35 3a3e c173 abbd
00000040: a124 fd3d 0cde 60bd 19ed 69bd c4a9 803f
00000050: b28e e9bc 91bc 34bc d63e f0bd b55a d4bd
00000060: cb51 4f3f ef29 cf3e caeb 14be c4c4 953f
00000070: 1330 463f 10ad 2cbe 380d 653f 4304 7f3f
00000080: fa5d 833f 4455 0fbd 16bc 173f 014c 58be
00000090: 2c42 6fbd d2d3 dfbd 3e5a 46bd 204b 8bbc
000000a0: e1e5 d6bd f089 ecbd bcd1 123f ddd8 853f
000000b0: 9ee5 9abd 6dcc d3bd 3a37 0abd 3b72 fdbb
000000c0: 50a3 7d3c f9c7 3c3f 67d5 4d3e 5edb b83e
000000d0: 6841 97bd 4b81 5abd 6f49 5dbd 4c35 563f
000000e0: b271 d43d df2c 49bd fe10 1bbe 59a1 00be
000000f0: aae6 f4bd 85bd 36be a768 e33e 24e2 5fbc
00000100: e92e aabc c5bc db3c dd0b 4f3f 908f 0ebd
00000110: 8fd8 a43c 3171 9ebd 1174 cdbd bdb4 e5bd
00000120: f2db 163f 0d84 1e3e 52b6 983e eda1 5bbc
00000130: a1c1 f23e 8249 febc 30ed 383e 5ebe b0bd
00000140: cfb2 0fbd e6a8 95bd ad1a cabc 7d3d 983f
00000150: ff53 c2bd 310b f0bd 768a 4a3c a255 e4bc
00000160: 0818 493f 1d01 60bc 20aa abbc c11e a93f
00000170: d166 203f 98b6 ffbd 5161 783f 5b3a 7c3f
00000180: 4aa0 813f b879 bcbd 4bcf 7c3e 70a9 6dbc
00000190: c202 02be cde1 30bb 757d 62bd 9286 55be
000001a0: 0370 e2bd aef1 31be 4900 283f 0e84 5f3f
000001b0: 3252 1ebe 98bc 87bd 468e 9dbd 0b1d 7ebd
000001c0: 279a 3abe 762d 1e3f fc02 e7bd 25b2 f93e
000001d0: 1af4 dcbc 3f37 2cbd 446e 4fbd 6fe6 553f
000001e0: 5f00 ffbd c99c d8bd c054 6bbe fa6d d03c
000001f0: 5f3a 95bd a4c1 4ebe 313e 283e f086 8cbd
00000200: f305 aabd 364d 5ebd c331 5a3f 8250 f4bd
00000210: fd2f cdbd 630f 1b3d efc4 59bd 87cd e3bd
00000220: 69b9 403f bfdc 073d 8522 80bc 92d2 d13c
00000230: ef28 783e d151 b8bd 43de 863e f4c5 21bd
00000240: 6473 51be 4f6b e8bc 6f34 06bd 6968 8d3f
00000250: 64ec 423d f5c5 453e fac2 45bc 4213 4bbd
00000260: 5e4c 633f 4848 ed3e cadd 8cbd 2bfd 993f
00000270: c327 683f 4652 f5bd a999 853f 7624 823f
00000280: dfae 8d3f 7905 a6bd 1d2f c43e 2f9e e0bc
00000290: e9e2 5dbd 0651 19be 84f6 543c b0b0 c5bd
000002a0: e1ee 91bd 6a36 223c ac65 353f f00d 603f
000002b0: 2ee0 a03c 1bac e1bd 8d81 23be 30cc d9bc
000002c0: 7e8f 7ebc 8785 463f acc4 bebd 21de ea3e
000002d0: c3de f43b 4d49 81bd 1e4c e43d a4f2 5e3f
000002e0: 6e8e 9abd 673a 38bd 54d4 1fbe c157 e4bd
000002f0: 310d 9cbd 5244 5bbd ca22 833e 3ae6 5e3c
00000300: 65cd fe3c 4365 fabb 6631 5b3f bd07 b63d
00000310: cea1 793c b074 7a3d 7fca 09be 1cd5 97bd
00000320: 589a 143f bb65 d23d 691c 8abd 7846 88bd
00000330: d77b bd3e cd5d 15be c1c7 cf3e 791a 92bd
00000340: fe2f 39bd 2817 403d 751a 5fba c235 763f
00000350: c363 a33c 3041 dcbd 72f7 c2bd 25c9 40bd
00000360: 6fbb 3f3f ef04 913e f5aa 02be dc77 8b3f
00000370: d477 423f 51a6 e5bd 8ad2 723f 8b1d 703f
00000380: 3705 843f e8a8 103d 00fc b73e d3d7 b1bd
00000390: c21b 19be c549 c53c 4b63 bebd 1e1e 86bb
000003a0: 198d 1ebe d67a 123d 7816 0b3f 721a 563f
000003b0: 853c 74bd 2496 29be 6561 11be 673a 0dbd
000003c0: a37c 37bb bbc6 ff3e e691 16be a76e c83e
000003d0: 6a32 8e3d 834d 4cbc 927e 40be 0d9a 523f
000003e0: ed80 c0bd 5e22 293d c888 2b3c 6ad3 50bd
000003f0: 57e4 213d 9e56 4fbe c32c 823e fd29 18be

gcn4.w f4 [64, 64]
0.019767223 0.05658186 0.0654784 0.119561076 0.19113274 -0.10672093 -0.11557 0.0022053183
-0.10728087 0.06445802 -0.054587528 -0.10174917 0.024493102 0.069808245 0.010966082 0.0887797
-0.024253182 0.01010899 0.14385796 -0.064154424 -0.029292662 -0.02206774 -0.04836057 0.00630026
-0.02612942 0.08765098 -0.14478415 -0.07538189 0.042997148 -0.029218286 -0.07939985 -0.023346612
-0.11116325 -0.003086388 0.015279858 0.10732976 0.10490607 0.05343857 -0.05059057 -0.014812038
-0.051181197 0.114759624 -0.010241896 -0.07352649 -0.07044145 0.048644576 0.022325069 -0.04812332
-0.05305931 -0.08722095 0.058825728 0.13615829 0.12923352 -0.14108156 -0.007683228 0.051706064
0.0074708625 0.014453971 -0.02918558 -0.055569813 -0.06838846 -0.03219845 0.077415705 0.115566455
0.017030528 0.009523351 0.11420696 0.09163032 0.039033376 -0.21941397 0.23217197 -0.007102107
-0.12641421 -0.043864567 -0.00061636185 -0.15355399 -0.008621411 -0.19357064 0.11427025 -0.025522305
-0.14291365 0.27926022 -0.043156493 0.04543264 -0.078236505 -0.108022355 0.23947035 -0.026491346
-0.095411085 0.014578209 0.08177083 0.083379805 -0.15580094 -0.018114233 0.07644031 0.082062475
-0.1690801 0.12912592 -0.0051886137 -0.120933466 0.029506689 0.021711444 -0.03944711 0.037798014
-0.06737614 -0.002392397 -0.025715409 0.04246721 -0.045287177 -0.24578767 0.09699858 0.063179135
-0.08041359 0.099997565 0.018509777 -0.0038193166 0.056406993 0.028598085 0.071869135 0.17293409
-0.050476685 0.023480771 -0.1400249 0.08566187 0.02467311 0.08227403 0.015585335 -0.020577852
0.2798378 -0.55930996 0.30363145 -0.31465933 0.258885 0.024673559 -0.001036868 0.28229097
0.26665658 -0.009859219 0.035716858 0.3888237 -0.47356308 -0.2217373 -0.04595094 0.2398349
-0.12994832 0.064478114 0.49999332 0.55506194 -0.58752805 -0.09660356 -0.3150284 -0.047374174
0.13165624 -0.23837546 -0.032814413 -0.4695443 0.18600327 -0.5470085 -0.3455238 0.03813138
0.2566572 0.21286654 -0.101904854 0.12833488 0.077662244 0.3181323 0.27422592 0.41524857
0.39675105 -0.4477609 -0.23900163 -0.24050981 -0.2672724 -0.2612048 0.40517822 -0.35906395
0.37886843 -0.19851084 -0.31758863 -0.3944355 0.11594361 -0.2346145 0.055667423 0.090407394
0.32012445 0.41888866 -0.18187799 -0.087019734 0.15350255 0.1473158 -0.56629527 -0.12460187
0.05545577 -0.13892889 -0.0043691383 0.079835944 0.006910256 0.097734444 -0.1860855 -0.074979916
0.075377196 -0.14916995 0.049454723 -0.013524016 -0.0374735 -0.055413805 0.14067005 -0.00642269
0.012472935 0.028099282 0.091671795 -0.016221298 -0.0035486177 -0.048715208 -0.015311669 0.00131234
-0.070054285 0.04078283 -0.02887543 -0.123966224 -0.063109465 0.038020916 -0.069194645 0.07141453
0.14968827 0.07222615 0.10899084 0.10219801 0.12566923 -0.025697932 -0.054333363 -0.016391266
0.10270122 0.047329754 0.00377804 0.02748668 -0.09370861 0.079773106 -0.066800326 0.0020828377
-0.09718474 -0.097756274 -0.026097374 -0.1159518 0.08441567 0.038842984 0.042059567 0.21877089
0.005996503 0.15290062 -0.06390305 0.09956424 0.095910855 -0.06926385 0.061090242 0.15640369
00000000: dfee a13c 61c2 673d 8a19 863d 70dc f43d
00000010: 4db8 433e 8190 dabd f7af ecbd 1a87 103b
00000020: 13b6 dbbd 9102 843d 2c97 5fbd de61 d0bd
00000030: c2a5 c83c a0f7 8e3d 15ab 333c 22d2 b53d
00000040: 9cae c6bc 2da0 253c 804f 133e 6563 83bd
00000050: 2af7 efbc 68c7 b4bc bc15 46bd 6972 ce3b
00000060: 5e0d d6bc 5b82 b33d 4c42 14be d261 9abd
00000070: c71d 303d 305b efbc 639c a2bd 6541 bfbc
00000080: 8fa9 e3bd 0045 4abb 5f58 7a3c b5cf db3d
00000090: fed8 d63d 67e2 5a3d 0f38 4fbd 31ae 72bc
000000a0: 60a3 51bd 1807 eb3d a0cd 27bc 0e95 96bd
000000b0: 9b43 90bd 893f 473d 10e3 b63c f51c 45bd
000000c0: b854 59bd e6a0 b2bd 3ff3 703d 146d 0b3e
000000d0: cb55 043e af77 10be 96c3 fbbb bdc9 533d
000000e0: 23ce f43b 59d0 6c3c 9916 efbc 2c9d 63bd
000000f0: 400f 8cbd 86e2 03bd 208c 9e3d 1bae ec3d
00000100: 9b83 8b3c d407 1c3c 57e5 e93d ada8 bb3d
00000110: 76e1 1f3d 0eae 60be 7dbe 6d3e cbb8 e8bb
00000120: ba72 01be 55ab 33bd 5893 21ba 423d 1dbe
00000130: d240 0dbc 6237 46be 8506 ea3d 2714 d1bc
00000140: f557 12be 32fb 8e3e ddc4 30bd 9317 3a3d
00000150: 763a a0bd d33a ddbd b737 753e 6104 d9bc
00000160: e366 c3bd 71d9 6e3c 7777 a73d 08c3 aa3d
00000170: 488a 1fbe 4d64 94bc bd8c 9c3d 5f10 a83d
00000180: 5523 2dbe 9639 043e 3f05 aabb f7ab f7bd
00000190: 03b8 f13c 33dc b13c 4b93 21bd 17d2 1a3d
000001a0: 80fc 89bd c3c9 1cbb 1fa9 d2bc 19f2 2d3d
000001b0: 0c7f 39bd c3af 7bbe 31a7 c63d 1064 813d
000001c0: e1af a4bd 86cb cc3d d1a1 973c 804d 7abb
000001d0: 050b 673d 8846 ea3c 2030 933d a215 313e
000001e0: a4c0 4ebd bf5a c03c b062 0fbe 7e6f af3d
000001f0: 431f ca3c 497f a83d a259 7f3c e292 a8bc
00000200: e646 8f3e f02e 0fbf 9575 9b3e 071b a1be
00000210: 938c 843e 3420 ca3c 84e7 87ba 7188 903e
00000220: 3687 883e 9088 21bc d74b 123d e613 c73e
00000230: dc76 f2be 1a0f 63be 0e37 3cbd 4897 753e
00000240: 2c11 05be 1a0d 843d 20ff ff3e 8a18 0e3f
00000250: 3d68 16bf 16d8 c5bd 674b a1be 6c0b 42bd
00000260: e5d0 063e b218 74be 6868 06bd 1c68 f0be
00000270: a477 3e3e c008 0cbf 7fe8 b0be a62f 1c3d
00000280: 9368 833e b0f9 593e 7eb3 d0bd 386a 033e
00000290: 620d 9f3d 3de2 a23e 5767 8c3e 769b d43e
000002a0: f422 cb3e eb40 e5be d8bc 74be 3448 76be
000002b0: eed7 88be a3bc 85be 8573 cf3e 3bd7 b7be
000002c0: 0bfb c13e 6d46 4bbe fa9a a2be 73f3 c9be
000002d0: d873 ed3d c93e 70be 8603 643d 8327 b93d
000002e0: 5ae7 a33e 9378 d63e 393e 3abe 6737 b2bd
000002f0: c62f 1d3e f4d9 163e baf8 10bf 442f ffbd
00000300: 9725 633d 6043 0ebe fd2a 8fbb 0781 a33d
00000310: 6e6f e23b ff28 c83d 338d 3ebe 128f 99bd
00000320: 5c5f 9a3d 02c0 18be 0991 4a3d d693 5dbc
00000330: d07d 19bd 96f9 62bd cf0b 103e 6e75 d2bb
00000340: 485b 4c3c 7730 e63c 6cbe bb3d 87e2 84bc
00000350: ed8f 68bb 9989 47bd cbdd 7abc d302 ac3a
00000360: 9f78 8fbd e60b 273d 2a8c ecbc 01e2 fdbd
00000370: 893f 81bd d2bb 1b3d ecb5 8dbd c841 923d
00000380: e247 193e 4eeb 933d 9736 df3d 314d d13d
00000390: 6faf 003e 7884 d2bc a98c 5ebd fa46 86bc
000003a0: 0455 d23d d8dc 413d fe98 773b bf2b e13c
000003b0: 4dea bfbd 1560 a33d 9cce 88bd 3880 083b
000003c0: cb08 c7bd 7134 c8bd 29ca d5bc 2378 edbd
000003d0: 1fe2 ac3d d219 1f3d a746 2c3d 7a05 603e
000003e0: 507e c43b fb91 1c3e 9adf 82bd 56e8 cb3d
000003f0: e96c c43d 35da 8dbd c339 7a3d 4a28 203e

fc1.weight f4 [64, 2]
0.019254318 -0.5244395 -0.05514317 -0.050001692 0.32357135 0.53966725 -0.00032155917 -0.00071376323
0.53788644 -0.5422136 0.45946872 -0.4778524 -0.08918342 -0.34245723 -0.363968 -0.71045536
0.262898 -0.48225155 -0.013382952 -0.017574122 -0.08647251 -0.44087732 0.46556365 0.46671075
-0.6720308 0.25197333 -0.57358277 0.30385697 -0.024388904 -0.010766282 0.24205026 -0.6687555
0.20671532 0.114415094 -0.015925745 3.536546e-06 0.2119387 -0.06898674 -0.67225426 0.041192975
-0.3115911 0.65532637 0.26915726 -0.32363018 0.030299071 -0.52742517 -0.7246534 0.7049339
0.46875486 0.028613048 0.5788867 0.09413325 -0.090958886 0.5787386 -0.4875074 -0.29518667
-0.0017343231 -4.831341e-05 -0.38208058 0.10808263 -0.3318496 -0.6730864 -0.52632886 0.0047612
-0.26338547 0.54947364 -0.3760828 -0.31961066 -0.29882684 0.48851505 -0.24986367 -0.38446137
0.43438163 -0.75099266 -0.6685205 0.60429585 0.44873038 0.4851204 0.56141984 -0.032935716
0.5123735 0.30647147 -0.07975654 0.22962187 0.0032075837 -0.031837843 -0.46635115 0.55756766
-0.051921424 -0.013716514 -0.03772207 -0.052210715 0.15245922 0.565598 -0.055958435 -0.04788361
0.0008239361 -0.004200244 0.23651564 0.2437696 -0.58051413 -0.9750211 -0.026384547 -0.039710395
0.16256338 -0.05581724 0.2432147 0.3187649 -0.6047011 -0.6897186 -0.52414125 -0.40931803
0.00011180905 -0.004274631 -0.10309375 -0.04044923 -0.30691886 0.7783659 -0.06625593 0.4425053
0.5178137 0.4328326 0.0031060565 -0.00028789262 0.41822997 0.045001343 -0.19177064 -0.55945563
00000000: 3bbb 9d3c ab41 06bf cedd 61bd 93ce 4cbd
00000010: 25ab a53e a227 0a3f f196 a8b9 d71b 3bba
00000020: edb2 093f 83ce 0abf 7c3f eb3e 12a9 f4be
00000030: cca5 b6bd 8e56 afbe 045a babe 67e0 35bf
00000040: 919a 863e ade9 f6be 2b44 5bbc 9bf7 8fbc
00000050: 8018 b1bd acba e1be 5c5e ee3e b6f4 ee3e
00000060: 360a 2cbf a602 813e 52d6 12bf 2493 9b3e
00000070: 3dcb c7bc 0f65 30bc 06dc 773e 8f33 2bbf
00000080: 2ead 533e 7652 ea3d b576 82bc 6655 6d36
00000090: 7506 593e ec48 8dbd db18 2cbf f7b9 283d
000000a0: de88 9fbe 78c3 273f fbce 893e dbb2 a5be
000000b0: c235 f83c 5605 07bf e382 39bf 8c76 343f
000000c0: a300 f03e e965 ea3c eb31 143f efc8 c03d
000000d0: a748 babd 3628 143f 929a f9be b522 97be
000000e0: 3a52 e3ba 21a4 4ab8 11a0 c3be 6d5a dd3d
000000f0: 31e8 a9be 644f 2cbf 7dbd 06bf d703 9c3b
00000100: 76da 86be 4eaa 0c3f ed8d c0be 02a4 a3be
00000110: d5ff 98be a51e fa3e 43dc 7fbe 1fd8 c4be
00000120: 4567 de3e 0e41 40bf 2924 2bbf 22b3 1a3f
00000130: fdbf e53e b361 f83e 36b9 0f3f 9ae7 06bd
00000140: e92a 033f d4e9 9c3e 6657 a3bd ff21 6b3e
00000150: 5336 523b 6668 02bd 94c5 eebe c1bc 0e3f
00000160: 8fab 54bd 3bbb 60bc 7582 1abd e7da 55bd
00000170: 451e 1c3e 08cb 103f ac34 65bd 9b21 44bd
00000180: 6afd 573a 33a2 89bb 2831 723e bd9e 793e
00000190: 939c 14bf fc9a 79bf 6824 d8bc 5ea7 22bd
000001a0: 0477 263e 9ea0 64bd 460d 793e 2735 a33e
000001b0: b1cd 1abf 6691 30bf 1f2e 06bf 2292 d1be
000001c0: 077b ea38 3412 8cbb d122 d3bd 17ae 25bd
000001d0: 7824 9dbe fd42 473f 30b1 87bd 0e90 e23e
000001e0: 708f 043f 3c9c dd3e fb8e 4b3b 4bf0 96b9
000001f0: 3d22 d63e 5453 383d 865f 44be 7c38 0fbf

fc1.bias f4 [64]
0.76445425 -0.05717616 -0.06645798 -0.007453718 -0.22214271 -0.20694184 0.6869222 0.2680477
0.48815244 -0.017570943 0.63781345 -0.3557573 0.6188292 0.8704033 -0.007913751 0.4797953
-0.439954 -0.073732086 -0.26245514 -0.18585493 -0.14371397 0.07498891 0.57502407 0.38644558
-0.06377622 0.3491887 -0.2439213 -0.024936056 -0.06300412 0.49721515 0.14616771 0.59403974
0.16078393 0.38823745 -0.11742576 0.5360107 0.46553543 0.17231044 -0.61313134 -0.32170013
0.015649607 -0.020681323 -0.054504365 0.47739488 -0.043473862 -0.052963123 -0.5595542 -0.09037392
-0.0062312945 -0.6824625 0.35065213 -0.030341726 -0.16386238 0.38479745 0.42630735 0.3449628
-0.0050743665 -0.034144867 -0.17496708 -0.12973052 0.015618573 -0.05424366 0.03702609 0.6953175
00000000: 46b3 433f 8d31 6abd 1f1b 88bd 523e f4bb
00000010: 6179 63be 90e8 53be 22da 2f3f 8c3d 893e
00000020: 1eef f93e f0f0 8fbc be47 233f d225 b6be
00000030: 976b 1e3f c0d2 5e3f ada8 01bc bba7 f53e
00000040: a741 e1be d900 97bd 8560 86be c150 3ebe
00000050: c129 13be c993 993d c734 133f 32dc c53e
00000060: 1b9d 82bd dcc8 b23e 81c6 79be b346 ccbc
00000070: 4e08 81bd fc92 fe3e fdac 153e fd12 183f
00000080: 8ba4 243e 0fc7 c63e eb7c f0bd ff37 093f
00000090: a95a ee3e 2672 303e 2df6 1cbf e1b5 a4be
000000a0: 9b33 803c e16b a9bc f83f 5fbd 1a6d f43e
000000b0: a611 32bd dcef 58bd f23e 0fbf f615 b9bd
000000c0: e32f ccbb ddb5 2ebf ad88 b33e 368f f8bc
000000d0: 8acb 27be 2c04 c53e f544 da3e f79e b03e
000000e0: df46 a6bb 7ddb 0bbd 922a 33be 14d8 04be
000000f0: 0be5 7f3c 9a2e 5ebd aba8 173d 5400 323f

output_1.weight f4 [24, 2112]
0.012837272 -0.0029971376 -0.009226981 0.020437632 0.00444597 -0.011934975 0.0003065653 -0.01463669
0.013580587 -0.007199277 0.0037749112 -0.0021390542 -0.02067455 0.015361626 0.014736693 -0.010247078
0.004746968 -0.018283475 0.021511983 -0.019516153 0.001305934 0.008565323 -0.013548652 0.004685171
0.016859911 0.004371712 0.0026986357 0.0038492158 0.020682007 0.019008748 -0.011567733 0.015697435
-0.020630173 0.015873637 -0.0019624736 0.020514484 0.009908978 0.0035985094 -0.02130467 0.021281183
-0.015278399 -0.0064977594 0.007429512 -0.0122821815 -0.00034375675 0.0072201584 0.010313954 -0.013103497
0.015021596 0.0052863937 0.018526338 0.016702116 0.013420135 0.004104087 -0.014979326 -0.018102324
0.0134270005 0.021477152 -0.009957457 0.018960394 -0.0043273587 -0.011470228 -0.020945746 -0.0009842254
0.008750644 -0.020769294 -0.009167402 -0.0034071114 -0.0012517702 0.01721365 -0.015087629 0.017782487
0.012041394 0.019133572 -0.011977363 0.0064596534 0.02022291 0.004048018 0.017219298 0.0070119314
-0.018486569 0.009967148 0.001179453 0.014444172 0.021659996 -0.014871737 -0.007985304 0.020612288
-0.0118859755 -0.008799641 0.0042019393 0.0077532846 -0.0017966386 0.013097558 -0.012533757 -0.016565906
0.012133513 -0.020411389 0.0061562937 0.019979049 -0.00095992535 0.004586268 0.011556245 0.0019302294
-0.008418977 0.0112554245 -0.0028533805 0.016701326 0.012492716 -0.008526915 0.010302398 -0.01212533
0.0036421698 -0.0013885144 0.020922348 -0.0028534792 -0.015337575 0.020782918 0.014203437 0.014044259
-0.007312794 0.015187062 0.008280434 0.017756715 -0.020007696 -0.021352528 0.018499434 0.020450115
0.012950696 -0.007642336 0.0045770854 -0.007508537 0.0071442947 0.010245681 0.0056352653 0.0014581233
-0.009581881 0.018266242 0.014565378 -0.002084218 -0.006786757 -0.010433387 0.0030184016 0.00013147481
-0.0074577285 0.017187223 -0.019406572 0.014725536 0.009263052 0.014791068 -0.0038242787 -0.009708803
0.019397896 -0.01249815 0.019745901 -0.0155453235 0.013738673 -0.005444927 0.019711118 -0.01641715
0.002907725 0.017173607 0.018613365 0.0009963233 -0.0018706992 -0.017904855 -0.018725779 0.0019090008
0.021327578 0.021475628 -0.01016963 -0.0018166229 0.006977644 -0.008206006 -0.0021715928 0.01763023
0.018343102 -0.020143295 -0.020848421 0.015299112 0.011536941 0.0005111769 -0.013665344 0.018481959
0.014474556 -0.004468754 0.0074414574 0.0152984 0.0050587375 0.0007938873 0.010297876 0.0044939835
0.0066014286 0.0203055 0.005031554 -0.0032029413 -0.0046739858 -0.016191281 -0.00236444 -0.002382977
-0.008028776 -0.012753844 0.016878977 -0.020440752 0.01842573 -0.015234416 0.007183036 -0.0034492295
0.015525904 -0.02124438 0.01632876 -0.0071084574 0.019384429 0.018459544 0.0029832553 0.017240323
0.020036452 0.0026815906 -0.0061432896 -0.011296797 0.013699036 0.0018339083 0.01940582 0.012541976
-0.0044335052 0.0043847766 -0.019813634 0.020591617 0.011487715 -0.0025006775 -0.01233625 0.009747416
0.002705535 -0.0033244304 0.011094801 0.010681946 -0.014075978 0.01908217 -0.015115932 -0.013234497
0.0014285948 -0.0036363322 -0.01784784 0.018543057 0.016347252 0.003230838 0.017751638 -0.020279935
-0.019791178 0.016010627 -0.01940183 0.00081610866 -0.019324517 0.011607911 -0.00805354 0.016260833
00000000: 6c53 523c a06b 44bb c32c 17bc d26c a73c
00000010: 80af 913b ea8a 43bc 80ba a039 bace 6fbc
00000020: 1c81 5e3c eae7 ebbb 8064 773b 602f 0cbb
00000030: ad5d a9bc 54af 7b3c 2c72 713c 5ce3 27bc
00000040: 748c 9b3b 3ac7 95bc e639 b03c 57e0 9fbc
00000050: e02b ab3a 9255 0c3c 2afb 5dbc 1086 993b
00000060: cc1d 8a3c 9440 8f3b 98db 303b 2043 7c3b
00000070: 506d a93c 3cb8 9b3c 9786 3dbc e897 803c
00000080: 9c00 a9bc 6e09 823c d89c 00bb fe0d a83c
00000090: 4459 223c f8d4 6b3b 2287 aebc e055 ae3c
000000a0: 4052 7abc 28eb d4bb 4473 f33b 343b 49bc
000000b0: 403a b4b9 1497 ec3b dcfb 283c 0db0 56bc
000000c0: 241d 763c 7c39 ad3b 8cc4 973c e0d2 883c
000000d0: 20e0 5b3c 947b 863b d96b 75bc 534b 94bc
000000e0: ecfc 5b3c daf0 af3c 9a24 23bc d452 9b3c
000000f0: 84cc 8dbb a0ed 3bbc 6a96 abbc 2001 81ba
00000100: dc5e 0f3c 5e24 aabc df32 16bc d849 5fbb
00000110: 7012 a4ba a403 8d3c 1a32 77bc 94ac 913c
00000120: 4449 453c 02be 9c3c b43c 44bc 80ab d33b
00000130: 84aa a53c 3ca5 843b 7c0f 8d3c 58c4 e53b
00000140: 2571 97bc 404d 233c e097 9a3a 40a7 6c3c
00000150: 4e70 b13c 96a8 73bc cbd4 02bc 1adb a83c
00000160: 65bd 42bc 5f2c 10bc 6cb0 893b 440f fe3b
00000170: 307d ebba 2497 563c 635a 4dbc 39b5 87bc
00000180: a4cb 463c c935 a7bc bcba c93b 1aab a33c
00000190: 80a3 7bba 6848 963b 6856 3d3c c0ff fc3a
000001a0: c0ef 09bc ac68 383c c8ff 3abb 38d1 883c
000001b0: 40ae 4c3c 79b4 0bbc 64cb 283c 52a9 46bc
000001c0: 78b1 6e3b d0fe b5ba 5865 ab3c 7001 3bbb
000001d0: 744a 7bbc f040 aa3c 88b5 683c e419 663c
000001e0: 2aa0 efbb 28d3 783c a8aa 073c 8876 913c
000001f0: 2ee7 a3bc 7feb aebc 208c 973c 0087 a73c
00000200: 282f 543c 906c fabb 60fb 953b 2c0a f6bb
00000210: b01a ea3b 80dd 273c 08a8 b83b 801e bf3a
00000220: 52fd 1cbc 16a3 953c a0a3 6e3c 6097 08bb
00000230: 7263 debb ccf0 2abc 60d0 453b 80dc 0939
00000240: f65f f4bb 38cc 8c3c 88fa 9ebc 6043 713c
00000250: 0ec4 173c 3c56 723c c0a0 7abb ac11 1fbc
00000260: 56e8 9e3c 0ac5 4cbc 28c2 a13c d0b1 7ebc
00000270: 2c18 613c 5c6b b2bb 3679 a13c 427d 86bc
00000280: 888f 3e3b aaaf 8c3c 0e7b 983c 1097 823a
00000290: 4032 f5ba 34ad 92bc ce66 99bc 7037 fa3a
000002a0: 2cb7 ae3c a8ed af3c 859e 26bc c01b eeba
000002b0: b8a4 e43b 7c72 06bc 4851 0ebb 466d 903c
000002c0: 4644 963c 8d03 a5bc 4fca aabc 20a9 7a3c
000002d0: 7005 3d3c 8000 063a 9be4 5fbc 7a67 973c
000002e0: b026 6d3c a06e 92bb 78d7 f33b 24a6 7a3c
000002f0: c4c3 a53b e01c 503a 6cb8 283c 4442 933b
00000300: cc50 d83b b857 a63c bcdf a43b 70e8 51bb
00000310: 3c28 99bb 94a3 84bc b8f4 1abb b82b 1cbb
00000320: 218b 03bc 80f5 50bc c845 8a3c 5d73 a7bc
00000330: 8ef1 963c c699 79bc ac5f eb3b 780c 62bb
00000340: 5c60 7e3c b208 aebc e4c3 853c 10ee e8bb
00000350: 18cc 9e3c 7838 973c b882 433b 943b 8d3c
00000360: 7c23 a43c a0bd 2f3b a64d c9bb 3316 39bc
00000370: ec71 603c c05f f03a f4f8 9e3c dc7c 4d3c
00000380: f046 91bb 2cae 8f3b 3450 a2bc c0af a83c
00000390: f836 3c3c 68e2 23bb fc1d 4abc a0b3 1f3c
000003a0: 584f 313b b0de 59bb f8c6 353c 5403 2f3c
000003b0: ee9e 66bc 3652 9c3c d0a8 77bc 81d5 58bc
000003c0: b03f bb3a 884f 6ebb a235 92bc 9ce7 973c
000003d0: acea 853c 78bc 533b e26b 913c 1b22 a6bc
000003e0: 1c21 a2bc b828 833c 96f0 9ebc 20f0 553a
000003f0: 734e 9ebc 1c2f 3e3c fff2 03bc 7035 853c

output_1.bias f4 [24]
-0.01766304 -0.008104834 0.016893841 -0.008259161 0.013594244 -0.01659732 -0.0028805528 -0.013174327
-0.006081475 -0.010081845 0.011309214 -0.019375356 0.0043490585 0.017295513 0.020582091 0.0022281203
0.00030761212 -0.002515966 -0.020882169 0.012133557 -0.015561188 0.02109925 -0.0017080549 -0.0032528993
00000000: 14b2 90bc 23ca 04bc f464 8a3c 6f51 07bc
00000010: 64ba 5e3c 1af7 87bc a8c7 3cbb 22d9 57bc
00000020: 1c47 c7bb 532e 25bc 484a 393c 11b9 9ebc
00000030: 8c82 8e3b 52af 8d3c c69b a83c a805 123b
00000040: 0047 a139 e8e2 24bb 1511 abbc d4cb 463c
00000050: 5af4 7ebc 56d8 ac3c d0e0 dfba 982e 55bb

fc2.weight f4 [64, 2112]
-0.05959493 -0.050298095 0.04627767 -0.04843389 -0.023835722 -0.04175353 0.05849746 -0.05834711
0.043562338 -0.02688031 -0.056192134 -0.061125085 0.060151894 0.051395465 -0.046739973 0.040755734
-0.053603154 -0.07291468 -0.053541858 0.05367039 -0.035815813 -0.033919565 0.07876894 0.04782429
-0.0396597 0.05934226 -0.04524232 -0.04398146 -0.06649192 0.03753605 -0.030820616 -0.07860817
-0.06516246 0.019454151 -0.02320651 0.029581986 -0.046989273 0.06309818 0.03350569 -0.02857178
0.052259345 0.020484507 0.07488868 0.04492476 -0.0772436 -0.021916833 0.08018956 -0.020093752
0.057977214 -0.04553219 0.03904954 0.013201812 -0.025001552 -0.035839908 0.059677444 0.046835665
-0.035366036 -0.045368608 -0.0368325 0.047085382 0.042917773 -0.023865614 0.061560713 -0.02010442
-0.0760094 0.0030395724 0.060451116 -0.059721343 -0.03201246 -0.055381972 0.045472924 -0.026281022
0.026895462 -0.020858146 -0.08249547 -0.075704455 0.030555656 0.043076452 -0.054456018 0.069995396
-0.031334274 -0.038596842 -0.060348134 0.05881549 -0.054607812 -0.029703004 0.0656748 0.062288184
-0.039295223 0.05261165 -0.041598283 -0.021052154 -0.044392135 0.04575362 -0.032941274 -0.07536731
-0.050719544 0.031707615 -0.074950926 0.05522002 -0.054961715 0.060281664 0.032755133 -0.035939902
0.058807362 0.060611285 0.04625971 0.063713975 -0.003609259 -0.049133778 0.05905071 -0.0795236
0.03072755 -0.027821142 0.045530412 0.08282437 -0.039245546 -0.049147427 0.03845466 0.051751133
-0.04876236 -0.033781234 -0.057452332 0.056250308 0.059030775 -0.028712306 0.051978387 -0.048005052
-0.07246269 0.028431978 0.016899396 -0.025084538 -0.026767092 -0.024734745 0.023479735 0.024664437
0.06139327 -0.047386978 -0.04380371 -0.052861337 0.030862968 0.025188874 -0.040724564 0.06727468
-0.024350658 -0.06541489 -0.021677207 0.026443386 -0.04423829 -0.027814642 0.05955686 0.050501928
0.0030971298 0.0425982 -0.05896726 -0.039201405 -0.058194775 0.060667016 -0.05611318 -0.050536305
-0.0820338 0.023965757 -0.04504135 0.023348492 -0.030033099 0.056550704 0.039138522 -0.027594615
0.02672838 0.01816536 0.018175282 0.024007548 -0.07867874 -0.046975393 0.07212932 -0.0594522
0.023651164 -0.047634125 0.07007808 0.031371795 -0.058324385 -0.048483968 0.06086816 0.020603672
-0.03709359 -0.043526284 -0.054513823 0.02373191 0.049420975 -0.08063541 0.020596636 -0.017846504
-0.0017792855 -0.01237105 0.034019902 -0.039675795 -0.029527197 -0.027912145 0.037955955 0.05112135
0.05299356 -0.011869161 -0.075805046 -0.041154794 0.046333104 0.04724314 -0.050237454 0.066893436
-0.04019824 -0.041121937 -0.03600669 0.019623049 -0.036999773 -0.057893194 0.069036014 0.02465889
-0.046518162 0.028921226 -0.022850614 -0.019533094 -0.07951141 0.025477938 -0.018390328 -0.05562455
-0.049361948 0.048380766 -0.024772178 0.036442958 -0.03180239 0.028540399 0.035371464 -0.02671308
0.06132716 0.049687635 0.083023034 0.039189093 -0.06433961 -0.047629345 0.049493674 -0.027228057
0.026474835 -0.021215092 -0.048557162 0.03999572 -0.03015046 -0.040917084 0.07428513 0.042918522
-0.026944477 -0.049434766 -0.03727533 0.03558458 0.023131922 -0.026475243 0.027537195 -0.046316758
00000000: d019 74bd 6005 4ebd a78d 3d3d 9d62 46bd
00000010: 2243 c3bc c005 2bbd 089b 6f3d 61fd 6ebd
00000020: 6c6e 323d 1934 dcbc b929 66bd 4c5e 7abd
00000030: d561 763d 0d84 523d 6a72 3fbd 7cef 263d
00000040: fb8e 5bbd 4b54 95bd b54e 5bbd 7cd5 5b3d
00000050: 9ab3 12bd 3eef 0abd 9c51 a13d 67e3 433d
00000060: 3672 22bd df10 733d 0350 39bd e725 34bd
00000070: ea2c 88bd 67bf 193d 847b fcbc 52fd a0bd
00000080: e573 85bd 505e 9f3c 941b bebc ec55 f23c
00000090: d377 40bd 9e39 813d 433d 093d 5e0f eabc
000000a0: e50d 563d 20cf a73c 3c5f 993d 0603 383d
000000b0: e431 9ebd ee8a b3bc 6d3a a43d a79b a4bc
000000c0: 8479 6d3d f67f 3abd 69f2 1f3d 6a4c 583c
000000d0: 0ed0 ccbc decc 12bd 5670 743d c1d6 3f3d
000000e0: fadb 10bd 6fd4 39bd addd 16bd 9adc 403d
000000f0: 8cca 2f3d d281 c3bc 1627 7c3d 06b2 a4bc
00000100: d1aa 9bbd 9033 473b 979b 773d 5e9e 74bd
00000110: 7f1f 03bd 35d8 62bd d141 3a3d 4c4b d7bc
00000120: df53 dc3c b4de aabc 63f3 a8bd f00a 9bbd
00000130: db4f fa3c ef70 303d 460d 5fbd bf59 8f3d
00000140: 5e58 00bd b917 1ebd 9b2f 77bd 83e8 703d
00000150: 71ac 5fbd b753 f3bc 8280 863d e521 7f3d
00000160: 07f4 20bd 507f 573d f662 2abd 9175 acbc
00000170: 87d4 35bd 2668 3b3d 6eed 06bd 2d5a 9abd
00000180: 4cbf 4fbd d8df 013d df7f 99bd 632e 623d
00000190: 891f 61bd e8e9 763d 3f2a 063d b835 13bd
000001a0: fddf 703d 8a43 783d d27a 3d3d 797c 823d
000001b0: 5189 6cbb 8040 49bd 28df 713d 45dd a2bd
000001c0: 58b8 fb3c 2ae9 e3bc 197e 3a3d d39f a93d
000001d0: f0bf 20bd d04e 49bd a282 1d3d fff8 533d
000001e0: 0abb 47bd 315e 0abd 2353 6bbd b966 663d
000001f0: 41ca 713d 1236 ebbc 4ae7 543d f2a0 44bd
00000200: 5267 94bd 2eea e83c 9a70 8a3c 177e cdbc
00000210: a946 dbbc 85a0 cabc 9358 c03c 130d ca3c
00000220: 8277 7b3d d918 42bd 856b 33bd 2185 58bd
00000230: 56d4 fc3c e658 ce3c cdce 26bd 4fc7 893d
00000240: 087b c7bc 3ef8 85bd 6694 b1bc cd9f d83c
00000250: 3633 35bd 88db e3bc e5f1 733d 1cdb 4e3d
00000260: 37f9 4a3b 737b 2e3d a787 71bd a791 20bd
00000270: a55d 6ebd fa7d 783d efd6 65bd 28ff 4ebd
00000280: 5601 a8bd d653 c43c 477d 38bd 5645 bf3c
00000290: f907 f6bc b6a1 673d b74f 203d 1a0e e2bc
000002a0: 7af5 da3c 85cf 943c 54e4 943c 7aab c43c
000002b0: 5222 a1bd 4569 40bd 89b8 933d 2684 73bd
000002c0: 16c0 c13c 001c 43bd 1985 8f3d b67f 003d
000002d0: 8de5 6ebd 2097 46bd e450 793d 08c9 a83c
000002e0: 73ef 17bd 9e48 32bd e349 5fbd 6c69 c23c
000002f0: a66d 4a3d 2e24 a5bd 47ba a83c d532 92bc
00000300: ea36 e9ba f2af 4abc 7458 0b3d 1683 22bd
00000310: 05e3 f1bc 03a8 e4bc b477 1b3d 9f64 513d
00000320: c60f 593d df76 42bc ad3f 9bbd ee91 28bd
00000330: c8c7 3d3d 0682 413d cac5 4dbd 6dff 883d
00000340: e9a6 24bd 7a6f 28bd c07b 13bd 84c0 a03c
00000350: 138d 17bd 6a21 6dbd c162 8d3d 7101 ca3c
00000360: d489 3ebd 35ec ec3c 3631 bbbc de03 a0bc
00000370: e1d6 a2bd 1cb7 d03c 50a7 96bc 91d6 63bd
00000380: c12f 4abd e92a 463d 06ef cabc 3645 153d
00000390: 3943 02bd 8ecd e93c abe1 103d 64d5 dabc
000003a0: 3032 7b3d 4385 4b3d fb07 aa3d be84 203d
000003b0: 7cc4 83bd fd16 43bd e1b9 4a3d 600d dfbc
000003c0: c1e1 d83c 46cb adbc e0e3 46bd 8dd2 233d
000003d0: 19fe f6bc ac98 27bd cd22 983d 55cb 2f3d
000003e0: aaba dcbc 1c7c 4abd 04ae 18bd 23c1 113d
000003f0: 287f bd3c 9ce2 d8bc af95 e13c a4b6 3dbd

fc2.bias f4 [64]
-0.02841116 -0.09781744 -0.054638363 -0.09387376 -0.054684523 -0.09864836 -0.068757124 -0.05531723
-0.083975695 -0.07459866 -0.045193084 -0.035998825 -0.06663497 -0.028574696 -0.05570674 -0.05790037
0.012247582 -0.021638991 -0.04009313 -0.10778388 -0.07828262 -0.058369644 -0.098243594 -0.07625823
-0.07588524 -0.08926257 -0.08840387 -0.043463092 -0.029697744 -0.03228941 -0.072909474 -0.066382594
-0.041207056 -0.062493578 -0.09045346 -0.041511092 -0.053713374 -0.053604178 -0.056797363 -0.053664662
-0.050974198 -0.06176365 -0.06647479 -0.02692409 -0.076274596 -0.044363044 -0.07468873 -0.049184594
-0.092445 -0.048609383 -0.09320254 -0.023798805 -0.052439593 -0.07804549 -0.04865607 -0.037759304
-0.04637222 -0.030497426 -0.091808915 -0.05495767 -0.056583818 -0.073937975 -0.07413813 -0.06170333
00000000: 85be e8bc 8354 c8bd 7acc 5fbd e340 c0bd
00000010: e1fc 5fbd 2708 cabd 89d0 8cbd 5294 62bd
00000020: 73fb abbd 2fc7 98bd 621c 39bd 8173 13bd
00000030: ea77 88bd 7b15 eabc c02c 64bd f028 6dbd
00000040: 15aa 483c 4144 b1bc b238 24bd cbbd dcbd
00000050: a352 a0bd 0215 6fbd f033 c9bd 462d 9cbd
00000060: b969 9bbd 4bcf b6bd 170d b5bd 5b06 32bd
00000070: af48 f3bc e641 04bd 9051 95bd 99f3 87bd
00000080: bbc8 28bd 44f9 7fbd aa3f b9bd 8907 2abd
00000090: 8e02 5cbd 0e90 5bbd 5aa4 68bd 7acf 5bbd
000000a0: 52ca 50bd e2fb 7cbd ef23 88bd e98f dcbc
000000b0: db35 9cbd 06b6 35bd 68f6 98bd c975 49bd
000000c0: ce53 bdbd a21a 47bd f9e0 bebd b6f5 c2bc
000000d0: e6ca 56bd 50d6 9fbd 964b 47bd 80a9 1abd
000000e0: ccf0 3dbd bdd5 f9bc 5006 bcbd 4b1b 61bd
000000f0: 6fc4 67bd cb6c 97bd bbd5 97bd a2bc 7cbd
