domain_adaption/best_tt_net1.pth.tar (torch, 264565 bytes, 16 tensors)

gcn1.w f4 [10, 32]
000000 22 a4 8c 3e ba c5 a7 3d 1b 09 bf bd 74 bc c7 3e
       0.27468973 0.0819201 -0.093279086 0.39010966
000010 6b a9 b2 bd 31 3d 7c be b2 40 73 3d db a9 8a 3e
       -0.0872372 -0.24632718 0.05938787 0.27082714
000020 69 7b 83 bd 20 32 b1 bd c2 bc 16 3b c8 da bb 3e
       -0.06420023 -0.08652139 0.0023000692 0.36690354
000030 e0 96 4b be 48 2e 94 3e 90 4e 39 3f fa 47 d0 bb
       -0.19881773 0.2894156 0.723855 -0.0063562365
000040 e4 d0 4f 3e 91 5e 5e bb 7a fa 88 be 45 fc 7f be
       0.20294529 -0.0033930878 -0.26753598 -0.24998577
000050 95 d1 28 bd 46 77 4a 3f 92 a0 25 be 07 80 82 be
       -0.041215498 0.79088247 -0.16174534 -0.25488302
000060 39 57 1b be 5a 95 39 be 22 19 2d 3f c5 04 c9 bb
       -0.15169992 -0.1812338 0.67616475 -0.006134602
000070 ab fa 27 3c 0d 25 f5 3e d5 37 8a be e8 1a 15 be
       0.010252635 0.4787983 -0.2699572 -0.14561045
000080 9d e0 26 3e 7c e9 67 3d 18 b5 23 be df 89 e8 3e
       0.1629662 0.056619152 -0.1598705 0.45417687
000090 25 93 cc bd 79 26 e6 bd ab b0 0d 3d 08 70 71 3e
       -0.09989003 -0.11237807 0.03459231 0.23577893
0000a0 cd 34 81 bd 6e 19 06 be 44 9e 45 be 9c 9d 84 3e
       -0.06308899 -0.13095638 -0.19298655 0.25901496
0000b0 4c 7a 5c be 55 94 ad 3e eb 98 0f 3f b0 84 fe bd
       -0.21531028 0.3390223 0.5609271 -0.12427652
0000c0 f4 63 41 3e 51 cb 23 be e4 e2 29 be 6f 8d ee bd
       0.18885785 -0.15995528 -0.16590458 -0.1164807
0000d0 a6 ba 42 3e 78 93 2a 3f f1 7e 0f 3e 1f 2a d9 bd
       0.19016513 0.6663127 0.14013268 -0.10603737
0000e0 bc 79 a4 be aa c3 37 be 4b b7 f5 3e c6 c1 4f be
       -0.32124126 -0.17945734 0.47991404 -0.20288762
0000f0 9c dd 8e be 65 bd 1b 3f 0b d9 95 be b0 eb 50 b9
       -0.2790345 0.6083587 -0.29267153 -0.00019924226
000100 36 f7 14 3e 80 30 86 bd 3f f3 62 bd 09 1e 39 3e
       0.14547428 -0.065522194 -0.05540776 0.18077864
000110 eb 89 4e bd 27 36 8f be 5e 8d 62 3e 27 0f 04 3e
       -0.050424498 -0.27971002 0.2212424 0.12896405
000120 8a a6 55 3b 29 c3 e6 bd 8d e9 61 be b0 cb ca 3d
       0.0032600486 -0.112676926 -0.22061749 0.099021316
000130 f9 23 58 bd 49 ca 8d 3d af be 53 3e 1e b1 0f 3d
       -0.05276868 0.069233485 0.20678209 0.03508102
000140 0c ea 1c 3d 82 d6 8b bd 79 f8 40 be bb 34 ad bd
       0.038309142 -0.068280235 -0.18844785 -0.08457323
000150 c1 e0 9f 3e ee 86 a4 3e 7d 2b 5e 3e 48 9e cf bd
       0.3122616 0.32134193 0.21696277 -0.10137612
000160 43 f0 8b bd f8 fe 95 bd 21 9e b6 3e ad 81 2a bd
       -0.06832936 -0.07324022 0.35667518 -0.041627575
000170 ea 4b 8e bc a6 a1 14 3f 54 6a 55 be 73 db ae 3d
       -0.017370183 0.58059156 -0.20841342 0.0853795
000180 51 ff 48 3e a7 9c de 3b b8 fe 29 be 5d 04 47 3e
       0.19628645 0.0067935768 -0.16601074 0.19435258
000190 c1 ba b4 bd ff 46 cf 3b 62 91 bb 3d 54 ee f5 3c
       -0.08824683 0.006325602 0.09158589 0.03002087
0001a0 37 c5 82 bd a7 5a 59 3d da 95 1a 3d 29 bb 6c 3e
       -0.06385272 0.05306497 0.037740566 0.23118271
0001b0 14 fe ba bd a0 f4 a1 3e c5 b8 85 3e 31 79 a3 bd
       -0.09130493 0.31631947 0.2611753 -0.079821
0001c0 77 20 5c 3e 06 6f 3d be af 9e 04 be b8 01 ff bd
       0.2149676 -0.18499383 -0.12951158 -0.124515
0001d0 ed a4 ff 3d 1b 50 d7 3e ab 62 6d 3d 07 94 92 bd
       0.12482629 0.42053303 0.057955425 -0.0715714
0001e0 85 59 44 3e 5e e7 c5 3c de e7 e9 3e 2b 92 9e bb
       0.19174774 0.024158176 0.45684713 -0.004839202
0001f0 99 9e cf bd e4 82 b8 3e 8d 4e 3d bd cb 0b 0f be
       -0.10137672 0.36037362 -0.04621749 -0.13969342
000200 41 61 04 3f 81 fa 0d be 23 16 a5 bd 4a 6b f6 3d
       0.517109 -0.13865091 -0.08060863 0.120321825
000210 25 d6 a0 bd 6e e6 38 3e 7e 1d 86 3d 60 83 6a bc
       -0.07853345 0.18056652 0.06548594 -0.014313549
000220 ea a5 d4 bd e5 f8 94 3e 84 7b 3b bd c8 52 1c bd
       -0.10383208 0.2909614 -0.04577209 -0.038164884
000230 7c 82 82 be e2 21 83 3e 3b 9d ca 3e c2 11 20 3e
       -0.25490177 0.25611788 0.39573082 0.15631774
000240 52 67 7e 3e 14 dc c1 bd be 5b 01 3e 8f a4 06 3e
       0.24844101 -0.09465805 0.12632653 0.13148712
000250 6d c6 21 be 04 f4 9f 3e 2b 04 ad bc 58 03 d7 bc
       -0.1579835 0.31240857 -0.021120152 -0.026246712
000260 8b 11 a2 3e ae 28 2a be 83 7a b9 3e 7f e0 4c 3e
       0.3165401 -0.1661708 0.36226282 0.20007513
000270 c5 1f 93 bd b6 d4 d1 3e c2 8b ca 3c 5f 09 ec bd
       -0.07183794 0.40982598 0.024724845 -0.11525225
000280 8c fd a7 3e 7b 4f c6 3d 11 b4 6a bd 91 0c 3a 3e
       0.32810628 0.096831284 -0.05730063 0.18168856
000290 95 8e 0e be 60 6a a4 bd b0 9f 5a 3e 58 7b 53 be
       -0.13921578 -0.08028102 0.21349978 -0.2065252
0002a0 e2 90 0b bd ee e1 18 3e 4d bd 8b bc c8 cd bc 3e
       -0.034073718 0.14929935 -0.01705804 0.3687575
0002b0 f1 c3 54 3d 4c c4 42 bd a5 40 35 3f 0a c7 3b bc
       0.051944677 -0.047550485 0.70801765 -0.011461029
0002c0 47 ad bd 3d 0b 53 13 be 31 a3 94 bb 0d 70 2d be
       0.09261566 -0.14387147 -0.0045360555 -0.16937275
0002d0 a6 90 27 be 57 58 23 3f a2 a1 44 3a 21 88 fc bd
       -0.16363773 0.6380667 0.0007500892 -0.12330652
0002e0 8f c9 98 3d 5f c1 72 3d b0 8e 09 3f e4 4c 33 be
       0.07460319 0.059266444 0.5373335 -0.175098
0002f0 75 d8 75 be fa 3c 12 3f aa 47 84 3b 6e f8 88 bd
       -0.24008353 0.5712429 0.0040368633 -0.06688009
000300 9a d3 a5 3c 70 c5 da 3d df 5b f2 bc 73 18 bc 3e
       0.020242501 0.106821895 -0.029584823 0.36737403
000310 e9 94 1e bc 21 99 c4 be 22 21 b1 3d da e0 91 be
       -0.009679058 -0.38398078 0.08648898 -0.2849186
000320 46 9c 9b bd 40 9e 8e bd f2 6e 2b be be e3 a8 3e
       -0.07598166 -0.069637775 -0.16741541 0.32986253
000330 9a 5e 27 3d a1 02 3b 3e a9 5c 27 3f 2b 23 30 be
       0.040861703 0.18262722 0.65375763 -0.17200916
000340 37 7c 3d 3e 1c c3 aa 3b 10 45 26 be 4e 83 f3 bd
       0.18504415 0.005211247 -0.16237283 -0.11890279
000350 72 7a 34 39 d1 22 06 3f 6a bb 30 3e 7b 2f ce 3d
       0.00017211752 0.52396876 0.17258993 0.1006765
000360 4c 9b 84 bc 6d 9f 53 be 4e 24 df 3e de 76 08 be
       -0.016187333 -0.20666285 0.43582386 -0.13326594
000370 a6 c5 82 be 29 4e c4 3e e7 94 04 be a5 33 54 3d
       -0.2554142 0.3834088 -0.12947427 0.051807065
000380 3c 32 0c 3e c6 c3 de 3d 17 23 1d bd da 12 cb 3d
       0.13691038 0.108771846 -0.038363542 0.09915705
000390 1b dc 9c bd e2 de 23 bd e7 4c 82 3e 00 6a a9 be
       -0.07659169 -0.04000748 0.25449297 -0.33088684
0003a0 68 17 5c bd 9f 36 a5 bd 0c 4c c6 bd 4f d5 eb 3c
       -0.05373326 -0.08067059 -0.096824735 0.028788237
0003b0 ab 69 c5 bd fc 8e 46 3e 6c ee 07 3f 18 f8 d5 bd
       -0.09639295 0.19390482 0.5309818 -0.10447711
0003c0 70 dc ef 3d 8c 2f 90 3c 31 00 d5 bc 01 d8 b4 bd
       0.11711967 0.017600797 -0.026001068 -0.08830262
0003d0 35 ca b7 bc 96 4f 2f 3f ff 73 00 3d 88 98 ef bd
       -0.022435287 0.68480814 0.031360622 -0.11699015
0003e0 b6 4d d5 bd f4 61 e8 bd b3 8e cb 3e 05 ad 8c be
       -0.10415213 -0.11346808 0.39757308 -0.27475753
0003f0 0c a9 6f be 1b 9c da 3e 9e 43 44 be f6 0a 08 be
       -0.2340433 0.42697224 -0.19166419 -0.13285431

gcn2.w f4 [32, 32]
000000 3f 58 99 be 21 c7 37 3e 58 b4 1c bf e6 24 31 3d
       -0.2995014 0.17947055 -0.6121268 0.04324808
000010 59 f3 ff bd c9 b9 4a bd 00 1f a6 bd 48 57 28 be
       -0.12497587 -0.049493585 -0.081113815 -0.16439545
000020 b5 15 18 3e 4e a9 f4 3e 60 05 1e be 65 17 8f 3d
       0.1485203 0.4778542 -0.15431738 0.06986884
000030 a0 f5 d9 bd a6 45 71 3d 15 04 a8 be 22 e8 80 be
       -0.106425524 0.058904313 -0.32815614 -0.25177103
000040 15 4e 09 3e 17 30 b8 be 9c 63 5a 3d 66 34 58 be
       0.13408692 -0.3597419 0.05331765 -0.21113738
000050 81 b7 91 bd 0c d6 06 3e 97 4f fd be bd 49 05 bc
       -0.07115079 0.1316759 -0.49474785 -0.008135256
000060 bd 21 ae 3c d4 cc 27 3e 66 5e 44 3e d0 47 30 be
       0.021256322 0.1638673 0.19176635 -0.17214894
000070 c0 23 53 be 2d c5 50 be 83 57 87 3e 5d f9 4a bd
       -0.20619106 -0.20387717 0.26433954 -0.049554218
000080 33 54 0b 3d b7 7a 88 bd 17 5f 88 bd 4b c2 6f 3d
       0.034015846 -0.06664031 -0.06658762 0.0585349
000090 ff 3f bc 3d 5a a2 f7 bc 48 04 46 bd a4 b8 2e 3e
       0.09191894 -0.030228782 -0.048343927 0.17062622
0000a0 30 dc 6e 3c 80 3f 25 bd 0a de 9d 39 54 ba 26 be
       0.014578864 -0.04034376 0.00030110806 -0.16282016
0000b0 ef 9b 08 bd 87 31 39 3e ba 72 d0 3c dd 81 56 3e
       -0.033351835 0.180853 0.02544533 0.20947976
0000c0 9c f6 25 3d 2f 10 7b bd 9a 8b b2 bb 95 4a 15 be
       0.04051839 -0.06129473 -0.0054487707 -0.14579232
0000d0 a2 a0 05 3e 64 27 3a be b4 47 a9 3e 84 54 e6 3c
       0.13049558 -0.18179089 0.33062518 0.028116472
0000e0 60 36 02 3d 10 34 bd bd ca c1 ce 3d 28 e4 bf bc
       0.031790137 -0.09238446 0.10095556 -0.023424223
0000f0 ab ce 17 bd 5e de 7d 3c b1 6b 2d 3e b6 05 f6 3c
       -0.03706233 0.015494911 0.16935612 0.03003202
000100 7f 06 6b 3d 7f 3a e8 3c 64 fd c2 3d cd ca 9a 3d
       0.057379242 0.028348206 0.09520987 0.075582124
000110 13 64 ac 3d 07 34 47 3d 5d 29 09 bd 41 47 ca 3c
       0.08417525 0.0486336 -0.033486713 0.02469218
000120 2c 1e c8 bd ff 3e 15 3d 66 6b aa 3c 9a 8c 03 bd
       -0.0977138 0.03643703 0.020803165 -0.03211651
000130 7e 67 91 3d 48 02 f3 bb 53 38 9c 3c f7 35 c3 3d
       0.07099818 -0.0074160434 0.019069826 0.09531777
000140 3d 4b dc 3c a2 df 09 3d c9 59 ba bc b0 e1 3e bd
       0.026891345 0.03366054 -0.022747891 -0.04660195
000150 61 b9 4c 3d 76 7d bd 3a d4 8e be bd 9b 96 51 bd
       0.04998148 0.0014456946 -0.09304586 -0.05116902
000160 e5 3e af 3c 6f a2 87 bd da 9f 91 bd a2 08 c5 bd
       0.021392295 -0.066227786 -0.071105674 -0.09620787
000170 2a 79 2b 3d e4 d2 c4 3d 74 98 7c 3d 14 5d 12 bc
       0.041863598 0.09610537 0.061668828 -0.008933324
000180 6b 87 42 3e cc 31 aa 3e 68 40 68 be 03 15 23 be
       0.1899697 0.33241117 -0.22680819 -0.15925984
000190 f8 48 8b be 9f f3 55 3e fa 8e 88 bd aa 5b 0a 3d
       -0.27204108 0.20893715 -0.066678956 0.033778824
0001a0 6d 0b 29 3e b6 c6 b4 3d 0a 4a 86 be a9 6d d3 bd
       0.16508265 0.088269636 -0.26228362 -0.103236504
0001b0 26 35 83 bb d2 93 44 3d 53 0f 8e 3e 27 45 38 bc
       -0.0040041385 0.047992535 0.27746066 -0.011246956
0001c0 94 3d d1 bd a2 f5 04 be f7 cb 11 3f ee e3 c4 bd
       -0.10216823 -0.12984326 0.5695185 -0.09613787
0001d0 96 20 1d 3e 60 67 93 bd b1 4a 26 3e da 09 73 3d
       0.15344462 -0.071974516 0.1623943 0.059335567
0001e0 c3 b1 72 3e ea 79 bb bd 9e 97 e1 3d 72 06 ac bd
       0.23700623 -0.09154113 0.11015247 -0.08399667
0001f0 f5 34 14 3e b1 2c 79 3c 72 ca f7 3e f1 1d 3f bd
       0.14473327 0.015208409 0.4839664 -0.046659414
000200 57 92 ac bd dc 6b 82 3d dc cd f8 3c 1a 02 94 3d
       -0.084263496 0.06368229 0.030371599 0.07226963
000210 7b ab 5e bd 9e 03 17 3d a4 b6 4d 3d 9d ad a4 bd
       -0.054362755 0.036868684 0.050223008 -0.080409266
000220 22 b4 52 3d 5f 71 62 bd 8b fd 3d bd 77 cc b5 bd
       0.05144132 -0.0552839 -0.046384376 -0.08876889
000230 a9 ea 8b 3d 0f 4e 99 3d 3d 91 46 bd 7e 8a 77 3b
       0.06831867 0.074855916 -0.048478354 0.0037771757
000240 1d 7f e2 bc 26 de 90 3d 8b 15 59 bd 94 99 75 3d
       -0.027648503 0.070736215 -0.05299906 0.059960917
000250 df 2b ac bd 8e b4 96 3d 06 80 8f 3d e9 e1 cc bd
       -0.08406805 0.07358657 0.070068404 -0.100040264
000260 7f c9 1e 3d 50 71 64 bd 1a 17 64 bd 6f c1 23 3d
       0.03876638 -0.055772126 -0.055686094 0.039979395
000270 5a d8 6c bd 7e c6 42 3d 9e 8b 28 3d 07 c2 a8 3c
       -0.057823516 0.04755258 0.041148774 0.020600332
000280 1d fb 2c be 48 4d 76 bd 80 48 b8 bc 6c 37 2d be
       -0.16892667 -0.060132295 -0.022495508 -0.16915673
000290 2f f0 3a 3d 42 25 95 3b 79 f8 3e 3e 2d a5 b4 bc
       0.045639213 0.0045515606 0.18649472 -0.022051418
0002a0 40 bb f9 3d 58 4a d2 3d d4 c7 0f be 7a 6d 49 bd
       0.12193918 0.10268086 -0.14041072 -0.04917667
0002b0 de 69 84 3c 72 fd 53 be 16 27 f2 bd 28 64 4c bd
       0.016163763 -0.2070215 -0.11823861 -0.049900204
0002c0 37 76 e9 3d a0 b8 ed bd ba a7 78 bb 19 71 1f be
       0.11399501 -0.1160748 -0.003794177 -0.15570487
0002d0 41 2e ef bd cd 2f ca 3d cc 05 8a be c7 f4 21 bd
       -0.11678744 0.098723985 -0.26957548 -0.03954008
0002e0 4f 14 92 be 12 7c c8 3d e8 75 2f bd c5 0f 1b 3c
       -0.2853112 0.097892895 -0.042837054 0.009464209
0002f0 c4 c8 01 3e 4e 0d 81 3e be 7d 88 be 0d 08 6d bd
       0.12674242 0.25205463 -0.26658434 -0.057869006
000300 06 8f db bd f9 ac ea bd 2d 8d 7f 3e 07 21 cd bd
       -0.10720639 -0.11458773 0.24956198 -0.10016065
000310 eb 82 0e 3e f7 91 85 be 54 1e 0f 3d 9b 87 f1 bd
       0.13917129 -0.26087925 0.034941033 -0.11793443
000320 53 e9 ab bb de b5 be bc f4 63 8f 3b 92 07 26 be
       -0.0052463203 -0.02328008 0.004375929 -0.16213825
000330 b3 eb a1 bd e5 f9 19 3e ad 3b 3c 3e 7a 51 d5 3d
       -0.07906284 0.15036733 0.1838214 0.10415931
000340 98 f8 14 3e 06 58 ac be ec ec 0c bd d7 ad 09 3d
       0.14547956 -0.33660907 -0.034405634 0.033613052
000350 eb 69 d2 3d 28 17 57 3c af 15 a5 bd 32 3f b5 bd
       0.102741085 0.0131280795 -0.080607764 -0.08849944
000360 e7 b6 cf bd c9 cc 29 3e f6 92 11 bf cb 84 23 3d
       -0.10142308 0.16582026 -0.5686487 0.039921563
000370 fa 88 8b bd b7 41 04 bf 22 a4 af be 1e b8 39 be
       -0.068132356 -0.5166277 -0.3430491 -0.18136641
000380 a7 d2 92 3d a4 c8 79 be 4b f9 65 bc 9d b4 6e bd
       0.07169085 -0.24392945 -0.014036487 -0.058277715
000390 78 c8 c7 3d aa 56 6b 3d d4 6e 08 be d8 60 d3 3e
       0.09755033 0.057455696 -0.13323528 0.41284823
0003a0 a8 cc c2 bd 67 0b ca 3e 00 41 d6 3d 2c 5b 2b 3e
       -0.09511691 0.39461824 0.104616165 0.16733998
0003b0 17 82 2a be da db fe 3d a7 23 88 3d d4 c4 6c 3e
       -0.16651188 0.12444277 0.06647425 0.23121959
0003c0 61 40 c3 3c 58 2c 24 bd da 0f 3f be 7e ca e1 3c
       0.02383441 -0.040081352 -0.1865839 0.027562376
0003d0 77 26 0d 3c 4b b4 8a be 27 3b 93 3e d0 01 89 bd
       0.008615128 -0.27090678 0.28756067 -0.06689799
0003e0 8d 1a 39 be f5 7c a8 3e 05 61 3b 3e 0f 4a 0c 3e
       -0.18076535 0.32907835 0.18298729 0.13700126
0003f0 f5 73 e5 3e 22 9a 9c be b4 7f 49 be c7 c6 18 be
       0.4481503 -0.30586344 -0.19677621 -0.14919578

gcn3.w f4 [14, 32]
000000 02 87 4b be f7 64 01 3e 2f 30 a2 3f 81 d6 ac be
       -0.1987572 0.12636171 1.2670954 -0.33757403
000010 19 f3 b6 3f 56 d0 98 3f fd 5b 97 3f 92 9c 92 3f
       1.4292938 1.1938579 1.1824948 1.1454031
000020 4c 01 9b 3c 57 d9 a5 3f 42 48 66 3c 20 5d 9b 3f
       0.018921517 1.2956952 0.014055314 1.2137794
000030 98 b8 9c 3f c0 92 96 3f 33 7a aa 3f 2e 08 78 bd
       1.2243834 1.1763535 1.3318542 -0.060554676
000040 a3 88 99 3f 4a 74 ce bb bd 77 07 be 4a c7 d7 3e
       1.1994823 -0.006300484 -0.1322927 0.42144233
000050 17 f4 b2 3f cf 8b 6b 3f 5f 4e 89 3f d6 b6 ba 3f
       1.398074 0.92010206 1.0727042 1.4587047
000060 76 12 4e 3f 07 ac b5 3f 6f 9a b4 3f af a6 b6 3f
       0.8049692 1.4193124 1.4109629 1.4269618
000070 d4 67 95 bd c4 d3 e1 bd 32 3f 14 bd f5 b1 54 be
       -0.07295194 -0.11026719 -0.03619308 -0.2077101
000080 57 f4 38 3d 3b 43 a0 bd 62 fa 9c 3f 7e c8 c2 bd
       0.045154896 -0.07825323 1.2263911 -0.09510897
000090 ca 76 7c 3f b5 94 b5 3f 19 7b 83 3f ac ce 53 3f
       0.9861876 1.4186007 1.0271941 0.8273723
0000a0 ce a8 16 be a7 9c a8 3f ca 2a 0d be db 6c 8f 3f
       -0.14712831 1.3172807 -0.13785854 1.1205095
0000b0 57 bb 99 3f 1b fb 90 3f 53 87 a4 3f ce aa 5b be
       1.2010297 1.1326631 1.2853798 -0.21451876
0000c0 e4 35 84 3f 9b bb 5b 3a 31 42 7c be 0a ff f5 3e
       1.0328946 0.00083821424 -0.24634625 0.48046142
0000d0 1a 6e 83 3f f0 81 7e 3f a9 4c ac 3f 60 7b 86 3f
       1.0267975 0.9941702 1.3460895 1.0506401
0000e0 fc 03 66 3f 82 79 b0 3f a6 2c 89 3f d1 ad 9a 3f
       0.8984983 1.3787081 1.0716751 1.2084295
0000f0 ac 82 19 be b9 cb a6 3c 69 c1 3a bc 77 39 ca bc
       -0.14991254 0.020360814 -0.011398652 -0.024685604
000100 24 90 61 be 86 1e 90 bd 52 c8 a0 3f 47 4c b1 bd
       -0.22027642 -0.07037072 1.2561133 -0.08657127
000110 d6 2b 94 3f 72 5b 9e 3f 65 f4 8b 3f 65 14 62 3f
       1.1575878 1.2371657 1.0933958 0.8831237
000120 60 f9 04 3d 2b f0 a7 3f 95 ae bb 3d 04 c2 a8 3f
       0.032464385 1.3120168 0.09164158 1.3184209
000130 00 8b 7c 3f 4e 2c a9 3f 6a d0 93 3f d2 51 6c be
       0.986496 1.3216646 1.1547978 -0.23078087
000140 71 5c 97 3f 88 de 5a ba 2e 3d 1a 3a 5d 7c 14 3f
       1.1825086 -0.00083492 0.000588375 0.58002263
000150 0e 25 8d 3f 57 9f 5c 3f 67 41 99 3f 72 a4 a2 3f
       1.1026933 0.86180633 1.1973084 1.2706435
000160 6e e5 72 3f ed aa aa 3f 97 5c 9a 3f 61 9e 9f 3f
       0.9488133 1.3333412 1.2059506 1.2470208
000170 1f 38 14 3e 9d c7 1f be fe 27 17 3e 8c 00 6a 3c
       0.14474533 -0.1560349 0.1476135 0.014282357
000180 22 71 7b bd 1b 30 e6 bd 38 0a a2 3f 0d 5b cf bc
       -0.06138719 -0.11239644 1.2659369 -0.025311971
000190 a2 ed 77 3f af c8 a5 3f cd 63 8b 3f c4 ca 4d 3f
       0.96846974 1.2951869 1.0889832 0.8038752
0001a0 39 2f 3f be 78 d3 82 3f d3 b7 3c be 47 b1 9b 3f
       -0.18670358 1.0220785 -0.18429498 1.2163476
0001b0 5b 1c 8c 3f 0d b8 7c 3f 14 4a 81 3f 18 f6 55 bd
       1.0946153 0.9871834 1.0100732 -0.052236646
0001c0 37 74 8f 3f a6 47 31 3b 78 c1 ef bc f7 89 a6 3e
       1.1207341 0.0027050762 -0.029267058 0.32527134
0001d0 26 2d 8f 3f eb 50 76 3f 47 ff 86 3f 3c bf 83 3f
       1.1185653 0.9621722 1.0546654 1.0292735
0001e0 9b 9f 3a 3f 0e 06 84 3f 5f dd a2 3f 06 9a 8e 3f
       0.7289979 1.0314348 1.2723807 1.1140754
0001f0 e0 a2 aa bd 28 1f 0d be 96 5a 1f be a0 6b ca 3b
       -0.08331847 -0.13781416 -0.155619 0.0061773807
000200 ac c6 2c be 71 fe e8 3c f9 3f b9 3f 60 b0 3b bd
       -0.16872662 0.02844164 1.4472648 -0.0458225
000210 c3 ee 5e 3f a3 7d a9 3f 26 c2 7e 3f e0 cb 52 3f
       0.8708307 1.3241466 0.99514997 0.8234234
000220 bb 11 5a bd d7 23 b0 3f 95 31 5c be 3c 80 9c 3f
       -0.053239565 1.3760937 -0.21503289 1.2226634
000230 82 2a 7a 3f 8d 5c 96 3f f8 15 aa 3f 30 af 70 be
       0.9772111 1.1746994 1.3287954 -0.23504329
000240 86 9f 93 3f 7a de e3 38 a6 9a 40 bd ef e1 af 3e
       1.1533058 0.00010865643 -0.047022484 0.3435206
000250 79 33 86 3f 27 62 83 3f be 5e 63 3f 35 f6 8e 3f
       1.0484458 1.0264329 0.8881644 1.1168886
000260 d8 3a 56 3f 6f c0 a8 3f 5c fc a8 3f ab 14 94 3f
       0.8368354 1.3183726 1.3202014 1.1568807
000270 b1 a8 66 3d 7f 56 3f bd 68 29 ce 3d 31 c0 67 be
       0.05631322 -0.04671335 0.10066491 -0.22631909
000280 c9 38 2a 3d 16 d1 ba 3c b7 e5 a3 3f ec 49 a1 be
       0.04155806 0.022804778 1.2804478 -0.3150171
000290 04 86 89 3f 71 ca 91 3f d9 d6 93 3f f9 68 5c 3f
       1.0744023 1.1389905 1.1549941 0.86097676
0002a0 0f 26 ef bd e4 53 98 3f 6d f5 61 be 1d a2 96 3f
       -0.11677181 1.1900601 -0.22066279 1.1768223
0002b0 84 c3 72 3f 02 71 78 3f 5c 8a 7a 3f 8e 66 3e bd
       0.94829583 0.97047436 0.9786737 -0.046484523
0002c0 53 64 8a 3f 38 9a de 39 3e 31 32 be 7e 90 43 3e
       1.0811867 0.00042458042 -0.17401597 0.19098088
0002d0 b2 b9 6b 3f b7 42 6d 3f cc 25 8f 3f d3 eb 95 3f
       0.92080224 0.92679924 1.118341 1.1712593
0002e0 29 98 65 3f 1b 6b 9c 3f 4f 36 84 3f 71 dc 81 3f
       0.896853 1.2220186 1.0329074 1.0145398
0002f0 5c 05 6b be 09 61 cb 3d a8 ce 63 bd 30 60 c1 bd
       -0.22951263 0.09930617 -0.055617005 -0.094421744
000300 8b 43 20 be 08 77 e3 bd 05 98 c0 3f 98 27 c5 bd
       -0.15650766 -0.11106688 1.5046393 -0.096266925
000310 f0 06 ad 3f 29 7b b7 3f c2 16 9b 3f c6 d0 a2 3f
       1.3517742 1.433446 1.211632 1.2719963
000320 e7 5e 8e bd b8 48 aa 3f 2e ae 99 be 1f 73 a4 3f
       -0.06951695 1.3303442 -0.300157 1.2847632
000330 15 bd 9a 3f 1e 43 a5 3f 0f 6a 9d 3f 26 ca 0b be
       1.2088953 1.2911108 1.2297992 -0.13651332
000340 60 43 97 3f cf 64 f8 bc 0f f1 8d be 13 8b c2 3d
       1.1817436 -0.030321507 -0.27722976 0.094991826
000350 dd 02 b7 3f ef 6d 8b 3f a3 11 9b 3f f1 cb b3 3f
       1.4297749 1.0892924 1.2114757 1.4046613
000360 de de 2f 3f 22 d8 aa 3f 03 26 c3 3f fe e2 ae 3f
       0.68699443 1.3347208 1.5245975 1.3663023
000370 7e 3a a4 3d 17 2f 47 3d 5b a0 4a be 33 2c aa bc
       0.08018969 0.048628893 -0.19787733 -0.020773029
000380 0f 53 0d be 62 66 71 3d 50 e2 bd 3f 86 58 75 be
       -0.13801216 0.05893553 1.483469 -0.2395955
000390 81 4f a8 3f 75 d7 ab 3f 16 08 8b 3f 3e 8b 80 3f
       1.3149263 1.3425127 1.0861843 1.0042493
0003a0 8f c5 04 be 68 90 af 3f 34 67 01 be 7c a3 91 3f
       -0.12965988 1.3715944 -0.12637025 1.1378016
0003b0 82 37 96 3f 09 97 b3 3f 7a f4 91 3f 68 53 56 3d
       1.173569 1.4030467 1.1402733 0.052325636
0003c0 b1 e4 8e 3f 51 2e 1c bc 5f ca c8 bd 63 1e b2 3e
       1.1163541 -0.009532527 -0.09804224 0.34788808
0003d0 35 95 a9 3f 9c 80 99 3f db bf 9c 3f 9c 97 a6 3f
       1.3248659 1.1992373 1.224605 1.3015018
0003e0 02 3a 37 3f b7 33 b4 3f 26 3d aa 3f 1d 69 9f 3f
       0.7157289 1.4078282 1.3299911 1.2453953
0003f0 4c 40 87 3d 3d e9 22 bd 89 a6 c3 bd b5 59 8d bd
       0.066040605 -0.039773215 -0.095532484 -0.06901876

gcn4.w f4 [32, 32]
000000 5a 33 1d bb d7 51 fb 3d a6 73 df 3d a1 f1 15 3e
       -0.0023986907 0.12271469 0.1091073 0.14642955
000010 bf a4 8d 37 da 93 e8 bd 30 a3 ad 3d 77 5b 62 3d
       1.6885226e-05 -0.113563254 0.08478391 0.05526301
000020 a2 ea 0c 3d 32 5c e1 bd 57 58 f2 3c ea 09 a2 3c
       0.03440345 -0.11003913 0.02958314 0.019780118
000030 4c b6 db bd 06 b5 0f be 87 de 22 bd c1 4e 17 be
       -0.1072813 -0.14033899 -0.039763 -0.14776136
000040 08 e1 07 be 6c da e8 3d 79 e0 58 bd 50 06 16 3e
       -0.13269436 0.11369786 -0.05294845 0.14650846
000050 e0 19 25 bd 51 da 33 be bf 4b 3d 3d ca dd 39 be
       -0.04030788 -0.1756375 0.046214815 -0.18151012
000060 f4 ff f2 bd 98 ac 18 be 74 36 b1 3d e4 d8 59 bc
       -0.118652254 -0.1490959 0.08652964 -0.01329634
000070 80 d9 30 3c dc 5f 81 bd 80 bc 0d 3e c5 61 da 3d
       0.010794044 -0.06317112 0.13841438 0.10663179
000080 8b b5 52 3e 42 d9 58 3d 2d 0f 23 bd 8c a0 bf 3d
       0.20577066 0.05294157 -0.039809395 0.09356794
000090 e1 5a 73 bd c0 f2 cd 3a b9 db 9c bc 02 70 61 bd
       -0.05941284 0.0015712604 -0.01914774 -0.05503846
0000a0 b9 1f 71 3e 08 f1 7f be c4 f9 aa bc 87 cf 83 3d
       0.23547257 -0.2499429 -0.02087105 0.06436067
0000b0 ba a6 30 3d 46 a4 cb bd 79 ae b4 bb e5 d3 15 3e
       0.043127753 -0.09943442 -0.005513963 0.14631613
0000c0 f1 c4 32 3e 84 45 88 bc 03 db 33 3d 1e dd 0b be
       0.1745794 -0.01663471 0.043910038 -0.13658568
0000d0 7b ec 98 bd c4 9b cd 3d ea 63 26 bd fb db 94 3c
       -0.0746698 0.100394756 -0.04062263 0.018171301
0000e0 23 51 36 bd 84 29 be 3c 47 94 af bc f2 52 8b be
       -0.04451097 0.023213156 -0.021433009 -0.2721172
0000f0 bb eb 25 be 1f b2 88 bd 81 38 d3 bc c4 2b 11 3c
       -0.16203205 -0.06674599 -0.02578378 0.008860532
000100 63 de 4a 3f 83 86 61 bf 0b 92 1d bf b6 28 82 3f
       0.79245585 -0.88095874 -0.6155097 1.0168674
000110 b9 41 34 3f 66 48 03 bf 18 22 1c bf be fb 3c 3f
       0.70412785 -0.51282346 -0.6098952 0.7382163
000120 fc 26 38 3f 1e 44 33 bf 36 8a b6 be 84 4b 5a 3f
       0.71934485 -0.70025814 -0.35652322 0.8527148
000130 7b e6 e7 3e c2 cd f2 3e c4 e9 44 3e 78 5f d0 3e
       0.4529303 0.47422606 0.192298 0.40697837
000140 90 58 9a 3f 01 ba 1e bd e4 3e 15 3f 32 d4 1c 3f
       1.2058277 -0.038751606 0.5829909 0.61261284
000150 f8 6b 35 bf a5 40 72 3f 93 e2 19 3f 28 5b 4a 3f
       -0.7086787 0.9462989 0.6011135 0.79045343
000160 76 2a d7 3c f4 82 44 bf 5a a5 75 bf 0f 4d 4d 3f
       0.026265364 -0.7676232 -0.9595543 0.8019571
000170 55 52 22 bf 4c 0f 63 3f a5 c1 a9 3e 98 f8 39 3f
       -0.6340688 0.88695216 0.33155552 0.7264495
000180 f9 db d6 bd 7a fc 14 be 83 e9 ef 3d 88 5f d7 bd
       -0.10491175 -0.14549437 0.11714461 -0.10516268
000190 ce 87 7b 3e 27 68 fc bd 02 6e df bd 34 11 14 bd
       0.24563524 -0.12324553 -0.10909654 -0.03614922
0001a0 69 01 0c 3e 46 5c a0 3c 22 6c 68 be 81 61 dd bd
       0.13672413 0.01957525 -0.226975 -0.10809613
0001b0 f6 e7 1a 3d 76 d3 a8 bd e8 46 b0 3d af 15 85 3d
       0.03781887 -0.08243458 0.08607274 0.064982764
0001c0 65 da 72 bd 3f 69 eb 3c 48 e7 37 3d 3c 47 32 3c
       -0.05929031 0.028736709 0.0448983 0.010881241
0001d0 9d f8 0d be eb ba 13 3e 4a 4d 79 bc 7a 3e 01 3e
       -0.1386437 0.14426772 -0.015216181 0.12621489
0001e0 48 6b 1f 3b 18 c4 f0 bc 9e ee d4 bd 6e db 5d 3d
       0.002432542 -0.02939038 -0.10397075 0.054164343
0001f0 8a f6 93 be 50 f0 8b 3d 74 77 a4 bc f4 e1 88 bc
       -0.28899032 0.06832945 -0.020076491 -0.016709305
000200 b2 fd 4c 3f ef 97 14 bf 15 e4 2e bf 97 0f fd 3e
       0.8007461 -0.5804433 -0.68316776 0.49425957
000210 b2 39 c5 3e 5d 21 21 bf b7 fa e2 be 0c de 24 3f
       0.3852058 -0.62941533 -0.44331905 0.64401317
000220 73 3f 33 3f 5a 49 3f bf 90 d5 a5 be 24 c2 3c 3f
       0.7001869 -0.747213 -0.32389498 0.73733735
000230 05 9a 00 3f 3e e4 37 3f 54 04 08 3e 99 f2 ff 3e
       0.50235015 0.71832645 0.13282901 0.49989775
000240 08 9f 45 3f 5a fc 6d 3e 25 7f 19 3f 8c ca 4d 3f
       0.7719579 0.23240796 0.5995963 0.80387187
000250 df 61 00 bf 4e f6 40 3f 69 bc fd 3e a8 0f 31 3f
       -0.5014934 0.7537583 0.49557808 0.69164515
000260 de ed 56 3e 52 c1 25 bf a0 43 5a bf 6a cb 62 3f
       0.20989177 -0.6474811 -0.8525944 0.88591635
000270 59 ac 3b be a3 9e c1 3e 14 b1 b8 3e 23 75 38 3f
       -0.18327464 0.37816343 0.360726 0.72053736
000280 4a d0 4e 3f 57 b5 60 bf 8e 77 4a bf 53 42 89 3f
       0.80786574 -0.877767 -0.79088676 1.0723366
000290 4b f4 40 3f b2 97 16 bf ec 36 e7 be 05 e8 60 3f
       0.7537276 -0.5882522 -0.4515909 0.87854034
0002a0 ff 5e 0a 3f 1b d0 5b bf 2e 48 dc be 82 ca 80 3f
       0.540512 -0.8586442 -0.4302382 1.00618
0002b0 b3 75 13 3f 7e 48 69 3f c7 ec d6 3e a6 8d f9 3e
       0.5760147 0.9112624 0.41977522 0.48740882
0002c0 05 b3 46 3f 34 1f 40 3e 78 2e 4e 3f f3 d4 1b 3f
       0.7761691 0.18761903 0.80539656 0.6087181
0002d0 30 f9 3e bf 1f 4b 83 3f 7e b3 eb 3e 5e c8 10 3f
       -0.7459898 1.02573 0.4603538 0.56555736
0002e0 73 dd 88 3e 47 39 3d bf 2f a7 11 bf ee ac 24 3f
       0.26731452 -0.73915523 -0.56895727 0.6432637
0002f0 0b 9b 05 bf 30 d2 1f 3f cd 8c 36 3f 20 b1 5a 3f
       -0.521897 0.62430096 0.71308595 0.8542652
000300 08 d9 0f 3f 4e e5 76 bf 01 74 09 bf d4 75 47 3f
       0.5619054 -0.9644364 -0.5369263 0.77914166
000310 e3 95 c3 3e 34 2a 45 be ae e8 1a bf 62 b2 10 3f
       0.38200292 -0.1925438 -0.6051129 0.5652219
000320 7a 20 56 3f 49 fb 2d bf 4f f5 8a be 91 86 70 3f
       0.83643305 -0.67961556 -0.2714028 0.9395533
000330 a8 1b 15 3f b6 fc 3b 3f 98 8c 57 3e b2 af f1 3e
       0.58245325 0.7343248 0.21049726 0.47204357
000340 cd 75 64 3f 0f d3 6f 3d a0 63 bf 3e ae 93 07 3f
       0.8924225 0.05855089 0.37380695 0.52959716
000350 b2 02 31 bf 22 c6 0a 3f d7 e6 1a 3f 9f 1e 4e 3f
       -0.6914474 0.54208577 0.60508484 0.80515474
000360 b0 33 36 be 50 7c 2e bf 1c 7e 7d bf 1d a1 40 3f
       -0.17793155 -0.68158436 -0.9902055 0.7524584
000370 83 8e e6 be af 76 22 3f 5b 0a f9 3e 20 54 e1 3e
       -0.45030603 0.63462347 0.48640713 0.44009495
000380 87 ed d1 3e 13 ce 06 bf b5 3d d7 be ae 1a 2d 3f
       0.4100153 -0.52658194 -0.42039266 0.67618835
000390 78 c1 25 3f e8 18 78 be 08 54 d8 be a5 ab 17 3f
       0.64748335 -0.24228251 -0.4225161 0.59246284
0003a0 22 f5 0f 3f b0 3c 18 bf fa 54 f4 be 5c e5 4b 3f
       0.5623342 -0.594676 -0.47721082 0.7964685
0003b0 dc 65 0d 3f c6 26 26 3f 94 cb 70 3e a0 24 2b 3f
       0.5523355 0.64902914 0.23515159 0.6685276
0003c0 60 bb 62 3f e9 7a e9 3d 3e 15 04 3f 06 3d 2f 3f
       0.8856716 0.114003964 0.51594913 0.6845249
0003d0 b9 de 1e bf 6b 61 3c 3f 64 d4 f4 3e 7f 8d 30 3f
       -0.620586 0.7358615 0.4781829 0.68965906
0003e0 94 d1 26 3a 17 dd 02 bf ef 87 01 bf d7 ca e4 3e
       0.0006363627 -0.51118606 -0.50598043 0.44686005
0003f0 f9 97 89 be 6b f7 12 3f ea 96 d9 3e db 17 0c 3f
       -0.26873758 0.5740878 0.4249795 0.547239

fc1.weight f4 [32, 2]
000000 00 49 c1 3c 72 95 f5 b9 14 c1 4c 3e c7 34 1e be
       0.02359438 -0.00046841387 0.19995528 -0.1544982
000010 aa 95 8f 3e b6 c4 03 3c 27 f6 1a bf 48 a2 2d be
       0.28043872 0.008042505 -0.6053185 -0.16956437
000020 fc 5d 42 be d8 17 28 3f c6 a9 ed be b0 d9 ec bd
       -0.18981165 0.6566138 -0.4641859 -0.11564958
000030 2d 4f ce 3e 7a 55 b0 3e 55 34 ae 3d 91 72 c8 3e
       0.4029478 0.34440213 0.08506075 0.39149907
000040 8e b1 f5 3d 36 0b b8 3e b3 f5 fb 3e 90 f1 db 3e
       0.119967565 0.35946053 0.4921089 0.42957735
000050 4d 68 10 3d 8b 92 4b bd 5c 1a 37 bf ec 24 2d bf
       0.03525572 -0.0497003 -0.71524596 -0.67634463
000060 af fd d0 3d 9f c2 18 3f 66 b2 b2 be b7 27 a6 bd
       0.10204636 0.5967197 -0.34901732 -0.08113044
000070 9e f6 05 3f 59 d7 d8 be 92 d9 34 3f a9 68 3e 3f
       0.5232943 -0.42351797 0.70644486 0.7437845
000080 99 10 d6 bd ef a5 b9 3e 68 c5 f6 3e 37 13 02 bf
       -0.104523845 0.3625941 0.48197484 -0.5081057
000090 f9 f1 b2 3e cc 61 a0 3e 51 69 d1 3d f2 1a 06 3d
       0.34950235 0.31324613 0.10225166 0.03274054
0000a0 e2 87 ac 3e 2b 4b 0d be b6 d5 b4 bb b9 b1 25 3f
       0.3369742 -0.13798206 -0.0055186404 0.6472431
0000b0 38 0c 82 3b c1 08 15 3a d9 9b 86 b9 9d 58 a8 bb
       0.0039687417 0.00056852034 -0.00025674587 -0.0051375167
0000c0 04 a1 1d 3f fc b4 a0 be 83 c0 18 bf 3a bf 1f bf
       0.61573815 -0.3138808 -0.5966875 -0.62401164
0000d0 ae f8 47 be ca fe b7 be 9e 6b 9d 3b 76 f0 1d 3b
       -0.19528458 -0.35936576 0.0048040887 0.0024099625
0000e0 cf a8 dc be a9 ee dc 3e f6 cb fe be ac c6 98 3c
       -0.4309754 0.43150833 -0.49764985 0.018649422
0000f0 5f f2 96 3b db d4 2a bb 6f 41 cb be 86 f5 15 bf
       0.0046065296 -0.0026066813 -0.3969836 -0.58577764

fc1.bias f4 [32]
000000 ac ff 1d bd ad 15 30 3f a8 ce b2 be bf 70 7c bd
       -0.038573906 0.68783075 -0.3492329 -0.06163096
000010 d3 a2 a1 bd 13 22 c9 3e 28 14 2a 3c 78 a3 c0 3e
       -0.078923844 0.3928381 0.010380782 0.37624717
000020 77 4e 5e 3d de 90 40 bd ca 43 a6 bd 44 88 86 3d
       0.05427405 -0.047013156 -0.081183985 0.06568959
000030 76 63 93 3d 2c c8 ea 3e 79 8e fc 3e 4f 55 4f be
       0.07196705 0.45855844 0.49327448 -0.20247386
000040 0f b0 28 3f de d5 7c 3e ac e0 88 bd 5a c0 08 3e
       0.65893644 0.24690959 -0.06683478 0.13354626
000050 fc bb ea bc d6 dc 0b 3f 06 b9 cd bb ef 2b b7 bb
       -0.028654091 0.54633844 -0.00627816 -0.005589954
000060 4c 71 cf 3d eb 5b 3d 3f e9 5c cf 3e 7f 7a 0e bd
       0.101290315 0.7396838 0.40500572 -0.03478479
000070 99 7a 1c 3f f7 da 51 3f 9e 8e 10 bd 10 c5 24 3d
       0.6112457 0.8197474 -0.03529226 0.040226996

output_1.weight f4 [24, 1056]
000000 d8 b0 9e bc a5 2c e2 bc 72 0e 01 bc a8 37 df bb
       -0.019371435 -0.027609179 -0.007876979 -0.0068120547
000010 20 36 9d 3a 32 9a 99 3c dc 54 66 3c f0 cf 6a 3b
       0.001199428 0.018750284 0.014058318 0.0035829507
000020 0c 21 c8 bb 20 e9 9d 3b c2 eb 5b bc 60 eb f0 bc
       -0.006107455 0.0048190504 -0.013422908 -0.02940911
000030 0e b1 42 bc e0 80 57 ba 12 c8 d3 3c 70 6c 8b bc
       -0.011883033 -0.0008220803 0.025852237 -0.01701948
000040 14 8e 3e bc cc 7e 6c 3c a4 b0 d5 3c 7c db 83 bc
       -0.011630554 0.014434528 0.026085205 -0.01609587
000050 aa 16 d9 3c aa 50 13 bc 1c aa b0 3c e0 1d cd 3b
       0.026500065 -0.0089914 0.02156549 0.006259665
000060 86 91 97 bc 3c 75 74 3c 8c 8c bb bb 3f dc eb bc
       -0.018502008 0.014920529 -0.0057235416 -0.028791545
000070 0c 44 79 3c 4c 21 40 bc b6 e5 15 bc c0 c2 b3 3b
       0.015213978 -0.011726689 -0.009149006 0.0054858625
000080 7e 80 f3 bc d5 13 c4 bc 30 61 75 3b ce 75 86 3c
       -0.029724356 -0.023935238 0.0037441961 0.016413596
000090 4e 86 0b bc aa b7 af bc a0 f9 62 3b fa 45 b4 3c
       -0.008515907 -0.021449883 0.0034633651 0.022006024
0000a0 08 ac 5a bb 2c 91 5d 3c 4e 05 8e 3c 27 86 b5 bc
       -0.0033366699 0.013523381 0.017336514 -0.022158695
0000b0 40 6e 9e 39 38 3b e7 bc f4 f6 a5 3c 40 e7 72 3b
       0.0003021825 -0.02822648 0.020259358 0.0037064105
0000c0 1a 6f b9 bc e0 df 45 bc 5f b7 f8 bc e0 40 47 bb
       -0.022635985 -0.012077302 -0.030360876 -0.0030403659
0000d0 24 fd cc 3c 00 f9 8f bc e0 bd c1 bc c0 0e 79 3b
       0.02502305 -0.017574787 -0.02365011 0.0038003176
0000e0 20 4d 14 3b a2 78 c8 bc a8 81 60 3c e4 01 f0 3c
       0.0022628978 -0.024471585 0.013702787 0.029297777
0000f0 20 c7 39 ba 50 77 79 bb a6 63 11 bc 1f 42 f7 bc
       -0.0007086862 -0.00380655 -0.008873856 -0.030182896
000100 80 9a 4d 3c fc 9c 42 bc 38 1f 7a 3c 8e 60 f9 bc
       0.012549043 -0.011878248 0.015266232 -0.030441549
000110 a1 4d aa bc b6 ff ac bc 60 19 b3 3a b8 ff ea 3c
       -0.02078897 -0.021118026 0.0013664179 0.02868639
000120 32 57 b5 3c fc 58 99 bc 10 b7 09 3b 34 fa a0 3c
       0.022136305 -0.018719189 0.0021013655 0.019650556
000130 fc 99 0d bc 84 ec e6 3c 6a 02 bd 3c 10 5f e0 3c
       -0.00864267 0.028188951 0.02307244 0.02738908
000140 f0 1f 6d bc 4f ee cc bc ae 37 99 3c ac 8b d3 3c
       -0.0144729465 -0.025015978 0.018703308 0.025823437
000150 20 73 3c 3b 34 41 be 3c 52 d0 61 bc 5e 7a 99 3c
       0.0028755143 0.02322445 -0.013782578 0.018735107
000160 7e 2e 9a bc 86 1d 4c bc 44 73 00 3c 08 83 4f 3c
       -0.018820997 -0.012458211 0.0078399815 0.012665518
000170 aa 35 ca bc b8 44 85 3c e0 93 d8 3b bc b7 49 3c
       -0.024683792 0.01626812 0.006609425 0.012311872
000180 9e 0c 03 bc a8 6f f5 bc 24 2c b7 bb 74 1d ca bc
       -0.007998614 -0.029960468 -0.005589979 -0.024672247
000190 44 ac c7 3c aa a1 a3 3c 18 b6 4c bb ae 41 8a bc
       0.024374135 0.019974548 -0.0031236466 -0.016877022
0001a0 96 eb 9d 3c f6 3b dd 3c 3c 8e ee bb e8 a8 78 3c
       0.019277375 0.02700613 -0.0072801393 0.015176989
0001b0 de 40 8a 3c 40 6b 89 bc 84 9b e7 bc 50 de ef bb
       0.016876634 -0.016774774 -0.028272398 -0.007320203
0001c0 30 3b 65 3c 44 4e 48 bc d8 c5 53 bc 80 8c b8 b9
       0.013991162 -0.012225691 -0.012925588 -0.00035199896
0001d0 ce 51 2a bc 90 4c e3 3b e2 a2 03 bc 68 8c 8c 3b
       -0.01039548 0.006936617 -0.00803444 0.0042891987
0001e0 de 3a a8 3c d0 06 e7 3b ee 50 b5 bc 34 f5 e3 3c
       0.020535883 0.0070503727 -0.022133317 0.027826883
0001f0 fc 9e 5e 3c e6 e6 52 bc bb 6f cf bc 2c 70 e6 3c
       0.0135877095 -0.012872433 -0.025321832 0.02812966
000200 9c 08 42 3c 62 ed f2 3c 40 e7 4d 3c 3a f0 d4 bc
       0.011842873 0.029654209 0.012567341 -0.025993455
000210 2e e4 d9 bc d8 6e 4d bb f4 83 d6 3c f8 ca 12 bb
       -0.026598062 -0.0031346586 0.026185967 -0.002239881
000220 2d 3d d4 bc af bc c4 bc 22 dc ae bc 84 12 99 bb
       -0.025908077 -0.024015753 -0.021345202 -0.0046713967
000230 20 29 7f 3c 0c 80 f2 bc 6e 62 f7 3c 30 ea 52 bc
       0.01557377 -0.029602073 0.030198302 -0.012873217
000240 7e 24 a3 3c 26 80 53 bc c0 49 9a bb 84 a6 c7 3c
       0.019914862 -0.012908971 -0.0047084987 0.024371393
000250 ce 10 e0 3c da 5e f3 3c 72 8c 4d bc 50 ee 1e 3c
       0.027351763 0.029708315 -0.012545692 0.009700373
000260 3a 74 db 3c b0 50 d0 3b 76 f6 ec 3c fc f8 ad bc
       0.02678882 0.006357275 0.028926115 -0.021236889
000270 60 bb d8 ba b0 1f fe 3b 90 bd f1 3b 88 31 10 bb
       -0.0016535334 0.0077552423 0.007377334 -0.002200218
000280 12 fc 9d bc ee 62 d8 bc 78 d4 bb bc bc 06 90 bc
       -0.019285236 -0.02641436 -0.022928461 -0.017581336
000290 66 47 f8 bc 40 a0 11 3c 18 a6 59 bb 00 66 80 38
       -0.030307483 0.008888304 -0.0033210572 6.1225146e-05
0002a0 40 b3 5f 3a c6 e1 2d bc 64 e6 d0 3c 58 cf 67 bc
       0.0008533485 -0.010612911 0.025500484 -0.014148556
0002b0 ec 16 10 bc 14 1d a6 bc 30 28 c7 bc 34 dd 9f 3c
       -0.0087945275 -0.020277537 -0.024311155 0.019514658
0002c0 38 f1 0a 3c 48 83 23 3c 00 06 f5 3a e0 32 af 3b
       0.008480363 0.00998003 0.0018693805 0.005346641
0002d0 20 d1 af ba 1e fa ba bc 56 9f 97 3c c8 ad 1e 3c
       -0.0013413765 -0.022824343 0.018508594 0.009684987
0002e0 e2 30 a8 3c 0e a7 a1 3c b7 24 de bc 38 52 47 3c
       0.020531122 0.019732978 -0.027117116 0.012165599
0002f0 18 f6 8e 3c 5e 60 e5 3c 22 0b 2c bc 16 9d a4 bc
       0.017451331 0.028000053 -0.010500701 -0.020094436
000300 e8 6a 8a bc 7c 54 8b 3c ca 22 a4 bc 02 0c a1 3c
       -0.01689668 0.017008059 -0.02003612 0.019659046
000310 18 ad 24 3c 8c fc 0f 3c 38 3f a3 bb ae 06 c8 3c
       0.010051034 0.008788239 -0.0049819015 0.024417248
000320 44 1f 05 bc f0 f2 6c 3b c0 58 a2 3b 90 c3 3a 3b
       -0.00812513 0.0036155544 0.0049544275 0.0028497912
000330 00 fa 9f b9 dc 3b 41 3c 20 7a fa bc 0c 3e d8 3c
       -0.00030513108 0.011794057 -0.030575812 0.026396774
000340 a0 f6 38 ba 54 2c 29 3c b3 5d da bc 1c cc a1 3c
       -0.0007055793 0.01032551 -0.026656007 0.019750647
000350 ae e1 85 3c c6 e5 95 bc 1e 57 23 bc 59 66 f9 bc
       0.016342964 -0.018298041 -0.009969501 -0.030444311
000360 f4 10 07 bc 0e 45 8b 3c 70 7d 42 3c fb 92 d2 bc
       -0.008243788 0.017000701 0.011870727 -0.025704851
000370 6a 81 c7 3c 00 70 59 39 dc 9b 11 3c 40 04 ab 3b
       0.024353702 0.00020736456 0.008887257 0.0052190125
000380 14 4a f5 bc 81 3d fb bc 64 3b 3a 3c 8e da b2 3c
       -0.02994255 -0.030668976 0.011366699 0.02183273
000390 7b be 9b bc 00 41 2a ba 12 17 1a bc 88 21 d2 3b
       -0.019011727 -0.0006494671 -0.009404914 0.0064126886
0003a0 e1 91 df bc 98 2b cb bb a4 84 88 bc 40 e5 41 3a
       -0.02729124 -0.006200265 -0.01666481 0.00073965266
0003b0 3c 69 56 bc 08 12 88 3b 30 54 6e 3b 80 65 49 3b
       -0.013086613 0.00415254 0.0036366098 0.0030730665
0003c0 d0 cf f0 bb 46 ce b0 3c e4 7b b9 3c 59 b5 eb bc
       -0.007348992 0.021582734 0.022642083 -0.028772997
0003d0 a3 98 ad bc d8 7c 5a bb 5c be 47 3c c4 d4 ce bc
       -0.021190947 -0.0033338573 0.012191381 -0.025247939
0003e0 ae 0c bc 3c 52 90 ba 3c 46 b2 f6 bc ba 73 0f bc
       0.022955265 0.022773895 -0.030114304 -0.008755619
0003f0 10 91 ea 3b e2 db af bc ae 1a 00 bc 6a 48 b1 3c
       0.007158406 -0.021467153 -0.007818861 0.021640975

output_1.bias f4 [24]
000000 c2 34 65 bc 5c 9f b0 bc bc 83 aa 3c 3e 4a b1 bc
       -0.013989629 -0.021560363 0.020814769 -0.021641847
000010 1c 18 8d 3c 9c 5e 72 3c b0 9f bf 3c f4 0c ea bc
       0.01722341 0.014793064 0.023391575 -0.02857063
000020 34 e9 aa bb 9e 4e f6 3c 60 6c 9f bc 60 ff 5b bc
       -0.0052157883 0.030066784 -0.019460857 -0.013427585
000030 14 43 4d bc 18 83 21 bb 12 9a b3 bc 00 7b 8b bc
       -0.0125282 -0.0024644788 -0.021924052 -0.017026424
000040 44 bb 87 3c 42 79 dd 3c 26 3d 62 bc 28 3f af bc
       0.016568787 0.02703536 -0.013808524 -0.02139242
000050 2c f3 f3 bb 48 80 fc 3b a0 6b 75 bb 5a b4 8f bc
       -0.00744476 0.007705722 -0.0037448183 -0.017542053

fc2.weight f4 [32, 1056]
000000 c0 02 e4 bc 56 95 52 3b ec 09 1d 3c 7f 69 9d bd
       -0.027833343 0.0032132468 0.009584885 -0.076861374
000010 74 a8 53 3b 5b 7d 31 3c f5 ff 63 bc e3 d3 15 3c
       0.003229645 0.01083311 -0.013916005 0.009144756
000020 7a d5 2f bc ab 46 79 3d 9d 8a 63 bb 6d 1a d7 3b
       -0.010732049 0.06085841 -0.003472007 0.0065644295
000030 b9 fa f1 3b fd a4 05 3d b2 b6 b2 3c cc 03 0f 3d
       0.007384625 0.03262805 0.021815632 0.03491573
000040 f2 19 9e bc 47 25 5e bc 30 57 0b 3d 67 5e 66 bc
       -0.019299481 -0.013558692 0.034018695 -0.014060593
000050 25 d9 24 3d e4 ec 28 3d de 1d 43 bd b0 49 18 3d
       0.040246148 0.04124154 -0.047635905 0.03717965
000060 c2 3d 1e bc 7c 35 83 3c b6 e1 4b 3d 5e 65 ca bb
       -0.009658279 0.016016714 0.0497758 -0.0061766347
000070 7e f2 4c bd 21 a9 b1 3c fa 2d ae 3c 43 20 d9 3c
       -0.050035946 0.021687092 0.021262158 0.026504641
000080 9f 87 61 3c a8 36 0f 3b 43 09 1c bd 35 0f b5 ba
       0.013765245 0.0021852646 -0.03809477 -0.0013813736
000090 b2 40 6b bb 38 7f eb 3a e3 90 c1 3b 83 e8 7c bc
       -0.0035896716 0.0017966991 0.0059071644 -0.0154362945
0000a0 32 ba 2c bb c9 6c 5d bd 40 42 c3 bc e3 9e f7 3c
       -0.0026356098 -0.054058824 -0.023835301 0.03022713
0000b0 f6 6d 14 bd 89 0f bc bc 41 c5 f7 3c 36 79 44 3b
       -0.03623768 -0.022956626 0.030245425 0.0029979474
0000c0 0a 42 6a 3c 4e 12 43 3c 37 66 eb 3c 67 3f b6 3b
       0.0142979715 0.01190622 0.028735263 0.0055617574
0000d0 48 e6 a8 3c a6 c6 0b 3d 21 6e a7 3b 58 81 84 3b
       0.02061762 0.034124993 0.005109564 0.0040437393
0000e0 79 13 72 bc fc 92 84 3c 55 da 98 3a a4 64 13 3b
       -0.01477515 0.016183369 0.0011661748 0.0022490406
0000f0 f9 1d 35 bc b7 32 0a 3d 94 c9 e2 3b b7 77 42 3d
       -0.011054509 0.03373977 0.0069210026 0.04747745
000100 e2 05 04 3d a4 9f 10 3d 7c 0b c0 bc f3 97 1b bd
       0.032232173 0.035308495 -0.023442976 -0.037986707
000110 2c fe f2 bc 32 fb e6 3b 5b 67 e3 3c 08 49 9d 3c
       -0.029662214 0.007048988 0.027759245 0.019199863
000120 f4 9f 55 3c bb 52 21 3d 4e 19 a3 3a 89 c6 1e 3d
       0.013038624 0.03938554 0.0012443454 0.038763557
000130 c6 f0 17 3b 14 f6 1b 3b ef b3 7f 3c 4f 34 4e bc
       0.0023184284 0.0023797797 0.015606864 -0.0125857135
000140 df 97 61 3b e7 35 4a 3c 9d f9 73 bc 5e ac ef bc
       0.0034422798 0.012341953 -0.014891055 -0.029256996
000150 76 56 68 3d 44 72 63 bc bf 65 5d bc 73 8c 8b 3b
       0.05672308 -0.0138822235 -0.013513028 0.004258686
000160 c6 ba 88 3c 8c 4e c9 3c d8 2c 19 3b 0a 30 ed bc
       0.016690623 0.024573587 0.0023372676 -0.02895357
000170 1d 4c ee bc 05 15 29 3d ac 38 69 3d da 95 96 3d
       -0.029089028 0.04127981 0.056938812 0.07352801
000180 f8 56 88 bc 0c 99 9a bc c6 f6 56 bd 4b ae a8 bc
       -0.016643032 -0.018871807 -0.052481435 -0.020590922
000190 32 6c b6 bc fa ee 52 3c ed 72 74 bc 3c 54 16 bd
       -0.022268388 0.012874359 -0.014919979 -0.036701426
0001a0 7a 5b 09 3c 96 10 1d 3d 60 76 24 bc ed a9 d2 3c
       0.008383626 0.038345896 -0.010037988 0.025715793
0001b0 f7 a3 f8 ba 77 23 00 39 40 a5 e4 3b d4 10 38 bd
       -0.0018969764 0.00012220243 0.006977707 -0.044937924
0001c0 99 fb f6 bc 7f 24 b5 bc 06 b7 a9 bb d9 58 0f bd
       -0.030149268 -0.02211213 -0.005179289 -0.03499684
0001d0 92 f9 db 3c a4 e3 8c 3c cc 02 55 bb 00 66 fd 3c
       0.026852403 0.017198391 -0.0032502888 0.030932426
0001e0 d9 5b 57 bd 88 1a e4 3c a4 47 3c 3d c6 00 2a 3b
       -0.052577827 0.027844682 0.04596676 0.0025940402
0001f0 89 dd 71 3c c0 f2 3c 3c 72 cb 1d 3d 47 10 57 3d
       0.014762291 0.0115324855 0.0385241 0.052505758
000200 ad aa c8 bc e2 ef fc bc 4e 70 04 bd 03 06 3c bd
       -0.024495447 -0.030876104 -0.032333665 -0.04590417
000210 bd b9 32 bd 49 cb f1 3c 19 6b 0c b9 80 63 ee 3c
       -0.043634165 0.02951588 -0.00013391337 0.02910018
000220 6e 8a dc 3c fe a1 b7 3c 14 87 f1 bc c0 e2 94 3c
       0.026921477 0.022416111 -0.029483356 0.01817453
000230 89 c6 f6 3c 6f 38 8b 3c 69 15 72 3c 87 8d 9b ba
       0.030123966 0.016994683 0.014775612 -0.001186774
000240 dc c0 a6 bb a8 9e 1d bb 50 09 f9 bc 28 4a 1d 3d
       -0.0050889086 -0.0024050865 -0.030399948 0.0384008
000250 fe 80 d3 3c f2 07 a3 3b af 3f 81 bd f9 b1 73 bb
       0.025818344 0.0049753124 -0.06310975 -0.0037184937
000260 59 33 f0 bc ff 4b 74 3c 55 dc b8 bc fb 97 80 bc
       -0.02932136 0.014910697 -0.022566 -0.01569747
000270 5f ae ac bc de 62 34 3d 95 0d 2a bc 39 6d 8e 3d
       -0.02107924 0.0440396 -0.010379215 0.06954426
000280 60 88 d2 bb 55 82 b2 bc fe 8a 61 bd 35 8d 70 bc
       -0.0064249486 -0.021790663 -0.055064194 -0.014682104
000290 05 33 e9 3a c8 be 8d 3c 70 ec 9a 3c cd 5e be bc
       0.0017791694 0.017302886 0.01891157 -0.023238564
0002a0 2e dd df 3c 89 01 71 3d 1f 7d 7e 3c f9 6c 1c 3d
       0.027327146 0.058839355 0.015532761 0.038189862
0002b0 30 5b 91 ba 7c 66 0c 3d 06 30 ad 3c 98 f7 89 bc
       -0.0011089798 0.034277424 0.021141063 -0.016841695
0002c0 5d 0d fd bb 55 d8 74 bc 71 6b 90 3c f7 94 0d bd
       -0.0077225403 -0.014944156 0.017629357 -0.034565892
0002d0 1a 2f 84 3c a5 7b 25 bb 91 b7 82 bc 23 11 c3 3c
       0.016135741 -0.00252507 -0.015956672 0.023811882
0002e0 d6 99 29 bd f0 1e 56 3c 26 50 66 3c ef 78 99 ba
       -0.041406475 0.0130688995 0.014057195 -0.0011709015
0002f0 16 44 3a 3c 54 91 d7 bb de 29 a0 bb 5e df 18 3d
       0.011368772 -0.0065786038 -0.0048878035 0.037322395
000300 85 e8 88 bd 65 b9 0b bd 83 86 a0 bd 23 21 37 bd
       -0.066849746 -0.034112353 -0.07838156 -0.044709336
000310 be 7a 8d bc af d7 0e 3d e6 5f 72 3c 52 24 14 bd
       -0.017270442 0.03487366 0.014793372 -0.03616745
000320 a5 21 ae bc 82 fc b5 3c a0 d4 0b bc 9d 59 a9 3c
       -0.021256277 0.022215132 -0.0085345805 0.020672614
000330 0f c5 56 bb f6 5d 96 bb 79 8c 7e 3c e7 ba d6 bb
       -0.0032771265 -0.0045888377 0.015536421 -0.006553042
000340 26 fe 22 bc 55 ce 1e 3d 1d e5 e3 bc 5a ac 42 3c
       -0.009948289 0.038770992 -0.02781921 0.011881912
000350 18 9b 92 bc 2f 89 ae 3b 24 65 38 bd 0b 7c c3 3c
       -0.01789622 0.005326412 -0.04501833 0.02386286
000360 ab f5 ad bc ae 23 3a 3c 82 60 01 3d 11 cf 88 bc
       -0.021235308 0.011361046 0.031586178 -0.0167003
000370 42 3d 15 3c 81 d1 e7 bb 7a 9b 9b bc 54 b5 ab 3d
       0.009108843 -0.0070745354 -0.018995035 0.08384195
000380 37 15 56 3b 8f 85 97 bc b1 32 32 bd fd 90 fc bc
       0.0032666454 -0.018496303 -0.043505374 -0.030830855
000390 8d 5b 78 3c 91 98 6c 3a 52 86 a7 3c 56 08 0d bd
       0.015158546 0.000902542 0.020449791 -0.034431778
0003a0 6e f2 1e bd 89 91 8d 3d 37 62 82 bc 92 8b 90 3d
       -0.038805418 0.06912524 -0.015915973 0.07057871
0003b0 dd 6f 15 bd 0a 3d 39 bc ff 61 a5 3c 5f 73 0b bc
       -0.036483634 -0.011306057 0.02018833 -0.008511393
0003c0 49 0a 05 bd ae 02 48 3c d5 0b a4 3c 2d dd 34 bd
       -0.03248051 0.01220767 0.020025173 -0.044156242
0003d0 39 c4 bc 3b 0b e6 9c 3b 90 a1 4c bd 2d 99 0f 3c
       0.0057606963 0.0047881654 -0.049958766 0.008764547
0003e0 12 49 3c 3c 55 e9 29 3d df 16 40 bd c5 b9 b7 3b
       0.011492031 0.04148229 -0.04689681 0.0056068623
0003f0 a0 83 2b 3d 60 af a3 3c 14 0d 0d bc c2 a3 b7 3d
       0.041873574 0.019981086 -0.008609075 0.08966781

fc2.bias f4 [32]
000000 b4 99 83 3d 2c ac 24 bd f9 94 60 bd e3 c4 77 bd
       0.06425801 -0.04020326 -0.05482957 -0.0604905
000010 8d a1 7f 3d 95 5a b9 bd 9c 45 90 bd 88 97 ff 3c
       0.062409926 -0.0905048 -0.07044527 0.031200185
000020 28 c7 6b bd 39 99 a8 3b a5 9a 70 bd 6e 33 1a bd
       -0.057562977 0.0051452187 -0.05874123 -0.037646703
000030 26 6c 81 bd ed c8 02 3d b8 26 72 bd ee 1e a2 bd
       -0.06319456 0.0319299 -0.059118956 -0.079160556
000040 93 4f 19 bd 6c 28 98 bd df 74 08 3d 76 f2 a0 bd
       -0.037429404 -0.07429585 0.033314582 -0.07858746
000050 06 27 6f bd 5b cd 3f 3d 46 6d 5f bd b1 d3 47 3d
       -0.058386825 0.0468267 -0.05454757 0.04878587
000060 2e 19 fb 3c 9f e3 a4 3c e6 f5 6c bd 4e e8 51 bd
       0.030651655 0.02012807 -0.057851695 -0.051246934
000070 3e 47 54 bd 3d e7 bd 3b da d8 75 bd 63 7d 15 bc
       -0.051825754 0.005795388 -0.06002126 -0.009124133
