domain_adaption/best_tt_net2.pth.tar (torch, 811125 bytes, 16 tensors)

gcn1.w f4 [10, 64]
00000000: 9c69 cdbd 1ecb e8bd d9fe 9abd dbb4 49bc
00000010: 41cf 0ebd 7d29 31bd 116a 033d c717 7bbd
00000020: 2417 ffbd e758 f03d 6f4f edbd 09e0 60bc
00000030: b373 153d bc3d bf39 115c c53d c1f1 81bd
00000040: 0e3c 7e3d 69f9 f03d 95a2 c33b 79b1 a63c
00000050: 2a02 fb3c e102 753d 75b0 84bc d3d2 923d
00000060: b650 c1bd 53fa b53d 3487 edbd 6512 bb3d
00000070: 530c e63d 5d00 b73d d9ea 84bd 9028 f63d
00000080: d8ff f1bd 6518 153d c69e 083c 1f60 da3d
00000090: eb97 cebd 3fcd 2e3d 0fd5 bebd 5524 ecbc
000000a0: 5001 c6bb 9703 613d b629 eabd 7c01 f7bd
000000b0: 9d81 c33d 8e9b ec3d 58c4 bd3d f2c0 d4bd
000000c0: 949e f0bd 21b3 1e3d 63f3 afbd f8f8 04bc
000000d0: c189 8d3d 0d1b 5dbb 60b2 a9bd 991c 673d
000000e0: 176c 9f3b 780f 60bd a4b6 82bd c91b 833d
000000f0: aea8 1fbc 0d20 a6bd 87d3 173c 5efa d6bc
00000100: 4598 013d 651f b73d 31bd f2bd 51fe 093d
00000110: e7d2 3cbd b839 7cbd e41c e83d ed8d 97bd
00000120: 4b59 643a 2cfd 4a3d e4bb 82bd cbd9 9abd
00000130: 1b88 85bd 40a7 e43d 94b8 e73d 9d35 a33d
00000140: 4bcc ec3d d635 e3ba 8db2 a2bc 52b9 f93d
00000150: bc22 a63d b0d5 bb3d 7f7e a7bc 31f6 6dbd
00000160: b748 e93d 5a6a e73d a73b 833d ae25 6fbd
00000170: af28 94bc 8752 81bd 0ad1 25bd 8a97 ec3d
00000180: 5f48 a5bd 7c95 c7bb 1afc ecbd 335a 0dbd
00000190: 36b9 0dbc f0ad c2bd 4a55 f03d b098 d33d
000001a0: 1b46 053d 86e4 f1bd 20aa f03c a47b a6bd
000001b0: f9d3 a33c d483 c3bc ae18 103d fe23 683d
000001c0: c3e8 e93d a28d 183d d3ff babd b14f 5b3c
000001d0: 7c3a cb3d 7788 87bd 3a46 99bd b314 923d
000001e0: d5b0 90bd 5276 703c 9e51 35bd e5aa 9d3d
000001f0: 999e 993d e080 d9ba 63cd a83d 6d17 a9bd
00000200: d128 e0bd 5301 033d 6ef6 b33d 4f7c 533d
00000210: 4b4b c5bd 07e2 d7bd 679e 7c3d c358 fd3d
00000220: 3e01 a5bd e1d7 febd 457b f63d c67a 783d
00000230: c607 c1bb 9513 c4bd e482 4f3d e38f 93bc
00000240: 6ef3 fcbc 4f1a b23c 9054 6f3d 50fe 6d3d
00000250: 1083 cdbd 0019 96bd bf99 823d d514 57bd
00000260: 5e53 80bd e79b ce3d e588 b03d 81e0 633d
00000270: 49fa 55bb a9bc 4b3d 31dc 0b3c 7635 a83d
00000280: 6f6e cbbd 5022 913d 95bd 27bc 1727 5639
00000290: a337 bfbc 961e 80bd b812 73bd 4487 dcbb
000002a0: 4e39 823d 70d0 cc3d 4fec a4bd 1c5b 9a3d
000002b0: ddeb 253d d694 f83c 3f04 f7bd 128b eb3b
000002c0: f41e 81b8 3573 dfbd 4116 643d 9bfd cbbd
000002d0: dac2 febd de4d fd3d 6210 51bd 7680 ec3c
000002e0: de5e 8d3d e53b 513d 7fd7 a73d d11c 65bc
000002f0: 842e 96bd 5613 ca3d 0693 cf3c ac43 cebd
00000300: 8bb1 533d c114 c13d 2531 acbd 88b7 babc
00000310: ae8e 6dbd f5b3 753d 05b2 4bbc 5fa9 9cbd
00000320: 90bf eb3d 0465 cebd 4368 9d3d 1f36 fe3c
00000330: 7536 a23c 107d 83bc f17d b23c dc68 a4bc
00000340: 32ac 79bd d8e1 f53c 560e 8fbd 199e 993c
00000350: 7abe a6bb 4094 b4bc 6ede 20bd d782 003c
00000360: 6472 753d 9671 b4bb c35f 09bc a671 52bc
00000370: 2fb4 013d 97f4 e13d 6031 da3d 2176 2b3d
00000380: 132d ac3d 5515 fb3c 9a78 cb3d 1a5b d3bd
00000390: a5b6 15bd 5c1e ba3d 3a76 313d 856a f83d
000003a0: 67cf b93d 147d 16bd b179 4a3d 413c efbd
000003b0: d726 98bc ae39 33bc ecb0 483d b773 f8bd
000003c0: 1dcb e03d f25a 8d3c 2da8 9dbd a34e e5bd
000003d0: cc25 93bd ac9f 96bd f5d9 3dbd 7411 e63d
000003e0: 85a8 03bd b15e 1dbd c4d7 fabc 5eed 763d
000003f0: f2de bbbd 5d34 92bd d56a 683d 5d94 a1bd
-0.10029909 -0.113668665 -0.075681396 -0.012311186 -0.03486562 -0.043252457 0.032083575 -0.061301973
-0.124555856 0.11735707 -0.115874164 -0.013725289 0.036487292 0.00036476355 0.09636701 -0.06344939
0.06206899 0.11766321 0.005970309 0.020348297 0.03064068 0.0598172 -0.016197423 0.07169118
-0.094392225 0.08885636 -0.115980536 0.09134368 0.112328194 0.08935616 -0.06490106 0.120194554
-0.118163764 0.036400218 0.008338636 0.10662865 -0.1008757 0.042676207 -0.093179815 -0.028825918
-0.006042637 0.054935064 -0.11433737 -0.1206083 0.09546206 0.11553107 0.09265965 -0.10388364
-0.117489964 0.03874505 -0.08591344 -0.008115999 0.0691104 -0.0033738047 -0.082859755 0.056423757
0.0048651802 -0.054702252 -0.06382492 0.06401784 -0.009744806 -0.08111582 0.009266741 -0.026242431
0.031639356 0.08941535 -0.11852492 0.0336898 -0.04609957 -0.061578482 0.113336354 -0.07400117
0.00087108155 0.04955785 -0.063834935 -0.07561072 -0.06520101 0.11164713 0.11314502 0.0796921
0.11562403 -0.001733477 -0.01986053 0.1219355 0.08112094 0.09171617 -0.02044606 -0.058096115
0.113908224 0.11299582 0.06407862 -0.058385544 -0.018085806 -0.06314569 -0.04048256 0.11552341
-0.08070444 -0.006090818 -0.11571522 -0.03450985 -0.008650115 -0.09505832 0.117350176 0.10331857
0.03253756 -0.118111655 0.029377997 -0.08129051 0.019998537 -0.023866571 0.035179786 0.05667495
0.11421349 0.037244447 -0.09130826 0.013385699 0.099232644 -0.066178255 -0.07484098 0.07132854
-0.07064978 0.014676647 -0.04426729 0.07698611 0.07500953 -0.0016594194 0.082422994 -0.08256421
-0.10945285 0.031983685 0.08787237 0.05163222 -0.096335016 -0.10541158 0.0616745 0.123704456
-0.080568776 -0.124435194 0.120352305 0.06066396 -0.0058908192 -0.095740475 0.050661936 -0.018012946
-0.030877795 0.02174106 0.058430254 0.05810386 -0.10034764 -0.07328987 0.06376981 -0.0525101
-0.06265901 0.1008833 0.086198606 0.055634025 -0.0032650402 0.049740467 0.008536384 0.08213322
-0.09933173 0.07086623 -0.010238071 0.00020423192 -0.02334196 -0.06255834 -0.059344023 -0.006729992
0.06358586 0.10000694 -0.08052885 0.07536909 0.04050814 0.030344408 -0.12061357 0.0071882093
-6.156965e-05 -0.10910646 0.055685285 -0.09960481 -0.12439509 0.123683676 -0.051041014 0.028869849
0.0690286 0.05108251 0.081953995 -0.013983921 -0.07333091 0.09866969 0.02533866 -0.10071501
0.05168299 0.094277866 -0.08407811 -0.022792593 -0.057997398 0.059986074 -0.01243258 -0.076494925
0.11511147 -0.10077861 0.07685902 0.031031666 0.019801358 -0.016050845 0.02178857 -0.020069532
-0.060955234 0.030014917 -0.06985156 0.018752145 -0.0050886245 -0.022043347 -0.039274625 0.007843695
0.059923545 -0.0055067046 -0.008384648 -0.012844479 0.031665977 0.1103298 0.10653949 0.041860703
0.08407035 0.03064982 0.09935112 -0.103201106 -0.036551137 0.09087822 0.04332564 0.12129692
0.09072762 -0.036740378 0.04943246 -0.116814144 -0.018573208 -0.010939045 0.04899685 -0.12131446
0.10976241 0.01725528 -0.076980926 -0.111966394 -0.071849436 -0.07354674 -0.04635044 0.11233798
-0.032143135 -0.038420383 -0.030620463 0.060284965 -0.09173383 -0.07138894 0.056742508 -0.07889626

gcn2.w f4 [64, 64]
00000000: 2b34 dbbc 1101 8d3d 525b cbbd 5ef3 2f3c
00000010: 8ffe 8d3d 2238 ef3d a77b 913d bab9 0fbd
00000020: 8e51 d23d 23f1 d0bd 8c45 36bd a2ab 6ebd
00000030: 9c46 68bb ba1f fe3c c8db aebd 951b ccbd
00000040: 32b7 d33c 3673 e8bd 93d5 df3d 3202 8a3d
00000050: 5528 8cbc aed0 91bc 02ec 9abd b75c 0bbd
00000060: e2f9 d9bc 1e56 3a3d 3ec7 babc 4fcf b5bc
00000070: 3c40 a33d 1ecd e53d 8633 f2bd e38c 8abd
00000080: fd03 3f3d 9046 e3bb beb3 c3bd 9223 febc
00000090: 8c9f cd3d b207 c03c be21 ab3d b32f 313d
000000a0: 494c da3d 8c91 993d 2445 86bd 7239 073d
000000b0: 030d e3bc c085 e7bd dce1 983d 9f18 f9bd
000000c0: bb72 e53d 58f6 09bc 8a43 7dbd bd2a c3bc
000000d0: e066 1a3d d6c3 f5bd dd6d c2bd c614 923d
000000e0: c3aa 723b e917 d2bc 0a47 a2bd fe68 61bd
000000f0: d867 babd 22e1 a5bc 46f3 2d3d 1365 2cbd
00000100: 86cd 9fbd 1aea 6fbd f099 c5bd 581c b13d
00000110: a54c 2f3d 9d73 aa3c 508c 1b3c d274 94bd
00000120: 93d2 6abd 9048 b5bb 57f0 bd3d b18e 983b
00000130: 8174 7939 2337 d0bd 0b10 97bd 293c 503d
00000140: 7dc7 5d3d f438 453d 48d7 78bd cc2a d53c
00000150: bbc1 183b ba66 603d 42eb 8e3d f8c6 e43c
00000160: 0ea4 0cbd d9f4 193d 7fac f33c d63d de3d
00000170: 8904 fabd 1c24 de3a c537 c4bd cc85 febd
00000180: f79b 9c3d 933b 2fbc 1499 f23d 0f97 9a3d
00000190: 7eea c33c ca0f 14bd cfb6 cf3d ab9e f53d
000001a0: 7fd3 943d 7813 0c3d da79 afbd 5f96 2abd
000001b0: 0bff 573d b736 223d 896d ffbd b5db a6bd
000001c0: 1fcc 533b 3472 5f3d ed57 8a3a 3ee1 e3bd
000001d0: 3ac2 1ebd 41c1 453d 0656 75bd ea88 8d3d
000001e0: 5611 d23d 6e25 c43d 8a06 f93d 09ad da3d
000001f0: 6b51 afbd 13d4 a9bc ffea 8f3d 8c55 51bd
00000200: 58c3 bf3d fa8d c3bd a109 663d a6ee 193d
00000210: b409 a2bd cf4b 693d 3a4f 82bd f7b7 943d
00000220: fbc0 fbbd c3cd f3bc 347a d33d 013b 0cbc
00000230: 787d cabb aff6 babd 3a33 c8bc 732e ce3c
00000240: 9c62 023d 516c fbbd c6ef 6bbd f6f2 d4bd
00000250: 30ad 3abd ec5f 573d 655b 6abc 5f7d 9b3d
00000260: a907 893d e5e1 ec39 c50a ed3d 2bbc b1bd
00000270: a305 ec3b 6421 23bd 8952 b5bd d7b4 98bd
00000280: a8b8 fd3c b94d d33c 61ed e8bd 19bf b33d
00000290: 8359 90bd 8318 92bd 9fbd 3bbc 04e9 f33d
000002a0: fb9c 363d 81d3 a8bd 1af4 a7bd d31c 01bd
000002b0: 72b3 7f3d a64a 113b 409b e9bb 80ae ebbc
000002c0: 0b36 e1bd ce8f a03d f960 d7bd c462 c73d
000002d0: e4af 393d 4119 8dbd 09fe e7bd 7651 bfbd
000002e0: ad82 d5bc ea65 a2bd 1158 cd3d 6805 abbd
000002f0: a2dd 53bc 10e7 b6bd 7db8 e13d eac6 183b
00000300: fdf0 83bd 2374 bd3c 1b4a f73c f3da 4dbd
00000310: 9aae d3bd b88e e7bd c1b6 fa3d 6f31 ae3d
00000320: 298d 923d 0626 cdbd e7be c9bd 9fe9 873d
00000330: d19f 21bd e0da 1d3d aabe 8c3c 97de aabd
00000340: 3cfd 13bd 5dfa a6bb ee3b f3bd eb59 a4bd
00000350: 97c4 9e3c f3c6 123d 1e90 513d 5a7b e53c
00000360: cc86 6dbd 4eef 403d a3dd 0b3d fe8a 21bd
00000370: be1c ddbd a023 723c bf45 c3bd 92f4 74bc
00000380: 959a adbd 0823 f8bd cc67 aebd d465 0cbb
00000390: 01ea f93d f8f8 bcbd 4014 eb3d 8496 0a3c
000003a0: 2c98 6bbd b9ba 94bd dd8c cabd 4cfa ca3d
000003b0: f42b a9bd c781 8cbd 5a68 fc3d 066b c5bd
000003c0: 5eb9 39bd e448 fc3d 4f7b 30bd 565f c13d
000003d0: 0925 78bd 9d01 d437 4c14 f03d 779d ddbd
000003e0: 508d 8b3d e501 ff3d 6840 ffbb f110 5dbd
000003f0: 0180 d93d 7c8f a43d f52c cdbc 498f f83d
-0.026758274 0.06884969 -0.09929527 0.010739176 0.06933319 0.11680628 0.07103663 -0.035089232
0.102694616 -0.10202243 -0.04449992 -0.05826915 -0.0035442477 0.031020988 -0.08538014 -0.09966198
0.02584419 -0.113501 0.10929408 0.067387 -0.017109076 -0.017799702 -0.07564546 -0.034023967
-0.026608411 0.045492284 -0.022800084 -0.022193579 0.07971236 0.112207636 -0.118262336 -0.06765153
0.046634663 -0.006935902 -0.095557675 -0.03102282 0.10040197 0.02344117 0.08356045 0.04325838
0.106590815 0.07498464 -0.06556156 0.03301377 -0.027716165 -0.11304808 0.07464954 -0.12162899
0.11203524 -0.008420549 -0.06183199 -0.02382409 0.037695765 -0.12000243 -0.09493611 0.071328685
0.0037028051 -0.025646167 -0.07923706 -0.05503177 -0.09101838 -0.020248953 0.04246833 -0.04208858
-0.07802872 -0.058572866 -0.09648502 0.08647984 0.042797703 0.020807082 0.009493902 -0.07248844
-0.057329725 -0.0055323318 0.09274357 0.004655682 0.00023789892 -0.101667665 -0.07376107 0.050838623
0.054145325 0.048150018 -0.060752183 0.026021384 0.0023308832 0.054785468 0.069784656 0.027926907
-0.034336142 0.03758702 0.029745338 0.10851638 -0.12207896 0.0016948017 -0.0958095 -0.124278635
0.076469354 -0.010695356 0.118456036 0.075483434 0.023915526 -0.03614787 0.1014229 0.11993154
0.07266902 0.034198254 -0.08568163 -0.04164731 0.052733462 0.03960296 -0.12472064 -0.081473745
0.003231771 0.054552272 0.0010554768 -0.11126946 -0.038759448 0.048280004 -0.05989649 0.0691088
0.10257213 0.09577452 0.1215945 0.10677535 -0.08560451 -0.020731008 0.07027244 -0.051106974
0.09363431 -0.09548564 0.056161527 0.03758111 -0.07912007 0.056957062 -0.063627675 0.07261651
-0.122926675 -0.0297612 0.10326043 -0.0085589895 -0.006179508 -0.091290824 -0.02443849 0.025168633
0.031832322 -0.12276519 -0.057601713 -0.103979036 -0.04557532 0.052581713 -0.014304017 0.07592272
0.06690914 0.00045181732 0.1157432 -0.08678468 0.0072028204 -0.039826766 -0.08853633 -0.074563675
0.03097184 0.025793897 -0.113734014 0.08776683 -0.07048323 -0.071335815 -0.011458783 0.119096786
0.044583302 -0.08243466 -0.082008556 -0.03152163 0.06242699 0.0022169738 -0.007129103 -0.028769732
-0.10996636 0.078399286 -0.10516543 0.09735635 0.045333758 -0.068895824 -0.1132775 -0.09341709
-0.026063288 -0.07929595 0.10026563 -0.083506405 -0.012931259 -0.089307904 0.110215165 0.0023311921
-0.06442449 0.023126667 0.030186703 -0.050257634 -0.10336037 -0.11306518 0.12241889 0.085055225
0.071558304 -0.10017018 -0.09850865 0.066363566 -0.039459053 0.038538814 0.01718076 -0.08343237
-0.036130175 -0.0050957636 -0.11876665 -0.08024963 0.01938085 0.035834264 0.05116283 0.02801292
-0.05798988 0.04710322 0.034146916 -0.039439194 -0.10796498 0.0147790015 -0.095347874 -0.014950888
-0.0847675 -0.12116057 -0.085158914 -0.0021423 0.12202836 -0.092271745 0.11478472 0.008458737
-0.05751817 -0.07262177 -0.09890149 0.099110216 -0.082603365 -0.068606906 0.12324591 -0.09639554
-0.045342796 0.1231859 -0.043086346 0.09442012 -0.060582194 2.527312e-05 0.11722621 -0.1082105
0.068140626 0.12451533 -0.0077896602 -0.053971235 0.10620118 0.0803518 -0.025045851 0.121367045

gcn3.w f4 [14, 64]
00000000: ed7d bd3d 40eb 9cbd 216a e0bd 1a0c a43c
00000010: da78 433d fc04 11bd bc2c f4bd bbd4 683d
00000020: e9ef 943d 279a 82bd e7b1 803c 4035 01bd
00000030: 3bbd 7d3d d3f9 fa3d 0901 b63d fb59 c5bd
00000040: 4a49 fd3d 3362 9cbd d499 eebc 2afe eb3d
00000050: a34c e33d fc22 d43a 76fd b83d eef7 58bd
00000060: 7b5c 37bd 220b 94bd 1a05 b3bc 2015 843d
00000070: 3da6 bcbd add3 f3bd f38f 33bd 3873 1e3d
00000080: d214 0cbd 8145 123d 8acf 5f3b df3a 04bd
00000090: 0cb1 86bd b613 d73c a545 d43d 45df 25bd
000000a0: 49d5 e4bd acbf 563d c605 cabd 105d a63d
000000b0: 1d71 ed3c 335e 0dbd b4ff e6bd a5c6 1cbc
000000c0: c415 c5bd 3770 f73d 849d ad3d e84d fe3c
000000d0: b48e 68bd 9338 3bbc f8e5 6ebd 1f2e bf3d
000000e0: 3632 c23b 25d1 14bd 91fe 8abc 5692 94bd
000000f0: c9be e93d 4468 37bd 50e4 8c3c 4bb2 0b3d
00000100: 063b 5ebd b03b f3bc 22bf 55bd 1b33 f5bd
00000110: 9748 30bd 00fb 893c c965 743c 5175 86bd
00000120: 3da6 97bc 958c cbbd 614e c3bd f078 cebc
00000130: a67b f33d 0172 d6bd ecf0 a43d 501a f8bc
00000140: 9136 08bc 93b1 c43d 862f 36bd cac0 b63d
00000150: db18 e73d 4ff9 c83d 89c7 ae3c 478d 8d3d
00000160: 268e 873d 7462 613d bae3 2d3c 279b 7bbd
00000170: 18f1 8e3d 61ab bb3d 4638 e2bc d1ed debd
00000180: 03ea f03d b705 8a3d 7975 f33d d51f a93d
00000190: e6ad 2cbd ca73 88bd de3e c03d 16bf 3cbc
000001a0: 3ff0 22bc 1855 e0bd 8e65 ec3c d153 5c3c
000001b0: 6d21 163d 96a5 073b 8451 e13d 4be9 eabd
000001c0: 6803 aabb 4ac3 ab3d 2027 f93c 8753 113d
000001d0: 3116 b5bc 78f9 0a3a 2109 c9bc f272 983d
000001e0: 2dfb 653d 5bb0 d6bd cada db3d 8f1f fc3d
000001f0: 4998 a3bd 247c fabd 9624 bdbd b302 adbd
00000200: 1a0d 503d f655 aabd 0059 93bd f4e0 38bb
00000210: f654 64bc 5005 a5bc 8028 d3bd 094a d8bc
00000220: 7d57 e5bd d77c fd3d d4b5 c7bd 69fc 263d
00000230: a5ee 7cbd dbda b13d e966 d6bc 4414 4dbd
00000240: e6f8 d2bd 8ff4 483d 5c33 d0bd 1af7 cebd
00000250: d609 1e3d 7163 0bbd 86a3 da3b 2b84 f8bd
00000260: 38d2 803d 2305 a3bc aa62 d43d 92e0 283d
00000270: 7328 eb3d 88de 9ebd f25d fe3d 79af b43d
00000280: ee56 9ebc 8812 33bb c78a 1cbd a217 3c3d
00000290: 562a 23bd e3b3 1d3b d318 c13d a938 ccbc
000002a0: 3325 463d 8614 8fbd 0af6 743d ffce 893d
000002b0: 5f38 53bd 7ed3 c3bc d65f ee3b c9a0 183d
000002c0: 0661 52bd 7e54 bdbd 1e3a 923d 6e5d e3bd
000002d0: 464f c9bd 1c64 d33c 38ba 08bd 7b80 e6bd
000002e0: add6 9ebd b59f bfbd 19e9 15bd 00ec 98bc
000002f0: fbd2 a5bd b0f5 3a3d 33d4 463d 9b13 ec3d
00000300: d140 333d 94b3 4e3d 3769 733d 74dd c0bd
00000310: 896a d9bd 9974 5bbd 2f95 243d 9a2c 833d
00000320: 3767 fc3d 704c c6bd a15e bbbd 4407 72bd
00000330: 09f8 e7bd 0e3f 9cbb 535f 993c 5358 1b3d
00000340: ada4 debd 326a 0c3d 5c0e a73d d8dd 043d
00000350: 86ea c53d 6aaf 93bd 43de 84bc 0f0b 073d
00000360: b48e 073d 66de c33c 0f8f 84bd 79c1 ce3d
00000370: cd70 fd3b 72d3 693d 5d08 b03d 4afc 58bd
00000380: 1f02 34bd e1c0 d73d 6993 7f3d baeb 72bd
00000390: 8eb9 82bd 5ca2 853d d61d bc3d ebf0 eabd
000003a0: 63d4 fa3d 28c2 85bd 5d30 f4bd 5d62 e93d
000003b0: bc5f ccbd dc9b 0b3d 2012 82bc f671 3d3c
000003c0: e43b a93d 5ab9 b3bd aa68 653c ef50 1ebc
000003d0: 4260 913d 1030 9aba e515 6fbb b524 93bc
000003e0: 9221 9cbd f234 8bbd 3667 723d b549 123d
000003f0: 1f07 7b3d 806d dfbd d583 eb3c 450b 053d
0.09252534 -0.07662058 -0.109577425 0.020025302 0.047722675 -0.035405144 -0.11922595 0.0568435
0.07272322 -0.063770585 0.01570983 -0.031544924 0.061948042 0.122546814 0.08886916 -0.09636303
0.123674944 -0.076359175 -0.029126085 0.11523087 0.11098602 0.0016184743 0.09032719 -0.05297082
-0.04476593 -0.07228686 -0.021853019 0.06449342 -0.09211395 -0.11905608 -0.043838453 0.0386841
-0.034199543 0.035710815 0.0034150803 -0.032282706 -0.06576738 0.026254516 0.10364846 -0.04049613
-0.111734934 0.052428886 -0.098643824 0.08123219 0.0289846 -0.034513664 -0.1127924 -0.009568845
-0.09623292 0.1208195 0.08477309 0.031043008 -0.056776717 -0.011427063 -0.058324784 0.09334969
0.0059263958 -0.03633227 -0.01696709 -0.07254474 0.114133425 -0.04477717 0.017198712 0.03410558
-0.054255508 -0.029691547 -0.05218423 -0.11972638 -0.043037977 0.016843319 0.014916846 -0.06565345
-0.018511886 -0.09938923 -0.09536434 -0.025204152 0.118888184 -0.10470963 0.08053765 -0.030285984
-0.008313791 0.09604182 -0.044478916 0.0892349 0.11284038 0.09813177 0.02133538 0.06911712
0.066189095 0.055025533 0.010613376 -0.06142726 0.06979579 0.09163547 -0.027614724 -0.10885204
0.11763384 0.06739371 0.118876405 0.082580246 -0.04215803 -0.0666271 0.09386991 -0.011520168
-0.009944974 -0.1095373 0.028857019 0.013447718 0.03665297 0.0020698062 0.11001876 -0.11470278
-0.0051883943 0.08386858 0.030414164 0.03548005 -0.022105308 0.0005301456 -0.024540486 0.07443799
0.056147743 -0.10482856 0.1073509 0.12310707 -0.079880305 -0.12230709 -0.09235494 -0.084477805
0.050793745 -0.08317177 -0.0719471 -0.0028210254 -0.013936272 -0.020144135 -0.10310459 -0.02640249
-0.11198328 0.12377327 -0.09751478 0.04076806 -0.061751027 0.086843215 -0.026172118 -0.050068155
-0.1030138 0.049061354 -0.10166046 -0.10105725 0.0385836 -0.03403038 0.0066723255 -0.12134584
0.06290096 -0.01989991 0.10370381 0.041229792 0.114823245 -0.07757288 0.124202624 0.08822531
-0.01932856 -0.0027324278 -0.038218286 0.045920976 -0.039835297 0.002406352 0.09428563 -0.024929361
0.04837532 -0.069863364 0.059804954 0.067289345 -0.05156743 -0.023904558 0.007274608 0.03726271
-0.05136206 -0.09244631 0.07139991 -0.11101805 -0.09829573 0.025804572 -0.033380717 -0.112549745
-0.0775579 -0.093566336 -0.036599252 -0.018667221 -0.08096882 0.045644462 0.048542213 0.11527177
0.043762986 0.050464228 0.059426513 -0.09417239 -0.10616023 -0.053577993 0.040181335 0.064049914
0.12324374 -0.09682548 -0.091489084 -0.05908896 -0.11326606 -0.004768259 0.018722212 0.03792603
-0.10871253 0.034280963 0.08157036 0.03243813 0.096638724 -0.07211192 -0.016219264 0.03296953
0.033095077 0.023909759 -0.06472599 0.10095496 0.007734394 0.057086416 0.08595345 -0.052974977
-0.043947335 0.105348356 0.06239644 -0.059306838 -0.06383048 0.06525108 0.09185378 -0.11471733
0.12247541 -0.06531173 -0.11923287 0.113957144 -0.099791974 0.034084186 -0.015877783 0.011562815
0.08263376 -0.087755874 0.014002005 -0.009662851 0.07098438 -0.0011763591 -0.0036481556 -0.01796184
-0.076235905 -0.06797208 0.05918046 0.035714824 0.061286088 -0.10909557 0.028749386 0.03248145

gcn4.w f4 [64, 64]
00000000: be2c fcbd bd89 ee3d ce5d b83d c0bb ad3d
00000010: 52a2 fcbd c5c4 57bd f2f7 adbc f98d 04bd
00000020: 70d1 c5bd 4fa8 2e3c a0ad d93d a08b 673d
00000030: 6a29 eb3d 21ca d83d ce61 a33c 7423 b5bd
00000040: 4ee2 84bd fd12 aa3d 41ea fd3b b7e7 9f3c
00000050: 5c76 4f3d 03fb cdbd ddc0 29bc 47dd 0d3d
00000060: b38e 70bd 87f7 e4bd e1e4 553d db99 4e3d
00000070: d082 8ebd dc12 c83d 865d e0bd 8ed2 2a3c
00000080: cd4a 7cbd 5a95 b63d 9da7 173d 3c59 70ba
00000090: 843f 72bc ff0b 9c39 8866 79bd fbdc 463d
000000a0: d032 853d c3b8 8d3d 0539 bbbd 289c 123d
000000b0: b043 813d 0cc3 27bd e3f8 3ebd 94d4 8f3d
000000c0: 4dd4 a83d 62de 88bc 563e f23d 5ed1 c83d
000000d0: 81ab 4e3d 7c6a f5bd f3a7 f8bc 1970 a13d
000000e0: 2c5b 1a3d 69ee 5bbd a778 f33d 668c 743c
000000f0: f477 e7bd c496 bcbd 5336 2cbd 7a3b f4ba
00000100: f2df eebc 9558 dbbd c221 aabd 1dc0 ecbd
00000110: 46ae cbbc 432e a63d c9b4 f4bd 32dc 5f3c
00000120: 6ca5 fdbd 44c5 39bd 7734 33bd 7d88 38bd
00000130: c208 3a3c 525f 25bd 3284 44bc 66d0 3abd
00000140: 768a 7f3d 675e bcbd 9e97 d3bc a57d ecbd
00000150: 9820 2c3c fe55 3e3d 688a bc3c 5dfc f1bc
00000160: 0251 a3bb 2339 e4bd 25c7 93bd b890 80bd
00000170: 2c26 ebbd 34cb bc3d 40bc 073c 41c3 dbbd
00000180: 5bc1 c53d 93a2 563d 1a83 c6bd 852d f03d
00000190: 73aa 6a3d 7fa8 cebd f886 d43d f47d 9dbd
000001a0: 8f6b 9abd 9432 a63d 31be 443d 7e53 ee3d
000001b0: 073f 2c3d 121d c9bd 9445 b33d 5164 efbd
000001c0: 3766 8e3d 1269 31bd 7ed0 b73c 32a8 bfbd
000001d0: fe62 e3bb 45cc 00ba c4cc 28bd 3e21 e63c
000001e0: 0bbb 37bd fd2e 7ebd 0f05 fdbc 4211 d9bd
000001f0: bf22 1e3d a13a 7dbc fa46 ecbd 4af5 c3bd
00000200: a568 c4bc 27d6 70bd 1ff8 f93d bed3 9f3d
00000210: 4993 f23d 5a01 b73d de3e 64bc 9187 df3d
00000220: 23ca d6bd 375f 60bd b271 a4bd ba22 dd3b
00000230: c059 f53d 9d83 59bd a7d5 823d ecc8 f9bd
00000240: 91b7 f5bd d934 6a3d 334d 853d aaff 81bd
00000250: fb68 a03b 6fff c3bd ab09 9cbd f6dc 843c
00000260: bc52 da3c 175e 26bd b5a0 e53d 6dac fa3d
00000270: f784 693d 371f 523d 528b 1a3d a865 ee3d
00000280: 3cf8 2dbd 3ccc 52bd 49dc 25bd 38e4 bb3b
00000290: 7f9d adbb b742 9abc a42a 2bbd 6482 67bd
000002a0: 79a8 653c 5aae edbd 6ca3 96bd 872c 2d3c
000002b0: 4369 9abc a74d 8ebd ae66 833d 443c d33b
000002c0: a72f 8b3d 5b47 2b3b 1c09 8a3c 4078 9bbd
000002d0: f830 e4bd a3dc bd3d 8db4 983d 9694 a73d
000002e0: e6c2 56bd 16e4 7abd 02e0 683c 9819 c33d
000002f0: ab7c 6cbd fc23 96bc 0697 2dbb 0890 2d3b
00000300: ad0e 4bbd a4b8 fa3d 847e 2dbd aa10 ed3d
00000310: 6290 9fbd ef48 17bd bf5c e3bd acaa 34bd
00000320: d103 7a3d 45bb e8bc 4224 be3d dda2 a7bd
00000330: 8cbd f43c 1d35 46bb 7ec9 d93d 4a6c 103c
00000340: 709f 6b3c 8953 b33d 005c d43c 59dc b93d
00000350: 4450 3bbc 9c72 b83d 8306 cb3d a4c3 063c
00000360: 1331 833c 1e33 a83c 03cd 613d ebbb 3fbd
00000370: ca3e 313d e6c8 db3b 92cb babd f005 583d
00000380: 168e d83d a2b3 a33d 3636 e5bd 2938 d43d
00000390: 9bc9 3b3d df89 abbd a431 c63d 2e12 40bd
000003a0: 3f1f d23a 430f da3d 0be8 db3d 75ff be3d
000003b0: 31b2 83bd 6b03 5bbd 1574 363d e2ec d8bd
000003c0: 3ff5 5e3d c8e3 2e3c 31c4 9cbd cf2d 81bd
000003d0: 85f3 843d bcb6 933d 2281 57bd 885a 24bd
000003e0: 8827 a3bd 050d 963d b3c8 9abd 486c 90bd
000003f0: 4eb4 a7bd 27c8 653d 9c4c a63d 2094 303d
-0.123132214 0.11647365 0.09002267 0.08483076 -0.12335648 -0.05267789 -0.021236394 -0.03236196
-0.09659088 0.010660245 0.106288195 0.05652964 0.114825085 0.10585428 0.019944098 -0.08844653
-0.06488477 0.08304403 0.0077488725 0.01951967 0.050649986 -0.10057642 -0.010360924 0.034634855
-0.05872984 -0.111800246 0.05222023 0.050439697 -0.06958544 0.09769222 -0.10955338 0.010426177
-0.061594773 0.08915205 0.037025083 -0.00091685704 -0.014785651 0.00029763576 -0.060888797 0.048550587
0.06503832 0.06920006 -0.09141735 0.035793453 0.063117385 -0.040957496 -0.046624076 0.07022968
0.08243618 -0.016707603 0.11828296 0.098055586 0.050456528 -0.11983201 -0.030353522 0.07882709
0.037684605 -0.053694163 0.11888247 0.014926052 -0.11302176 -0.09208444 -0.042043995 -0.0018633448
-0.02915952 -0.10710255 -0.0830722 -0.1156008 -0.024863373 0.081142925 -0.119485445 0.0136633385
-0.12385067 -0.045354143 -0.043751206 -0.04505204 0.011354627 -0.040374108 -0.011994408 -0.0456089
0.062387906 -0.09197693 -0.025829133 -0.11547402 0.010505818 0.046468727 0.023015216 -0.029539282
-0.004984022 -0.111437105 -0.07215718 -0.06277603 -0.1148189 0.092184454 0.008284628 -0.10730601
0.0965602 0.052401137 -0.096929744 0.11727432 0.05729146 -0.10090732 0.10377306 -0.07690039
-0.075400464 0.08115116 0.048032943 0.116370186 0.042052295 -0.09819998 0.08753505 -0.11689056
0.0695309 -0.043313093 0.022438284 -0.093582526 -0.006939291 -0.0004913251 -0.041210905 0.028092023
-0.044856112 -0.06205653 -0.030886201 -0.10598995 0.038607355 -0.015455873 -0.11536975 -0.095682696
-0.02397568 -0.05879798 0.122055285 0.078040585 0.11844499 0.08935805 -0.013931004 0.10914529
-0.10487773 -0.054778304 -0.08029498 0.0067485245 0.11980009 -0.05310403 0.06388407 -0.12196526
-0.11997903 0.057179306 0.06508865 -0.06347592 0.004895327 -0.095702045 -0.076190315 0.016218644
0.026650779 -0.040617075 0.11212293 0.12239919 0.05701157 0.0512993 0.037730522 0.11640483
-0.042473063 -0.051464304 -0.040493283 0.005733993 -0.005298316 -0.01883064 -0.041788712 -0.056520835
0.014017218 -0.116055205 -0.07355389 0.010569698 -0.01884902 -0.06948405 0.06416069 0.006446393
0.06796198 0.002613506 0.016850047 -0.07591295 -0.111421525 0.09270599 0.07456312 0.081826374
-0.052431963 -0.061252676 0.014213564 0.09526366 -0.05773608 -0.018327706 -0.0026487722 0.0026483554
-0.049574543 0.12242249 -0.042356983 0.11575444 -0.07791211 -0.03693479 -0.11101674 -0.044108078
0.061038796 -0.02840961 0.092842594 -0.081853606 0.02987554 -0.003024406 0.10634135 0.008814881
0.014381275 0.087561674 0.025922775 0.09075231 -0.011432711 0.09006235 0.099133514 0.008225355
0.016014611 0.020532187 0.055127155 -0.046810072 0.04327277 0.0067072986 -0.09120859 0.052740037
0.10573976 0.079932466 -0.111919805 0.10362274 0.045846563 -0.08375906 0.09677437 -0.046892338
0.001603104 0.10647442 0.10737618 0.09326068 -0.06430472 -0.053470057 0.0445443 -0.10592057
0.054433104 0.0106744245 -0.07654608 -0.063075654 0.0649176 0.07212588 -0.052613385 -0.0401254
-0.07966524 0.07326702 -0.075578116 -0.07051903 -0.08188687 0.056099083 0.08120081 0.043110013

fc1.weight f4 [64, 2]
00000000: 6615 27bf e4c1 63bd a1bc 8dbe ad20 343f
00000010: 855f bd3e caf4 493e fad7 1d3f c187 03bf
00000020: 8d0c 143f 0b1f 1abf eee1 d23e 15f9 053f
00000030: 6c92 3a3e 686e 223e 17ed db3e 6b30 e4be
00000040: ef50 0f3f 9411 a63c 07c2 99be 9c7f d1bd
00000050: 6732 2a3f 05b6 1d3f 966d 9c3e 8fdc c33e
00000060: 67c9 2bbf 780b 07bf 67e6 d0be 0e61 a13e
00000070: c79c 07bf 3e33 a4be 0d0e bebe 4ca0 2c3e
00000080: 594f 073f 4f2c d73e 8277 e33e 3570 1ebf
00000090: 951d b2be 199f 8bbe f0c9 bfbe fe26 b33e
000000a0: f7aa 9d3e e1da 803e 496c aabd 34e2 873e
000000b0: d7c8 87be bc46 dcbd 4502 0f3f 8066 07bf
000000c0: 912b 54bd 4a69 95be f676 efbe ee4b c7be
000000d0: 91c8 183f 4b07 a2be 54b4 f3be 9426 19be
000000e0: 5bf9 0b3f ff04 f33e 9457 46be 50c9 943d
000000f0: b443 133f 160d b43e f27e 81be ac63 e3bc
00000100: 0903 02be 57bf 1dbf 00ff fcbe 9a59 dd3e
00000110: def2 1fbe 67a2 fdbe 7026 113f bbb3 3d3e
00000120: c7f8 e03d 0d06 0cbc de82 e53e c9dc 31bf
00000130: 5b69 393e 022f 093f aaea d53e cd34 2abf
00000140: b0d0 1fbf 8015 24bf cdf3 34bf 2b2f 223f
00000150: 73da 0f3f d8d6 29bf 7c46 b83d 9c4d 7e3e
00000160: 7638 15bd 2ea5 3c3d f4fc fe3d 9440 523e
00000170: d413 12bd f4cd 463d 8008 473e ee80 c3be
00000180: 24e6 53be 2f69 84be 9638 183f df79 2e3f
00000190: 445d 30bf 19dd cdbe aa59 02bf 773e 1a3f
000001a0: ac3c ed3e 5fe3 32bf 516f 2c3f 8301 27bf
000001b0: e5b3 09be c53a bdbe 9255 e73e e2ee 5cbe
000001c0: 8f6e 14bf 3364 2abf fab7 e93e 8c9d 3d3c
000001d0: 02f7 cc3e d028 b7be 573c cbbe a4c6 32bd
000001e0: e2a8 b93e 5464 d5be 587d f4be 1e39 07bf
000001f0: 0515 9bbe 265b 55be c8d6 25bf 4567 773d
-0.65267026 -0.05560483 -0.27682975 0.7036236 0.36986938 0.19722286 0.6165768 -0.5137902
0.5783165 -0.6020362 0.41187996 0.52333194 0.18219918 0.15862429 0.42954323 -0.4456819
0.5598287 0.020272054 -0.30030844 -0.10229418 0.6648316 0.61605865 0.30552357 0.3825421
-0.6710419 -0.52751875 -0.40800783 0.3151936 -0.529736 -0.32070345 -0.37120095 0.16858023
0.5285545 0.42025992 0.44427115 -0.61889964 -0.34788194 -0.2726982 -0.37458754 0.34990686
0.30794498 0.2516699 -0.08321435 0.26539767 -0.26520416 -0.10755679 0.5586284 -0.5289078
-0.05179936 -0.29181892 -0.46770447 -0.38925117 0.5968104 -0.3164619 -0.47598517 -0.14956123
0.5467736 0.4746475 -0.19369346 0.0726496 0.5752518 0.35166234 -0.25292164 -0.027757488
-0.1269647 -0.61620086 -0.494133 0.43232423 -0.1561999 -0.49537966 0.56699276 0.18525593
0.109849505 -0.0085463645 0.44826406 -0.69477516 0.18106596 0.53587353 0.41780597 -0.6648682
-0.62427807 -0.64095306 -0.7068451 0.6335322 0.561927 -0.6634345 0.08997819 0.24834293
-0.0364308 0.046055965 0.12450591 0.20532447 -0.03566344 0.048536256 0.19436836 -0.38184303
-0.2069326 -0.258615 0.59461343 0.6815471 -0.6889231 -0.40207747 -0.50918067 0.60251564
0.4633535 -0.6987819 0.67357355 -0.6523668 -0.1344753 -0.369589 0.45182472 -0.21575502
-0.579812 -0.6655914 0.45648175 0.011573207 0.40032202 -0.35773325 -0.39694473 -0.04364647
0.3626166 -0.41678107 -0.4775188 -0.5282153 -0.30289474 -0.20835552 -0.64780855 0.06040122

fc1.bias f4 [64]
00000000: 67c8 b6be d68a 023f a499 093f 3e3d cd3e
00000010: 6f98 2ebf 54c4 1e3f d23b febe 9089 133f
00000020: 9361 43be ccb3 01bf 2e67 89be d66a 013d
00000030: 67ce 503e 2c07 be3c 4667 ed3e 089c 0cbf
00000040: 4cad 08bf 6292 1abf 5c12 fbbd 007e 12bf
00000050: 5e9e f23e 6289 8a3d e194 873e cd9c 073f
00000060: fbaf 2c3e 64ec f9bd d236 24bf 7cd2 fcbe
00000070: 4968 80bd 537c 3e3d 6934 1f3d aed1 e3be
00000080: f6c9 913e 464b 17bf 896a a03e faf5 633e
00000090: 762b ba3e 11b7 f1be 2e7e afbe eda6 313f
000000a0: ec69 cbbd 051e 123f 4e96 a9bd f6a4 1dbf
000000b0: 0a61 333f 8e66 1bbf 6eae abbe 0f77 8dbe
000000c0: 89e6 c4be 70a2 50be 6808 02bf 15ab 473e
000000d0: 679d 2f3e edec bb3e 8571 b73e 10e4 913e
000000e0: 6234 ef3e abc9 17bc 9fac 353e 14d4 febd
000000f0: a5f3 23bf 863d d83e 96d8 8b3e 9657 4b3e
-0.3569977 0.50993097 0.5375006 0.40085787 -0.68201345 0.6201832 -0.49655014 0.5763178
-0.1908019 -0.50664973 -0.26836532 0.031596027 0.20391236 0.02319678 0.46367854 -0.54925585
-0.5338943 -0.6037961 -0.12259361 -0.5722351 0.4738645 0.06764485 0.26480773 0.52973634
0.16864006 -0.12203291 -0.6414615 -0.49379337 -0.06269891 0.046505284 0.03886834 -0.4449591
0.28474396 -0.59099233 0.3133128 0.22261801 0.36361283 -0.4720998 -0.34275955 0.69395334
-0.09932312 0.57077056 -0.082806215 -0.61579835 0.70069945 -0.6070336 -0.33531517 -0.27629897
-0.38457134 -0.20374465 -0.50794077 0.19498856 0.17149888 0.36704198 0.35828796 0.2849431
0.46719652 -0.00926439 0.17741631 -0.124427944 -0.6404365 0.4223444 0.2731368 0.1985763

output_1.weight f4 [24, 2112]
00000000: 0330 25bc 2e0f 92bc 18ef 65bb 3ebc dcbb
00000010: 309e b1bc bc82 73bc 7a2a 843c 5bc5 11bc
00000020: 06e4 14bc ada0 09bc 6428 713c 2e59 a33c
00000030: 944c 843b e003 a4bc 0eb6 e9bb aa63 7fbc
00000040: 7172 03bc 8427 67bc 1a12 12bc 8e6a 8f3c
00000050: 8786 96bc 40f4 98ba da32 8abc 406f 993a
00000060: 2043 033b c45a 9b3b 32b1 963c aa92 78bc
00000070: d58d a8bc 683a 253b de08 853c f407 04bc
00000080: e471 883c 0cb0 6f3c ac44 903b 5eec b03c
00000090: 2c3c 9f3c cb86 14bc d8cc 46bc fcab d5bb
000000a0: 9854 d13b b4c3 343c e06e 59ba 9e57 133c
000000b0: c282 a0bc 9051 163b 8065 373c ece9 a33b
000000c0: 5867 703b 36c3 a5bc 16dd a8bc 7a90 a3bc
000000d0: 4218 943c fc90 a5bc b6f4 813c e818 c5bb
000000e0: 5808 59bc 4846 303c 5edc 8e3c 6819 573c
000000f0: b5a9 4bbc aaba e1bb 48d2 263c e8a4 aa3c
00000100: 1481 8b3c 44ae 833c 9055 03bb 2c95 b63b
00000110: 2c2f 84bc 084c 2f3b 9b70 59bc a013 bf3b
00000120: 10fc af3b 101f c0ba c6e4 31bc 61a6 32bc
00000130: 400f 33bb e02f cb3a 5432 c5bb 9cf5 fa3b
00000140: a2d4 5bbc e0f7 163a 29c4 28bc b2f9 a23c
00000150: fd35 acbc 889c 6b3b 0096 9a39 c68b 73bc
00000160: c353 03bc baea 99bc 0444 af3c 8c7c 3c3c
00000170: bbb9 29bc f2de 83bc 9043 92bc 7851 8cbc
00000180: d08e 7ebb 407b 843c 9d03 9dbc a081 21bb
00000190: f846 573c 6c56 973c d06c 57bb ba52 96bc
000001a0: e083 2a3c 6874 83bb 8ee1 50bc 00b4 cc3a
000001b0: 0002 d9ba 20c5 8dbb b774 12bc 7a35 39bc
000001c0: 802c 0fb9 c41e 2e3c 3850 433c ea92 a23c
000001d0: 3183 83bc 3cf8 79bc 72ec 88bc b0c4 1c3c
000001e0: 3415 653c 9865 ebbb 380e 463b 8f8a 92bc
000001f0: 3c73 363c 8abe 923c 297e 1dbc 60d3 4a3a
00000200: ee19 88bc 700f abbc 804f 713c ee1b a93c
00000210: 00cc dcb8 ccab 1f3c 84c5 523c 88cd 483b
00000220: 460c 903c a0f7 a9bb 5861 adbb 94e9 c8bb
00000230: 3856 9d3c 8c0b e9bb 247e a13c 7ba0 9dbc
00000240: 5c0a b13c ec49 8bbc dcc4 ae3b 60fb 853b
00000250: 584b 9dbb 7044 8cbb 54a9 313c 0434 853c
00000260: 0410 7e3c 182a 0f3c 5094 33bc 70e4 053c
00000270: d63a 9f3c 1669 993c 48be 07bb 8cb2 4a3c
00000280: 1f2e 77bc 7495 c0bb 7c21 cd3b 3f1d 87bc
00000290: dc8c 203c b0c7 9a3b 9a89 5ebc d008 d9ba
000002a0: 8829 65bb 813c 9dbc 44ee 89bb 9a49 77bc
000002b0: 98c3 4b3c 686f 863c bebe 24bc ec76 ef3b
000002c0: 78a3 0fbc b0c1 a53a 4857 0dbc a921 63bc
000002d0: 9c05 673c 8084 6339 705e 833a 4c94 a9bb
000002e0: 945e 413c c5c3 28bc c6c9 78bc 608f a83b
000002f0: 6cc3 a63b f0ad 373c a3d3 94bc c850 363c
00000300: 9c62 ffbb 2805 b0bb d8b0 05bc 93f8 77bc
00000310: 32ed a3bc 3d5b a9bc 240e 273c f605 d6bb
00000320: 2372 5fbc 561d 9fbc 58f1 3e3b 80e3 2dba
00000330: 0873 75bc dfd1 a5bc 30ea bfba 0459 8ebc
00000340: c0c6 c3bb 0981 0fbc 90b3 dd3b b8b2 83bc
00000350: 9071 3bbb 407a 7c3c ebc4 8dbc 1cb3 95bc
00000360: 2f3c 0abc 207f 0f3a 7e33 7dbc 3849 8bbc
00000370: 42f6 94bc 0ad7 9b3c 5443 9cbc 24fa 993b
00000380: 36db dfbb ec52 7e3c e6ce 94bc 2653 0dbc
00000390: acaa 2b3c cc11 233c 50f6 3dbc f660 103c
000003a0: 10ae 6abb ce50 5cbc cab3 16bc 9aed 28bc
000003b0: e009 5fba cce3 0b3c 14fa 20bc 0074 b13a
000003c0: 705b d13b b857 fcbb b800 0cbb e066 f03b
000003d0: edcc 41bc 60a7 5bba e0f0 e93b 20ed 3fbc
000003e0: 7c0c 8b3b 1b21 4dbc b61d a43c 008c 443c
000003f0: eef0 9e3c 505f 85bc e9ad 4dbc 00f2 1038
-0.010082248 -0.017829504 -0.0035085138 -0.0067363074 -0.021681875 -0.0148627125 0.016133536 -0.008897151
-0.009087568 -0.0084001245 0.0147191025 0.019939985 0.004037449 -0.020021379 -0.0071322983 -0.015587727
-0.00802289 -0.014108542 -0.008915449 0.017506864 -0.018374695 -0.0011669472 -0.016869951 0.0011706129
0.0020029023 0.0047410447 0.01839504 -0.015171686 -0.020575443 0.0025211815 0.01623958 -0.008058537
0.01665587 0.014629375 0.0044027176 0.021597084 0.019437872 -0.00906534 -0.0121337995 -0.0065207463
0.006388258 0.011032987 -0.0008294415 0.0089930575 -0.0195936 0.0022936799 0.011193633 0.005002251
0.0036682691 -0.020234685 -0.020613234 -0.019966353 0.018077973 -0.020210735 0.015863758 -0.006014932
-0.013246618 0.010758944 0.017439064 0.013128616 -0.012430598 -0.006888707 0.010181971 0.020830587
0.017029323 0.016074307 -0.0020040013 0.005571982 -0.016135775 0.00267482 -0.013271476 0.005831197
0.0053706244 -0.0014657695 -0.0108577665 -0.010903926 -0.0027322322 0.0015501939 -0.0060179625 0.0076586735
-0.013417395 0.0005758982 -0.0103006745 0.019894455 -0.021021837 0.0035951454 0.00029484928 -0.014864868
-0.008015576 -0.018788684 0.021394737 0.011504304 -0.010359223 -0.01609752 -0.017854482 -0.017128691
-0.0038842447 0.016172051 -0.019166762 -0.0024643913 0.013139479 0.018473826 -0.0032871254 -0.018349994
0.010407418 -0.0040116794 -0.012749089 0.0015617609 -0.0016556382 -0.0043264776 -0.00893896 -0.011304254
-0.0001365412 0.010627452 0.011920981 0.019845445 -0.016053768 -0.015256938 -0.016714308 0.009568378
0.013982106 -0.007183742 0.0030220877 -0.017888336 0.011135872 0.017913122 -0.009612598 0.0007737186
-0.016613927 -0.020881385 0.014728427 0.0206432 -0.000105284154 0.009745549 0.012864474 0.0030640084
0.017583977 -0.00518699 -0.0052911453 -0.0061313603 0.019206151 -0.007111972 0.019713469 -0.019241562
0.021611385 -0.017003022 0.005333526 0.004088804 -0.0048002414 -0.0042806193 0.010843594 0.016260155
0.015506748 0.008738063 -0.010960653 0.0081721395 0.019437235 0.018726867 -0.0020712782 0.01237167
-0.01508668 -0.005877191 0.006260095 -0.016493438 0.0097992085 0.0047235116 -0.013582611 -0.0016558412
-0.0034967382 -0.01919389 -0.0042093117 -0.015093232 0.01243677 0.016410545 -0.010055242 0.0073078778
-0.008767001 0.0012646224 -0.0086267665 -0.013863006 0.0141004585 0.00021697767 0.0010022651 -0.005175149
0.011802334 -0.010300581 -0.015184825 0.0051440448 0.005089214 0.0112109035 -0.018167323 0.011127658
-0.0077937376 -0.0053717084 -0.008159839 -0.015134948 -0.020010564 -0.020673389 0.0101962425 -0.0065314723
-0.013638052 -0.019423168 0.0029135551 -0.00066333264 -0.014981039 -0.020241676 -0.0014641937 -0.01737643
-0.0059746206 -0.008758792 0.0067657903 -0.01607643 -0.0028601624 0.015410006 -0.017305812 -0.018273883
-0.0084372 0.000547396 -0.015454171 -0.017002687 -0.018183831 0.019023437 -0.019075073 0.0046990085
-0.006831552 0.0155227 -0.018165063 -0.008625781 0.010477703 0.009952974 -0.01159437 0.00881218
-0.0035809316 -0.013447 -0.0091981385 -0.010310555 -0.00085082464 0.008538198 -0.009825248 0.0013538599
0.006389074 -0.0077008866 -0.0021362733 0.0073364824 -0.011828643 -0.0008379128 0.0071393102 -0.01171425
0.0042434316 -0.0125201 0.020033699 0.011996269 0.019401994 -0.0162808 -0.01255367 3.4557655e-05

output_1.bias f4 [24]
00000000: afe7 54bc 385d ff3b b235 26bc edcc 1cbc
00000010: d8e0 473c 38e8 633c 4411 bdbb c033 b13c
00000020: 7824 003b fc34 313c 9d38 9ebc ead0 08bc
00000030: daeb 863c 4ce9 9d3c 7062 79bc 109a 243b
00000040: 9884 0d3c 2468 d63b e0eb 7e3b dc71 d13b
00000050: f6f9 9b3c e4e5 553c a887 ca3b 3a72 abbc
-0.012994691 0.007793095 -0.010144638 -0.0095703425 0.012199603 0.013910346 -0.0057698805 0.021631122
0.0019552987 0.010815855 -0.019314105 -0.00835059 0.016469885 0.019276284 -0.015221223 0.0025116242
0.00863757 0.0065431762 0.0038897917 0.006391747 0.01904009 0.0130552985 0.0061807223 -0.02092849

fc2.weight f4 [64, 2112]
00000000: 6f92 853c e505 1d3c 8d94 ec39 5282 d33b
00000010: 459f edb9 8425 67bc bf2f 7dbb 12bd dbba
00000020: bd8a 6c3c 4618 6ebc 7203 b4bb 772b 583c
00000030: f398 dbbb aff7 93bc f671 153c 24f4 b0b9
00000040: d831 923c 9f31 3f3c 6f1d 47bc ac8d a9bc
00000050: f88c b1bc 2af6 33bc 1290 9cbc b2d1 973c
00000060: 969f 863c 5a50 e5bb 25a1 dc3b 06ba bb3b
00000070: d677 8cbc 21a2 99bc cf54 853c 3874 3b3b
00000080: cc19 14bc 3338 4d3c f480 56bc 0a1a 55bc
00000090: ebf4 8bbc c70d da3b bf7d 713b ac75 843c
000000a0: 513e 6dbc 3812 5b3b 3b23 1cbb bf6c a23c
000000b0: 8ae3 0a3c 947b 6d3c 8e1b a1bc 42dd 193c
000000c0: f097 75bc 88e1 85bc f10d 173c d409 48bc
000000d0: f206 5ebc 5e54 353c 26e6 0f3b 574e 65bc
000000e0: 2127 013c 9a4e bd3a fc3b 963c 2ad3 7cbc
000000f0: d65b 563c a9c6 92bc 3f15 00bc fdb1 5abc
00000100: 6a90 72bb d656 a73b dd8f 813c 6be1 713c
00000110: d937 8d3c 68ba 60bc b25c 43bb 2191 3a3b
00000120: bf93 053c 7b66 343c ea36 13bc f460 60bc
00000130: d5d0 3fbc 149c 493c cd30 663c 0afe 8ebb
00000140: bb7d 97bc 131c 2dbc 92e8 4abc 22e3 1fbb
00000150: d897 f03b ce68 0cbc 0eb9 8dbc 5fed 61bc
00000160: 7599 863c 288c 7fbc 6a94 a6bc 5b8e 263c
00000170: d987 29bc 1e85 1bbc ec82 883a 2438 813c
00000180: 3152 f1bb 3802 b0bb 9fa3 a13c d357 7b3c
00000190: eddc 033c c812 71bc 3abc 003c 3862 12bc
000001a0: 1985 9bbc db55 5a3c ad5e 013c b58f 3f3c
000001b0: 8e53 21bc 3fca 97bc 985a a33c 0a55 693c
000001c0: 7fc1 3abb 4df3 313c 496f 6b3c d1dc 69bc
000001d0: 990e afbc d937 88bc eab5 24bc 410e 9b3b
000001e0: f545 ac3c ca90 6f3c 2d0e 3f3c d12a 9fb9
000001f0: 1b0c f3bb b38b 10bc 2fae 5d3c c476 843c
00000200: e9c9 65bc 18d2 ce3a 77a0 c73a 9190 8b3c
00000210: 47fb a6bb 471b 4e3c f298 263b d443 5b3c
00000220: b157 aabc c0da 8b3c 0d85 2eb9 6e8a 833b
00000230: d128 5bbc a1c2 96bc 6a1e 67bc b8cd 493b
00000240: e7c5 e8ba 13e3 a0bc 1f8f cfbb 7043 833a
00000250: f485 843c 1979 393c 9c71 99bc 7f06 313c
00000260: 7c63 17bc ef01 98bb 84cf 8abb 7553 cebb
00000270: 7caa 8b3c 8fe2 92bb 7e36 5dbc 9044 97bc
00000280: 760c 9dbc c653 a23c 482f 41bc 0c27 93bc
00000290: 983e 533c 8f6a 40bc 3006 113c 2be6 ac3c
000002a0: a223 963c 0fc9 2e3c 582d 233b 2684 a13c
000002b0: e3d7 9c3c 9d98 4fbc 9fdb 873c c676 8b3b
000002c0: 1eea a6bc c452 9b3c ae91 713c f547 c7bb
000002d0: 8710 18ba 42f6 0d3a 5f21 efbb 7936 03bc
000002e0: 92b5 8dba c0e7 603b 8862 0c3c 814a aebc
000002f0: f58a 843b 44a6 eebb 5f95 693c c2d1 a4bb
00000300: 2ad8 8c3c 9e92 413c a268 b3bb 23f0 a03c
00000310: 9438 a2bc 4d81 1ebc 3a9c aa3c ef4b 923c
00000320: ea88 ab3c bdcc 89bc d984 b03c 022c 5abb
00000330: a2de 87bc 715e 993c 1df9 c43b 5c80 aebc
00000340: 640d 7dbc b02b 5a3b 1b8b 6b3c a288 1ebc
00000350: 8114 8abc 8721 973c 4bc6 7a3c 960e e03b
00000360: d8a8 8dbc 44c7 9c3b 1e1f 9fbb dbf0 9abb
00000370: a178 783c 08de 9a3c f93a 0abb a771 853c
00000380: ca3c 833c ecf3 35bc 25b3 93bc 5f0d 03bb
00000390: c62f dbbb 1164 7f3c f5e1 353a baeb a9bb
000003a0: f73c 5e3b 19a7 323b a902 893c a48c 923a
000003b0: 68ef 26b8 4116 4ebc 540a 38bb d1ef 37ba
000003c0: dcfb 1c3c e2dd 0f3c 9fac 30bc b631 55bc
000003d0: 49ab a6bc 4ab7 a93c f616 d0bb 65e2 013c
000003e0: 922a 8b3b 126f 86bc b703 79bc 90cf 43bc
000003f0: 22f8 833c 7b75 69bc 705f b0bb aa54 713c
0.016305177 0.009583925 0.00045124107 0.0064547444 -0.00045322828 -0.0141080655 -0.0038633195 -0.0016764721
0.014437375 -0.014532154 -0.005493575 0.013193957 -0.0067015826 -0.01806244 0.009121409 -0.00033751235
0.017846033 0.011669545 -0.012153014 -0.020697437 -0.021673664 -0.010983983 -0.019111667 0.018532608
0.016433518 -0.006998104 0.006733077 0.005728963 -0.017146986 -0.018754067 0.016275791 0.0028603207
-0.009039354 0.012525606 -0.013092268 -0.0130066965 -0.01708456 0.0066544744 0.0036848632 0.016169392
-0.014480189 0.0033427607 -0.002382471 0.019827245 0.008477101 0.014494795 -0.01966646 0.009391131
-0.014989838 -0.016342893 0.0092196325 -0.012209374 -0.013551461 0.011067478 0.0021957248 -0.013995728
0.007882864 0.0014442981 0.01833915 -0.015431205 0.013083419 -0.017916994 -0.007817565 -0.0133481
-0.0037012347 0.005106787 0.01581567 0.0147632165 0.017238544 -0.013716318 -0.002980989 0.0028467851
0.008152901 0.011010761 -0.0089852605 -0.01369499 -0.011707504 0.012305278 0.014049721 -0.00436378
-0.01849257 -0.010565775 -0.012384551 -0.0024396856 0.00734232 -0.008569909 -0.017300155 -0.013789504
0.016430596 -0.015597381 -0.020334441 0.010165776 -0.01034733 -0.009492187 0.0010414994 0.01577384
-0.0073645343 -0.0053713582 0.01973134 0.015340763 0.008048278 -0.01471395 0.007857377 -0.00893455
-0.018984364 0.013326134 0.007896108 0.011691977 -0.009846581 -0.018529056 0.01994066 0.014241466
-0.002849668 0.01086123 0.014369794 -0.014273838 -0.021369265 -0.016628193 -0.010053137 0.004731924
0.021029452 0.014621923 0.011661095 -0.00030358744 -0.0074172146 -0.008822369 0.013530298 0.016169913
-0.01402519 0.0015779166 0.0015230317 0.017036708 -0.0050958726 0.012579746 0.0025420752 0.013382871
-0.020793768 0.017072082 -0.00016643498 0.004014305 -0.013376431 -0.018403353 -0.014106372 0.0030792784
-0.0017759175 -0.019639527 -0.0063342 0.0010014605 0.016177155 0.011320376 -0.018730931 0.010804771
-0.0092400275 -0.0046389024 -0.0042361636 -0.00629657 0.017049067 -0.0044825743 -0.0135017615 -0.01846531
-0.01917098 0.019815337 -0.011791058 -0.017962955 0.0128933415 -0.011744156 0.008851573 0.021105846
0.018327538 0.010668053 0.0024898853 0.019716334 0.019145912 -0.012670663 0.016584216 0.0042561023
-0.020375308 0.018960364 0.014744205 -0.006081576 -0.00058008026 0.00054154184 -0.0072976793 -0.008008593
-0.0010811558 0.0034317821 0.008568414 -0.02127576 0.0040448853 -0.007283004 0.014256804 -0.005029888
0.017192919 0.011814741 -0.0054751197 0.019645756 -0.01980237 -0.009674382 0.020826448 0.017858474
0.02093931 -0.01682126 0.021547722 -0.003329039 -0.016585652 0.018721791 0.006011142 -0.02130144
-0.015445087 0.00332902 0.014376427 -0.0096761305 -0.01685548 0.018448604 0.015306066 0.0068376763
-0.017292425 0.0047844965 -0.0048560044 -0.0047284192 0.015165479 0.0189047 -0.002109228 0.016289545
0.016020197 -0.011105519 -0.018029759 -0.0019996983 -0.0066890446 0.0155878225 0.0006938272 -0.0051855715
0.003391085 0.0027260242 0.016724901 0.001118083 -3.980045e-05 -0.012578548 -0.0028082328 -0.00070166314
0.009581532 0.008780928 -0.010783344 -0.01301234 -0.020345347 0.020717282 -0.0063503934 0.007927512
0.004247018 -0.016410384 -0.01519864 -0.011951342 0.01610953 -0.014249201 -0.005382471 0.014729658

fc2.bias f4 [64]
00000000: aff3 f6b9 d0dc 91bc 5edc 923b 7d0e a43c
00000010: d259 6fbc 19ad b4bb 950d fb3b 77ac a93c
00000020: 012f 8cbc a527 2f3c 40ae 8dbc 18a5 52bb
00000030: 148c cebb 0a31 a93b ba17 153c a743 263c
00000040: cee1 7e3c b657 673c a053 3739 bd9b a23c
00000050: 4dbc 6e3c afde 053c 2572 28bc efa0 9c3b
00000060: 26c7 1a3c 47c0 a23c c865 583c 39e8 49bb
00000070: 1954 a23b eb6e 9e3c 120c cd3b bc98 4d3b
00000080: 39a6 753c 1cb3 30bc 1eb5 c6b9 cfc9 1f3c
00000090: 1cc4 85bc cd8d 9cbc 7b0f e13b bbfe 893c
000000a0: a005 a03c 3055 d33b 789e 153c 5f61 a5bb
000000b0: bf3d 0fbb 5d35 383b eb12 763c 7d82 5d3c
000000c0: 7f61 a3bb 15c6 ad3c 4955 72bc 308d 0fbc
000000d0: f137 18bc 82a7 903c 399c c5bb be1f 153c
000000e0: ca64 883c 94c2 f7bb 7622 3ebc 9f28 923c
000000f0: 7e43 7a3c 6d93 8dbc 6f1a 60bc b6a2 7e3c
-0.00047102335 -0.017805487 0.004481836 0.02002644 -0.014608817 -0.005513799 0.007661531 0.02071212
-0.017112257 0.010690604 -0.017295003 -0.003214186 -0.0063033197 0.0051633166 0.009099895 0.0101479655
0.015556766 0.014120033 0.00017483393 0.019849652 0.014571262 0.008170768 -0.01028112 0.004779927
0.009446895 0.019867076 0.01320786 -0.0030808582 0.004953873 0.01934 0.0062575424 0.0031371554
0.014993244 -0.0107848905 -0.00037900446 0.009752705 -0.016328864 -0.019110585 0.0068683005 0.016845098
0.019533932 0.006449364 0.00913202 -0.005047008 -0.0021856872 0.002810798 0.015019159 0.01351988
-0.0049859877 0.021212617 -0.014790841 -0.008761689 -0.009290681 0.017657999 -0.006030586 0.009101806
0.016649622 -0.0075610373 -0.011604896 0.017841635 0.01527488 -0.017282212 -0.013678177 0.015541723
