domain_adaption/best_tst_net1.pth.tar (torch, 264565 bytes, 16 tensors)

gcn1.w f4 [10, 32]
00000000: 2d0d 5d3f 0035 803f da8e 193b 0157 953f
00000010: 3541 303f 6ca2 353f b79b 753e 62a3 bdbd
00000020: 96fc 563f 9373 fd3c fef5 753f 9213 4e3f
00000030: f76d 773f 58e0 41be 70a7 823f ae8d 0f3f
00000040: 4d0e d23c bfb6 323e 6e0a c53e 01a6 983f
00000050: b957 993d 1f0a 153f 8c04 44be 1512 923f
00000060: baf3 52be 48de 923f b83a 0cbe 1b12 843f
00000070: 48c8 48be e6e9 323f b68b 703f cf37 903f
00000080: ae8a 473f a0f1 843f 1159 81be c632 823f
00000090: 71ec 803f e2a7 143f b94a 383e e2aa 04be
000000a0: e7af 943f e95d a9bd 02ed 683f de37 523f
000000b0: 4536 6b3f 18eb e73d bf57 793f d8f6 3b3f
000000c0: a39e 1ebc b412 e23d c569 5c3e 34eb 943f
000000d0: 44d4 f2bc 75fe 2e3f 38d7 53bd 47b6 8e3f
000000e0: ba70 bebd 0f98 7a3f 7076 c6bd 5461 9b3f
000000f0: 3af4 49be a10a 803f 45f9 6e3f 6780 813f
00000100: 20aa 613f ad8d 913f 5672 77bd 1add 923f
00000110: ccf3 423f 4c84 663f 799d 623e 1e61 5fbd
00000120: 9ffb 7f3f 0ac9 263d cc9f 733f 8609 323f
00000130: 1f55 6c3f 37e2 80bd 6fae 893f ff72 153f
00000140: 6531 d7bd c780 2f3e ca43 e23e 6e34 8e3f
00000150: ed7f fabc 1da1 fe3e 68d2 acbd 2a9c 7a3f
00000160: 9736 38be 9435 8c3f 6cfd 95be 6730 933f
00000170: cd28 3bbe dc5e 393f fe40 5f3f fa73 953f
00000180: 44b8 5f3f e7ec 953f 468b a6bd af8f 893f
00000190: 1cb5 4e3f 5991 193f 6093 b73e 9714 a9bc
000001a0: 0102 523f 2849 adbd 2b99 5a3f 6987 4b3f
000001b0: 6308 313f ba6c 62bc 0870 8c3f e3ba 2d3f
000001c0: 616b ffbd 7c06 633e fd36 f13e 5934 533f
000001d0: 8681 20bd 47ba 023f 61d9 423b a42d 8d3f
000001e0: 22b7 04be c06c 6e3f d885 e2bd 54fb 663f
000001f0: 0e2c 07bd dad9 6a3f 6309 593f 49fa 6a3f
00000200: d816 523f c0b7 3f3f 5bb7 e33c f228 533f
00000210: da01 3f3f f8a3 2f3f e1ba ca3e 61c6 c73b
00000220: 0ad3 4a3f 0247 41be 4d23 683f 64ac 363f
00000230: 12ad 733f dc46 93be 60ec 7c3f 669b 343f
00000240: 3d1b d8bd 829c 813e 1dea 073f 1287 5f3f
00000250: 5d1c 77bd 8072 083f 8609 59bd 061f 4c3f
00000260: 310f e83d 728e 883f ba2c e1bd 892f 823f
00000270: cafc b9bd 6fb9 253f f8d7 453f f4ae 7b3f
00000280: e3ce 7c3f 7ba2 833f 32a4 78be f65b 863f
00000290: a2f1 463f 629e 663f d51a 813e a3a5 cebd
000002a0: 7c55 9a3f 1f5b 41be 5abc 703f ba2f 4e3f
000002b0: f171 7b3f 3659 f5bd d1a9 2e3f 65b0 033f
000002c0: 36f2 1ebe 115c 0e3e 043a dd3e f4ac 893f
000002d0: 27f1 7abe c663 063f f3b7 c9bd 511a 8f3f
000002e0: 6fd4 c3bc 7ba7 8f3f 8784 30be 6a08 873f
000002f0: 01c9 9a3d 8c52 503f 5b35 603f 9fa5 a33f
00000300: eb66 5d3f 598c 983f 4fff aebd 245a 943f
00000310: ff45 6d3f 6551 573f fe86 683e 2c59 c0bc
00000320: a00f 953f bdfc 76be 8f94 783f 2979 433f
00000330: 8ca9 373f f657 23be 8e4d 393f e76a d43e
00000340: 6b25 2ebe fc0e 323e 0aab d43e 3d08 743f
00000350: b1c5 64be c9bc 0e3f 0ca9 61be 2a3e 8a3f
00000360: a742 babd a9fd 6f3f 85a8 ebbd 8c15 963f
00000370: 46ca 863d fb2d 3c3f dd80 7b3f 8516 9c3f
00000380: 5930 303f 3112 883f cc0f b4bd adac 6d3f
00000390: b380 7d3f bf2e 6b3f 9fd7 3c3e bcbc efbd
000003a0: f15b 8a3f 133e 1fbe eb9c 5b3f c785 333f
000003b0: acbd 823f 6436 68be 21cb 563f db3f 073f
000003c0: b4da 1c3d e816 123e f214 bd3e 97fb 7b3f
000003d0: 9688 28be ae24 033f ffd1 1bba ced3 4e3f
000003e0: f156 abbd f2a5 903f e110 90bd acfb 963f
000003f0: 49a5 8f3e 2f39 803f 3daa 813f b39e 9a3f
0.8634823 1.0016174 0.0023431093 1.1667176 0.688495 0.7095096 0.23985182 -0.092596784
0.83979166 0.0309389 0.9607848 0.8049861 0.9665217 -0.18933237 1.0207348 0.5607556
0.025641585 0.17452525 0.3848452 1.192566 0.07487435 0.5821857 -0.1914236 1.1411768
-0.20600787 1.1474085 -0.13694274 1.0318025 -0.19607651 0.6988815 0.9396318 1.1267031
0.77945983 1.0386238 -0.25263265 1.0171745 1.0072156 0.5806867 0.17997254 -0.12955812
1.1616181 -0.08269865 0.90986645 0.82116497 0.91879684 0.113241374 0.97399515 0.7342353
-0.009681377 0.110387236 0.21524723 1.1634278 -0.029642232 0.6835702 -0.05171892 1.1149377
-0.09298845 0.97888273 -0.09690559 1.2139077 -0.19722071 1.0003244 0.93349105 1.011731
0.88150215 1.1371361 -0.060411774 1.1473725 0.76153255 0.9004562 0.22130384 -0.054535978
0.9999332 0.04071907 0.95165706 0.6954578 0.92317384 -0.06293147 1.0756358 0.58378595
-0.10507468 0.17138968 0.44192344 1.110975 -0.030578578 0.49732295 -0.08438569 0.9789454
-0.17989574 1.0953851 -0.29294908 1.1499146 -0.18277283 0.7241037 0.87208545 1.1676018
0.8739054 1.1712922 -0.08132033 1.0746974 0.807451 0.5998741 0.35854626 -0.0206397
0.8203431 -0.08461219 0.85389966 0.79503495 0.6915342 -0.013819868 1.0971689 0.6786329
-0.12471653 0.22170442 0.47112265 0.8250175 -0.039186023 0.51065487 0.0029731619 1.1029553
-0.12960485 0.9313469 -0.11060685 0.90227246 -0.033001 0.91738665 0.8477995 0.91788155
0.82066107 0.74889755 0.027797392 0.8248435 0.746122 0.6860957 0.39595702 0.0060966467
0.7922827 -0.18874744 0.90678865 0.713568 0.9518596 -0.28765 0.9879818 0.7054962
-0.1055207 0.25314718 0.53091604 0.87315476 -0.060329784 0.53299713 -0.052987598 0.7973484
0.113310225 1.0668471 -0.10994859 1.0170757 -0.09081419 0.64736074 0.7728267 0.9831383
0.98753184 1.028396 -0.24281386 1.0496814 0.7771245 0.90085423 0.25215784 -0.100901864
1.2057338 -0.18882416 0.940374 0.80541575 0.98220736 -0.11979906 0.6822787 0.5144103
-0.15522084 0.13902308 0.43208325 1.0755906 -0.24506055 0.5249599 -0.09849539 1.1179906
-0.023905007 1.1222986 -0.17238055 1.0549443 0.0755787 0.81375957 0.87581414 1.2784919
0.86485165 1.1917831 -0.0854479 1.1590009 0.9268493 0.84108573 0.22707745 -0.02348002
1.1645393 -0.2411985 0.9710168 0.7635675 0.71743083 -0.15951523 0.72383964 0.4148781
-0.17006461 0.17388529 0.41536742 0.9532507 -0.22341038 0.55756813 -0.22037143 1.0800221
-0.09094744 0.9374643 -0.11506752 1.1725326 0.06581549 0.7350766 0.98243505 1.2194372
0.6882377 1.0630552 -0.087920755 0.9284161 0.99024504 0.91868204 0.18441628 -0.1170592
1.0809308 -0.15551023 0.8578631 0.70126003 1.0214133 -0.22676998 0.839037 0.5283181
0.03829451 0.1426655 0.36930043 0.9843077 -0.16458353 0.51227844 -0.00059440726 0.8079194
-0.08366192 1.1300642 -0.070344694 1.1795554 0.2805579 1.0017451 1.0130078 1.2079681

gcn2.w f4 [32, 32]
00000000: 5a7d ce3e 042a 813d 029a 89be c109 9f3e
00000010: 9054 fbbd bb95 8dbc e474 0abe 6edc 303e
00000020: 57d9 6a3d 3c4b b93e dbe0 d63e e08c f5be
00000030: 6667 a4be 95fa fc3e 967d e6be 67a7 43be
00000040: b345 a13e 5c88 08bf 2010 83be 573b b63e
00000050: dfec b5be d118 b63e 7b99 11bf 0a21 4d3f
00000060: d7b7 06bf 8494 6cbd 6078 0ebf a0e0 853e
00000070: a06b 04bf dfd0 87be f9db 25bd cca3 0ebf
00000080: cdda c93e 2d5e 29be f77a f8be 4e57 5d3f
00000090: 4fa8 f4bd d340 c73d 4fad 09bf 56a9 e33e
000000a0: d13b c7be 428d b53e 98f4 033f 946c 37bf
000000b0: 66ce 01bf ba3a 873e 1a6c e4be 3c79 fc3d
000000c0: bc34 6b3c 88a1 f2be 943b 85be 5bfb fe3e
000000d0: f884 a9bc 664c d43c 0e0a 13bf 0176 173f
000000e0: 5efb 41bf 807e 64be bd90 c8be 9244 4a3e
000000f0: f4bb aabe facb 0fbf f600 c13e 8369 dbbe
00000100: b1aa c83c 5a28 1ebd 4b76 f6bd 7aff 7abd
00000110: 86b9 cc3d 0a39 85bd f41b bd3d fdd3 2dbe
00000120: 589b b43d 72b6 133d c539 a03d a6b2 b03c
00000130: 740e ba3d 7316 b03d 12b2 f93c 7c53 92bd
00000140: 1f9a 0f3d 2b42 61bd bf0a ae3c aa7e 833d
00000150: 802b c9bc bb7f dd3d a030 d53b bdf4 d8bc
00000160: b190 a93c 7f81 de3c 222d 9a3d fca6 05be
00000170: 26a3 b63d 159c 9dbc 5346 113d 457c c43c
00000180: 974c 233e c869 14be ed07 43be 38e6 1a3f
00000190: 0dd8 bebe 5bd3 853c fbcd 0bbf fb8a 243f
000001a0: a6e5 91be 87bd 603e 97bb ef3e f9e6 a3be
000001b0: b550 58bd 822a 283e 76ca 1abf deee d9be
000001c0: 57d2 833e 03e5 30be 6f9f 2d3d 760e c23e
000001d0: f0f1 febe c2c3 4f3f e90a 70bf bddf 1e3f
000001e0: 81c4 0abf ec46 23be 4c27 1ebf 4a7f 033f
000001f0: 0a9a 0abf 3e56 2dbf 74d2 303e bc06 f8be
00000200: c43c 9f3e 83a6 3dbe 5c03 47be 75fb 013f
00000210: 22fe 103d 0e40 c3bd 4371 bfbe c166 c33e
00000220: 45bd b4be ab08 e43e ecdf 953e b047 99be
00000230: 5c74 6abe 60ea 093d 3363 8ebe 9ff7 e83d
00000240: b4ac ce3e dfe1 82be bff6 7ebe 069c 543e
00000250: f9f2 2abf 98c2 3a3e 52b6 37bf a0fb 1d3f
00000260: a9b0 99be 5dbe 9cbe 35a4 6dbe 4251 eb3e
00000270: a43c cfbe 230d 2bbf 6076 b73e 0380 18bf
00000280: 1894 263e c841 8abe 139f 9e3d 662a 893e
00000290: 1c14 e4be ae46 c0be a343 03bf 1072 1f3f
000002a0: cba8 83bb ee74 433f 3a5c 343e 6d65 1cbf
000002b0: e016 3abe f5ac b2bc ebc2 f4be 8753 8fbe
000002c0: 9f15 d63e cce3 7ebe f327 003e 994e a23e
000002d0: 26a6 e8be a7a0 0d3f c4f3 a6be 7971 013f
000002e0: 7b6f e2be c9a7 263e 1c6c 88be 03a3 b13c
000002f0: 87c0 ccbe c3d4 27bf 0963 6f3e 7c00 f3be
00000300: 5fee 0d3e 105e 65bd 18b9 4cbe c23d a63e
00000310: 86d2 2abe c281 e8bd cfb4 acbd 7af0 983d
00000320: 0c56 5cbe 5a27 ebbb 2625 073e 6085 aabe
00000330: cd21 03be 4eba 3f3e 2019 dfbd 23d1 55be
00000340: 27f9 cf3d 6739 13be a955 72be 6244 463e
00000350: a66e c4bd 6725 313e f475 74be 08e5 a93d
00000360: 3dc5 8ebe ac2f d33c 2b3b d23b b3e9 053c
00000370: 9797 57be 8f4f 39be dd12 2b3d 10fa 41be
00000380: c80a dbbc 6cb5 0e3d e5bd 87bd 147e e93d
00000390: 6093 a5bd 81cf 5e3d dcc5 fe3d 9251 9a3d
000003a0: 7283 5f3d 522e e4bd 247a 613d 423d c83c
000003b0: 138c afbd 8dfd 8d3c 9574 dc3d 1acb a0bd
000003c0: 55b1 81bb b4d1 10bc 546d 3dbd 968a 1dbd
000003d0: 0e77 863d 2cfa 943d b675 d1bd b343 a13c
000003e0: 904d 3ebd c43f fd3d e2e2 cf3d c1fc 043c
000003f0: c32c f2bc 4648 f93c 382d 0e3e 3365 193d
0.4033001 0.06306842 -0.2687531 0.3106213 -0.122719884 -0.017283311 -0.13521153 0.17271587
0.057336178 0.36190212 0.41968426 -0.47959042 -0.32110137 0.4940993 -0.4501769 -0.19106828
0.3149849 -0.5333307 -0.2559824 0.35592148 -0.3553228 0.35565808 -0.5687482 0.8012854
-0.5262427 -0.057758823 -0.5565243 0.26147938 -0.5172672 -0.26526543 -0.040492985 -0.55718684
0.39424744 -0.16539831 -0.48531315 0.8646134 -0.11946165 0.09729161 -0.5378007 0.4446513
-0.38912824 0.35459334 0.51545095 -0.7165005 -0.50705564 0.26411992 -0.44613725 0.12327811
0.014355835 -0.47388864 -0.26022017 0.49801144 -0.020693287 0.025915336 -0.5743722 0.59164435
-0.7577418 -0.22313881 -0.39172927 0.1975272 -0.33346522 -0.5617062 0.37696046 -0.42853937
0.024495455 -0.0386127 -0.12034281 -0.061278798 0.09996323 -0.0650502 0.09233847 -0.16975398
0.08818692 0.036062665 0.07823519 0.021569561 0.09084788 0.08598032 0.030480418 -0.0714483
0.03505909 -0.054994743 0.021245359 0.06420644 -0.024556875 0.10815378 0.0065060407 -0.026483888
0.020698877 0.027161358 0.0752814 -0.1305198 0.08917837 -0.019239465 0.035467457 0.023985038
0.15947185 -0.14493477 -0.19045992 0.60507536 -0.3727421 0.016336134 -0.54611176 0.6427457
-0.2849552 0.21947299 0.46822807 -0.32012156 -0.052811343 0.16422465 -0.6046518 -0.42565054
0.25746414 -0.17274861 0.042388376 0.37901658 -0.4979396 0.8115808 -0.9376665 0.6206015
-0.5420609 -0.15945023 -0.6177871 0.513661 -0.54141295 -0.6770972 0.17267781 -0.48442638
0.31101048 -0.1852055 -0.19434875 0.5077432 0.03539861 -0.09533702 -0.373911 0.38164333
-0.3530065 0.44537863 0.292724 -0.29937506 -0.2289595 0.033670783 -0.27810058 0.11375355
0.40366137 -0.2556295 -0.24898814 0.20762643 -0.66776997 0.18238294 -0.71762574 0.61712074
-0.30017594 -0.30613986 -0.23207171 0.45960432 -0.40475953 -0.6681692 0.358325 -0.5957033
0.16267431 -0.27003312 0.07745185 0.2679016 -0.44546592 -0.37553924 -0.5127508 0.6228342
-0.0040179244 0.76350296 0.17613307 -0.61092263 -0.18172789 -0.021810988 -0.4780496 -0.27993414
0.4181337 -0.24891585 0.1251524 0.3170059 -0.4543926 0.5532326 -0.32607853 0.5056377
-0.44225678 0.16274942 -0.2664498 0.021684175 -0.39990637 -0.65559024 0.23377623 -0.47461307
0.13860463 -0.055997908 -0.19992483 0.32468992 -0.16681871 -0.11352874 -0.08432924 0.07467742
-0.215172 -0.007176322 0.13197765 -0.33304882 -0.12805863 0.18723413 -0.10893464 -0.2088056
0.10154944 -0.14377366 -0.2366549 0.19362023 -0.09591417 0.17299424 -0.2387312 0.08295637
-0.27884856 0.025779568 0.006415745 0.008173394 -0.2105392 -0.18096755 0.041766036 -0.18943048
-0.02673854 0.034840986 -0.066280164 0.114010006 -0.0808475 0.05439711 0.124400824 0.075350896
0.054568715 -0.111416474 0.055048123 0.024443273 -0.08571639 0.017332816 0.10764424 -0.078512385
-0.003957907 -0.00883906 -0.04624684 -0.038462244 0.06565677 0.07274279 -0.1022753 0.019685602
-0.046460688 0.12365678 0.10150696 0.008116902 -0.02956236 0.03042997 0.13884437 0.037450027

gcn3.w f4 [14, 32]
00000000: 80d7 10bb 3db2 8d3f 1f75 863f 9143 7a3f
00000010: f6a4 a93f 2c2b 823f 3823 953e e849 033f
00000020: e8cf 993f a749 543b ec09 4e3e 076f 1bbe
00000030: 8a4c 863f 1483 b33f 3b5b 8f3f 12fa 923f
00000040: 5f0c d93a 18f7 433e 42e3 803f 4725 db3e
00000050: 1387 00bb 129d 1f3f 2857 a23f 13c6 5abc
00000060: 6877 9a3f fc86 4b3f d1cb c53e 0c42 9c3f
00000070: 48a3 163b af3a 993f 911c 91bb b62b aa3f
00000080: c690 eaba d091 a03f 9e43 9d3f e96a 513f
00000090: f94c 7f3f dd52 743f 7198 5a3e 1ff7 583f
000000a0: 56af 943f ce00 303b 6aa7 623e 2719 babd
000000b0: bfbd 7f3f f41a 963f 4e59 893f b4b0 a23f
000000c0: 38a7 a53a 71b7 ba3d a239 8b3f 53ed 813e
000000d0: 8cc7 deba 7063 403f 8133 643f 252e f6bb
000000e0: 5166 713f 5e62 853f 193c 713e d4dc 913f
000000f0: d565 1339 d7c0 573f f303 52bb e4ca 773f
00000100: a2c0 55bc 4490 973f 80ec 883f 3b0c 4e3f
00000110: d770 823f de70 513f 49dc 653e 85b2 223f
00000120: ff40 883f 29e0 81bd 26b4 443e f2a7 0c3e
00000130: 5d35 803f fd2e 853f 9614 823f f469 7b3f
00000140: a019 b9bc 0d10 4c3e 1638 973f ad09 883e
00000150: 4013 e13a 4590 1c3f 0de1 8b3f 70ee 8cbd
00000160: 2a83 723f a7cd 5a3f 81a1 9b3e 876a 843f
00000170: 7c4d a6bc b225 633f e038 78bb 8b6f 923f
00000180: eb44 083b 4b87 7b3f 0b13 633f d4d0 3e3f
00000190: feab 8e3f 1a81 7c3f 1719 253e 1911 573f
000001a0: 1c0b 903f 6048 cfbc 1fb0 633e 7342 623c
000001b0: 5fbe 813f 5ca6 a43f f856 803f c863 903f
000001c0: 4939 a9bb 4abc 593d ab71 723f a311 463e
000001d0: a902 86bb fbd9 ed3e 0683 803f bdf8 aabd
000001e0: 68fe 7f3f a180 4f3f 2840 703e 5cdf 983f
000001f0: 4b2f f839 bd82 863f d313 59bb 7747 963f
00000200: 0682 9e3a 4c62 a53f 6398 8a3f 50ad 203f
00000210: 4c34 983f 1d06 373f 560e 8b3e d9eb 313f
00000220: aceb 8b3f 07d2 81bc 2eb7 813e 64c1 533e
00000230: e50e 813f 5154 8f3f 3210 7d3f d7c6 a23f
00000240: 7180 54bb 4a68 373e 186c 8e3f 0f79 733e
00000250: a3e4 cdba 217a 363f 9c4c 863f fff0 e93c
00000260: 2234 813f 9fe4 323f cca3 b53e e52a 8b3f
00000270: ff57 a73a 1807 883f b65d 0fbb 12a4 713f
00000280: 87b0 87b9 12e2 9a3f 91ae 6e3f 8277 063f
00000290: 5226 533f 4387 2e3f 595e 423e de52 343f
000002a0: 8b5c 6e3f 188d 233b dad6 863e 4a3a 213c
000002b0: 0a77 733f 4953 813f 8046 593f 9779 933f
000002c0: 1e8a 503a 1feb 583d fc39 653f 978a 053e
000002d0: 255d 843a 9b1c 103f c3d4 723f 1896 d7bb
000002e0: 96ec 443f aa52 453f 637f 503e edf6 7b3f
000002f0: 3325 b3ba 3649 473f cf48 08ba abc4 683f
00000300: e9a7 feba 53c1 943f 98d6 883f 57fb 823f
00000310: c731 b03f 606a 6b3f 454f 733e b268 1e3f
00000320: fe6a ac3f ddb4 3bbc 5a23 553e e7ea af3d
00000330: d1aa 873f 4710 b73f 8e7d 7d3f 318e 973f
00000340: ca82 3abb ce15 663e e8bb 983f 7df9 e23e
00000350: 05ac 353a 52bd 2c3f b4a8 9a3f ea8a 6fbd
00000360: fc7b 9b3f 3953 4a3f 2bd6 eb3e 7500 8d3f
00000370: 67db 51ba 0ab1 a03f c0e6 5bbc f424 8c3f
00000380: 44d6 703a 24c2 a03f c700 983f 45eb 3b3f
00000390: eef0 7a3f fe18 1e3f 5873 a73e a93a db3e
000003a0: e059 943f d620 353b fdb8 2c3e 1ad6 33be
000003b0: 88cb 6f3f ea18 9c3f e0a6 433f b3e6 a73f
000003c0: 70c2 eb39 e264 5b3e 5646 443f cd19 673e
000003d0: 0bc3 e1ba 178a 0c3f 79a8 9d3f 1b6a 0cb5
000003e0: 49ec 353f 21ed 653f 5494 ad3e 27ef 873f
000003f0: 1a93 2337 a851 763f fe1f 3e3c 8f3c 9c3f
-0.0022101104 1.1070019 1.0504493 0.9775935 1.3253467 1.0169425 0.29128432 0.51284647
1.2016573 0.0032392533 0.20120972 -0.15179072 1.0492108 1.4024377 1.1199716 1.1482565
0.0016559473 0.19137228 1.0069354 0.42801878 -0.001961176 0.62349045 1.2682848 -0.013352889
1.206769 0.79502845 0.38632062 1.2207656 0.0022985507 1.1971034 -0.004428454 1.329459
-0.0017895929 1.2544498 1.228626 0.81803757 0.99726826 0.9543894 0.21347214 0.84752077
1.1616008 0.0026855948 0.22134176 -0.09086829 0.99898905 1.1726975 1.0730379 1.2710176
0.0012638336 0.0911702 1.0876963 0.25376377 -0.0016996725 0.7515173 0.8914109 -0.007512825
0.9429675 1.0420644 0.23558082 1.1395516 0.00014056948 0.84278625 -0.003204581 0.9679396
-0.0130464155 1.1840901 1.0697174 0.8048741 1.0190686 0.81812847 0.22447313 0.6355365
1.0644835 -0.06341583 0.19209346 0.13735941 1.0016285 1.0404965 1.0162532 0.98208547
-0.022595227 0.19927998 1.1813991 0.26569882 0.0017171875 0.6115764 1.0928055 -0.06881416
0.9473139 0.8547005 0.30396655 1.034501 -0.02030062 0.88729393 -0.0037875697 1.144029
0.0020793031 0.98253316 0.8870093 0.74537396 1.1146238 0.98634493 0.16122852 0.84010464
1.125339 -0.025303066 0.22235154 0.013809788 1.0136222 1.2863269 1.0026541 1.1280451
-0.0051642996 0.053158082 0.94704694 0.19342665 -0.0040896726 0.46455368 1.0039985 -0.08348224
0.9999757 0.8105565 0.23461974 1.1943164 0.00047337482 1.0508648 -0.0033123388 1.1740559
0.0012093193 1.2920623 1.0827755 0.62764454 1.189096 0.71493703 0.27159375 0.695005
1.0931296 -0.01584722 0.25335068 0.20679241 1.008267 1.1197606 0.9885284 1.2716931
-0.003242519 0.17910877 1.1126738 0.23776649 -0.0015708398 0.71280104 1.0492129 0.028557299
1.0094035 0.698801 0.3547653 1.0872465 0.0012767314 1.0627165 -0.0021875924 0.94390976
-0.0002588073 1.2100241 0.9323512 0.52526104 0.8248035 0.68175143 0.18981303 0.70438945
0.9310996 0.0024955925 0.26335794 0.009840557 0.95103514 1.0103542 0.848732 1.1521481
0.00079551514 0.052958604 0.895416 0.13041149 0.001009856 0.5629365 0.948559 -0.006579172
0.769235 0.7707926 0.20361094 0.98423654 -0.0013667702 0.77846086 -0.00051988376 0.9092509
-0.0019428703 1.1621498 1.0690489 1.0232953 1.3765191 0.9195919 0.23760708 0.618785
1.3470151 -0.011456695 0.20814267 0.08589726 1.0599004 1.4301842 0.99019706 1.1840268
-0.0028459304 0.22469255 1.1932344 0.4433097 0.0006930235 0.6747638 1.2082734 -0.05848209
1.2147212 0.7903324 0.46061835 1.1015764 -0.0008005411 1.2554028 -0.013421714 1.0948777
0.00091872015 1.2559247 1.1875237 0.7340587 0.9802388 0.61756885 0.32705188 0.42818192
1.1589928 0.002763798 0.16867442 -0.17562142 0.9366994 1.2195103 0.76426506 1.3117279
0.0004496756 0.21425202 0.76669824 0.22568436 -0.0017224265 0.5489821 1.2317039 -5.230847e-07
0.7106367 0.89814955 0.33902228 1.0619859 9.749807e-06 0.9621835 0.011604307 1.2205981

gcn4.w f4 [32, 32]
00000000: e01b d33a c832 003a f0e7 84b9 4e79 d838
00000010: 69c5 643a 4508 4e38 fbcf a9b8 981e f339
00000020: 32b1 4f3a 52f0 3db9 6387 97b8 ab64 dbba
00000030: a1ec e03a 0c83 073a 84b6 cbb9 afae 8239
00000040: 6c55 22bb a564 6ab9 7e2f 8c3a a2ea 03b9
00000050: af1a 1f36 df15 293a 9f09 3439 5c2c 373a
00000060: 6aa6 ff39 f1da e438 84b8 5db9 9cf7 e3b8
00000070: 1d36 bf39 1036 c0b8 100a bc39 7932 58ba
00000080: 8ad6 f5be d7a6 ee3e 7976 d73d 1001 87be
00000090: 85bc 96be 0209 1fbf 1905 083f 10f5 3d3f
000000a0: 0674 88be 7b79 91bd 3bdf 9fbc 9fa7 13bf
000000b0: b068 ad3c 08eb 653f e5f6 d7be 2992 1dbf
000000c0: 4b8d bb3d 39fe 383e ea03 0e3f b0e9 e43e
000000d0: 2714 3ebf 48b6 ce3e 5671 3b3e fdf6 323f
000000e0: 1efd 44bf 4602 2dbe ea79 13bf a864 6cbe
000000f0: 69ab 8a3e 76b2 273f 6c43 d6be 96c2 8d3e
00000100: 341f 04bf 1160 e53d 5a44 b63d ba42 383d
00000110: 2b79 3ebe 9737 cebd c9a6 023f de9c f33e
00000120: 4188 56be e28f fabe fa7c 503e 9952 13bf
00000130: da22 bebd ffb5 113f 417b 0dbf 5b64 11bf
00000140: b803 543e f095 de3e 61a8 043f 348a 833e
00000150: b320 45bf 405a 703d edb2 a83e d260 d73e
00000160: d239 2bbf a961 7dbc de3f fabe de88 5bbd
00000170: cd5f 203d 5725 423f 7f60 0abf 2481 0d3f
00000180: c1cc 0bbf ff31 003f c9b2 4d3e 4866 5a3e
00000190: 6b09 aebe a66d c4be 2646 7c3e be10 133f
000001a0: 74b0 d4be 8385 f0be 6416 dd3e 5f39 90be
000001b0: 5b03 883e ffea a83e 54cb d0be fa53 c2be
000001c0: bfd0 35bc d85e cc3e 0592 e93d fd9f ed3e
000001d0: c03c 07bf df72 b33e 4b9d f6bc 35fe d13e
000001e0: 8170 f8be 2b71 0e3e 8163 16bf e88f bebe
000001f0: 44f4 c1bd 8e3f b33e 98a5 14bf b699 493e
00000200: e17f fdbe 1847 3a3e 5b39 663e 52be fdbb
00000210: 112a 47bd dd13 0fbf 508f 863f 886e 8a3e
00000220: e5bf ebbe bee2 b9be 2f23 013e 6f78 4abf
00000230: ba50 dc3d 9436 313f 771d 30bf 2966 1bbf
00000240: e816 cb3d 4598 cf3e e5a1 d93e a189 223f
00000250: 49aa 33bf 1718 cf3d a946 9b3e dacf 183f
00000260: fffd 7cbf 0fc6 293f c6cf f9be 07cc 6abe
00000270: 6214 36be f90b 483f 0eb6 44bf 2ccc 913e
00000280: c2fb 0cbf f101 c63e 2643 ea3e e38c bfbe
00000290: 0594 d2be dd78 1abf f6d1 8c3e 0be3 b33e
000002a0: a790 63be 0c81 d9be 765d 65bd 48c9 03bf
000002b0: c581 2f3e d3d8 1c3f 05b7 94be 3136 43be
000002c0: 383f fd3e 830f 763e 6064 083f 4f8a df3e
000002d0: 6e83 c1be 68b9 463e 156a 923d 8386 953e
000002e0: 1394 0cbf a5d9 a83e 29dc a1be 96b7 2fbe
000002f0: c1be 263e eb17 083f 4f0f 54be b21d 023f
00000300: d1df 05be 8c50 4c3e 86d2 86be aa0e 63bb
00000310: a164 8c3d abf4 91bd 4475 0a3e 6981 d53d
00000320: 8f95 18be 2ef0 b93c e9a3 473e a456 6fbe
00000330: d930 003e 6d69 073e 6612 38be 02c5 8cbe
00000340: 9ec0 b8bd f8cc f23d f099 6d3e e005 55bd
00000350: ba89 72be 13f7 563e 5cbc a43d c73a 433e
00000360: f287 62be ba74 d0bd 80b6 0cbe 64f5 c2bd
00000370: 50ba 4c3d 0f53 783e aaa8 69be 6000 093d
00000380: aa32 00bf 7637 d13e f47d 513e e382 90bc
00000390: d36e eebc 48e4 9dbe 2308 313e 4acb b83e
000003a0: be2c d3be 580f 4dbe 4770 803e d820 24be
000003b0: d3a2 a53c d273 0c3f 7c68 11bf 01d6 b8bd
000003c0: 2b89 4e3e 9af1 ac3d 729b b83e 2048 8a3e
000003d0: f2e0 ffbe 74f4 c23e ddb0 523d 1f3c 303e
000003e0: b3d2 34bf b5c1 a13e 0781 c6bd 822e 34be
000003f0: 4bc0 953e e388 403f a3f8 11bf c896 943e
0.001610633 0.00048903795 -0.0002534981 0.000103222774 0.0008726926 4.912193e-05 -8.097287e-05 0.00046371366
0.00079228275 -0.00018113971 -7.225459e-05 -0.0016738375 0.0017160365 0.0005169369 -0.00038855162 0.00024925682
-0.0024770154 -0.00022353472 0.0010695306 -0.00012580541 2.3708378e-06 0.00064500974 0.00017169722 0.0006987506
0.00048761378 0.00010912668 -0.0002114494 -0.00010870324 0.00036470676 -9.165343e-05 0.0003586565 -0.0008247267
-0.48015243 0.46611664 0.10520644 -0.26367998 -0.29440704 -0.6212312 0.5313278 0.7420206
-0.2665102 -0.07103249 -0.019515624 -0.57677644 0.021168083 0.89811754 -0.42180553 -0.6155115
0.09157809 0.18065728 0.5547472 0.4470954 -0.742495 0.40373445 0.18304953 0.69908124
-0.76948726 -0.16895398 -0.576079 -0.23085272 0.270839 0.65506685 -0.41848314 0.2768752
-0.5161011 0.11199964 0.08899756 0.04498551 -0.1860091 -0.10069197 0.51035744 0.47580618
-0.20950414 -0.489379 0.20360175 -0.5754791 -0.09283991 0.5691833 -0.55266196 -0.56793755
0.20704544 0.43473768 0.51819426 0.25691378 -0.7700302 0.05867982 0.3294901 0.42066056
-0.668851 -0.0154651785 -0.48876852 -0.053597324 0.039153863 0.75838226 -0.5405349 0.5527518
-0.54609305 0.5007629 0.20087732 0.2132808 -0.3399156 -0.38364905 0.24636135 0.5744742
-0.41540873 -0.4697686 0.43181145 -0.2816877 0.2656506 0.32991788 -0.40780127 -0.37954694
-0.011097132 0.3991611 0.11404804 0.46411124 -0.5282707 0.35048577 -0.0301043 0.41014257
-0.48523334 0.13910358 -0.5874558 -0.37219167 -0.09470418 0.35009426 -0.58065176 0.19687542
-0.49511626 0.18191183 0.22482817 -0.007743635 -0.048624102 -0.55889684 1.0512486 0.27037454
-0.4604484 -0.36305803 0.12611078 -0.7909002 0.10757585 0.69223905 -0.6879496 -0.6070276
0.099164784 0.4054586 0.42506328 0.63491255 -0.7018171 0.10112017 0.30327347 0.59692156
-0.9882507 0.6631784 -0.4879133 -0.22929393 -0.17781213 0.7814327 -0.76840293 0.28476083
-0.5507165 0.38673356 0.45754355 -0.37412176 -0.41128555 -0.6034067 0.27503937 0.35134158
-0.22223149 -0.42481267 -0.055997334 -0.51479006 0.17139347 0.6126835 -0.29045883 -0.19063641
0.49462295 0.24029355 0.5327816 0.4366021 -0.37795585 0.19406664 0.0714914 0.29204187
-0.54913443 0.3297855 -0.3161328 -0.17159876 0.16283704 0.53161496 -0.20708965 0.5082656
-0.1307366 0.19952601 -0.26332492 -0.0034646192 0.06855131 -0.07126745 0.13521296 0.10425074
-0.14900802 0.022697534 0.1949612 -0.23372895 0.12518634 0.1322381 -0.17975768 -0.27494055
-0.09021114 0.11855501 0.23203254 -0.052007556 -0.23685351 0.20992689 0.08043739 0.1906539
-0.22122172 -0.10178514 -0.13741493 -0.09519461 0.04998237 0.24250434 -0.22818246 0.033447623
-0.5007731 0.40862626 0.20458204 -0.017640537 -0.02910558 -0.30838227 0.1728826 0.36092597
-0.41245073 -0.20025384 0.2508566 -0.16028154 0.020219242 0.5486423 -0.56800056 -0.09025193
0.20169513 0.08444519 0.36056095 0.27008152 -0.49976307 0.38077128 0.0514382 0.17210434
-0.70634 0.315931 -0.09692579 -0.17595866 0.2924827 0.7520887 -0.57020015 0.29021287

fc1.weight f4 [32, 2]
00000000: bcae 10bf 05b1 92be 6f68 91ba 3537 e939
00000010: 61e5 cc3e 09e8 103f 1609 dc3d fa38 373f
00000020: 3287 8c3d 4a95 04bf 4691 cb3c 724e 893d
00000030: 1330 dd3e 0af8 963e 5056 f6b9 15c1 883a
00000040: a26b 29be 2451 0bbe 2182 1c3f 9c22 aa3e
00000050: ba17 383e 9139 f3be f245 2a3c 259a 643e
00000060: 3d6b 22b9 f9df 53ba ab81 21be ffb4 20be
00000070: fd77 6339 0ff5 ba39 da6a 83bd 9f29 a53e
00000080: 3bcd f03e be45 b03e 61cf 6abc 4abf 2a3e
00000090: 8cf0 073e 3327 26bf 9936 f73d f21a a23e
000000a0: 0a6e 3d3c 4085 f3bb 716e ec3c 5a5b 603e
000000b0: e146 cd3e a0e3 033f ac49 5abd b268 78bd
000000c0: 5597 db3e 3481 edbe f3f8 f83e 70fa 37be
000000d0: 8f43 8c3d 1536 333f b2ef 813d 4315 53be
000000e0: 41fd 933b 5092 d7bb 9c7e 233d 3391 133e
000000f0: fccb bcbe f2a0 22bd cb2e 23be ace1 133f
-0.56516623 -0.2865068 -0.0011093746 0.00044482356 0.40018752 0.5660406 0.107439205 0.71571314
0.06861724 -0.517903 0.024849545 0.067044154 0.4320074 0.29486114 -0.00046985084 0.001043352
-0.16544965 -0.13605171 0.6113606 0.3322953 0.17977801 -0.47504857 0.010392653 0.22324426
-0.00015489473 -0.0008082386 -0.1577212 -0.15694045 0.00021693106 0.00035659267 -0.06416865 0.32258317
0.47031578 0.3442821 -0.01433167 0.16674533 0.13275355 -0.64903563 0.120709606 0.31661183
0.01156188 -0.007431656 0.028861256 0.21909848 0.4009314 0.51519203 -0.053292915 -0.06064672
0.42888895 -0.46387637 0.48627433 -0.17966628 0.06848823 0.700044 0.063445464 -0.2061358
0.004516274 -0.006578721 0.039915666 0.14410858 -0.36874378 -0.03970427 -0.15935819 0.5776622

fc1.bias f4 [32]
00000000: 6b6e cc3e ad70 05bc b1e6 06be ec53 89bd
00000010: 67a8 ec3e f2fb 333d ec5a 003f 7313 27bd
00000020: 52a2 203e 1226 5dbc def8 df3e 7e0e f03e
00000030: ff11 b2bb 443c 923d d7ff fabb b52a d03e
00000040: 2b5e 493e da14 263e d908 fa3e b6ed c13d
00000050: 567d f5bc 0fcf 803d 3fac 19bc ecc3 f63e
00000060: 7387 bd3e 7bb1 403e 9164 f6bc 4dc1 813e
00000070: 4de4 3cbd 2c0f f53e e402 8bbd a765 b93d
0.39927992 -0.00814454 -0.1317394 -0.0670546 0.4622223 0.043941446 0.50138736 -0.040790033
0.1568692 -0.013497846 0.43744558 0.46886057 -0.005434274 0.07140401 -0.007659893 0.40657583
0.19664828 0.16218892 0.48834875 0.09469168 -0.029966991 0.06289493 -0.009379446 0.48196352
0.37017402 0.18817703 -0.03007725 0.2534279 -0.046116162 0.47863138 -0.06787661 0.09052592

output_1.weight f4 [24, 1056]
00000000: b431 b7bc fa7e c53c ba0e adbc 68c3 7d3c
00000010: 6829 d6bb 2179 e2bc 0462 9e3c 8403 0bbc
00000020: 10f0 ac3c 180f ec3b d0aa bb3b 440e 863c
00000030: 5e70 3abc 60c0 1b3b 90d7 d8ba 3005 043c
00000040: 80b7 ea3a 8009 b33b d07a c5bb 574b 82bc
00000050: 309f 333b 0bbd d5bc ec6c d2bc c61b 66bc
00000060: 3b45 83bc e218 9e3c 0331 c7bc 6858 963b
00000070: 2ca8 6abc 7822 ef3b 60ee 903a bcbf 023c
00000080: f4bd 85bc 3c7c 463c 5898 3b3c e07d 5b3c
00000090: b0f2 91ba 003c ba3b 0003 ba3a 7a92 2abc
000000a0: 5479 a7bc da98 43bc f04a 193c 4011 ac3c
000000b0: e0df a03b d0cd 503c 345b ad3c 20b9 943c
000000c0: 40e7 603b a0b1 c9bb 886a e53b 26c2 8fbc
000000d0: 8012 763a 7c94 c9bc 14af 87bc e096 213b
000000e0: 70e0 b73b 8005 193a c04a aabc fc22 11bc
000000f0: d2c1 8f3c a077 69bb 4448 fabb ea1f c73c
00000100: 8cea 583c fc87 963c 305d 73bc 1ac0 b4bc
00000110: ded8 29bc 0045 183a ecec 5ebc 6886 2fbc
00000120: 64d8 9d3c b272 c9bc aef3 e53c f40c cbbb
00000130: 1845 523c aee0 14bc 8813 5cbb e04c 37bc
00000140: 5c5e e93c 1e25 38bc 38c2 173c 40f5 4dbb
00000150: 0414 173c 409a c23c c0e0 12ba 644d cbbc
00000160: 524f edbc 6657 a63c 6fe3 92bc d1d9 c5bc
00000170: c65c dfbc 7c22 d23c 3442 2bbc 306f a93b
00000180: 2c4e 453c 70f5 443c 3866 083c a468 fa3c
00000190: 1eb4 f43c 9818 15bc d865 a8bb c474 a7bc
000001a0: b46a 383c 3cb6 923c 4dec f8bc 7048 4e3b
000001b0: 40db bf3b 24ab a5bc 28e6 e43b 1012 caba
000001c0: 720b f6bc c84e 1cbc c221 803c ebb3 d8bc
000001d0: 1441 d83c b018 e6ba da1e 88bc 34be 0e3c
000001e0: 7e4e c23c bbcf 85bc 20ab 93bb ea6d 9a3c
000001f0: 164f 903c 9310 adbc 225c 24bc de7f b93c
00000200: f64c e8bc ac2a 36bc 1afd abbc ba4a e33c
00000210: 98c8 d83b b84c e2bc f082 2cbc fe6d 9a3c
00000220: c1c8 c6bc d451 fabc 70c6 8fbc 7e3b 32bc
00000230: 98a0 a5bc 6ed6 94bc f252 4abc f2c7 d13c
00000240: 90d8 973b 1c2a 353c 00f9 b63c b8cf 4a3c
00000250: 51f8 8ebc a0fc ca3c f646 98bc 28cd 1d3c
00000260: b003 673b aeea dc3c 846d 9fbc 9a4a b33c
00000270: 7dc7 dabc e041 5d3c 744c 473c 8454 f6bb
00000280: 2246 c13c 28b3 08bb 00f8 4139 2625 8b3c
00000290: 80df ba3c 4e5a b83c 643f b0bc 8215 a73c
000002a0: c82d 1abc e867 943b 20e6 4d3c 62f0 bc3c
000002b0: b007 f63c 76bc 873c aa39 883c 4e3f eabc
000002c0: 60fc fe3b a8b8 7abb 6ccf 00bc a042 ddbc
000002d0: 24c4 d0bc bc89 9b3c a01a f6ba 0ec5 bebc
000002e0: 907d 893c c007 56ba d4d4 ae3c 0562 e5bc
000002f0: f0a5 7abb 8023 c43b c089 edb9 505e ba3c
00000300: c03e 8e3a d8f8 093c 00a5 ebb8 103d d73b
00000310: 2990 e8bc 5438 9fbb 28cc c93c 1fd3 9bbc
00000320: 2cee 913c 00b0 353a 8896 9fbb a270 72bc
00000330: 2dfc f5bc 5cfb 733c e0cd 9c3a 489c dbbb
00000340: 2142 f6bc bafe 36bc c49a 2d3c fd2f a7bc
00000350: 96cc 82bc a550 fabc 7ca0 adbb 3aac f23c
00000360: 9a48 823c 300c bfba 3854 56bb 1a70 4cbc
00000370: 2a16 9cbc 98a4 cbbb 9c35 fabb 803b 143c
00000380: 0086 dc3a f5cc 8dbc 2883 803b 8085 463b
00000390: 4647 e7bc 9651 ea3c c0d9 9a3a 407e 8cbc
000003a0: 9e55 6cbc ec6e af3c 60d6 593b e01f f73b
000003b0: 60a0 88bc 8403 843c bf53 d6bc d4b4 f9bb
000003c0: 5015 9c3b 50ea 11bb 90f2 b6ba 2c47 b9bc
000003d0: d163 9abc 7e28 f43c e8ad c33b d0a8 b13b
000003e0: 006f 8dbb 78a5 893c 3a8a efbc 02a7 a43c
000003f0: 5a35 b33c d84d da3c e2a6 b9bc 201b dfbb
-0.022362567 0.024108399 -0.021125186 0.015488483 -0.0065356977 -0.02764565 0.019333847 -0.008484725
0.021110564 0.0072039478 0.0057271495 0.016364224 -0.0113793295 0.0023765787 -0.0016543735 0.008057877
0.001790747 0.005463779 -0.0060266033 -0.015905065 0.0027408116 -0.02609112 -0.025686704 -0.014044708
-0.016024223 0.019298974 -0.024315363 0.0045881756 -0.014322322 0.00729781 0.0011057369 0.007980283
-0.016325928 0.012114581 0.011449896 0.01339671 -0.0011134949 0.005683422 0.0014191568 -0.010410899
-0.020443596 -0.011938298 0.009356245 0.02100432 0.0049095005 0.012744382 0.021161653 0.01815468
0.0034317523 -0.0061552078 0.007001225 -0.017548632 0.0009386912 -0.024606936 -0.016562976 0.002465658
0.005611472 0.00058373064 -0.020787597 -0.008858439 0.017548475 -0.003562428 -0.0076380093 0.02430721
0.013239514 0.01837539 -0.014853761 -0.022064257 -0.010366647 0.00058086216 -0.013606291 -0.010713197
0.019268222 -0.024590824 0.028070297 -0.0061966125 0.012833856 -0.009086771 -0.0033580977 -0.011187762
0.028487377 -0.011239318 0.009262614 -0.0031426698 0.009221081 0.023755193 -0.00056029484 -0.024817176
-0.028968487 0.020305347 -0.017930714 -0.024151715 -0.027265918 0.025651209 -0.010452796 0.0051707253
0.012042563 0.0120214075 0.008325152 0.030567475 0.029871043 -0.009100102 -0.005139094 -0.02044142
0.011255909 0.017909162 -0.030386114 0.0031476282 0.005854994 -0.020223208 0.0069854446 -0.001541676
-0.030034754 -0.009540267 0.015641097 -0.02645298 0.02639822 -0.0017554965 -0.016616274 0.00871234
0.023719069 -0.016334405 -0.0045064837 0.01885124 0.017615836 -0.021126067 -0.010031732 0.02264398
-0.02835701 -0.011118572 -0.020994712 0.027745593 0.0066157095 -0.027624473 -0.010529265 0.018851276
-0.024265649 -0.030556597 -0.017550677 -0.010878442 -0.020218179 -0.018168654 -0.012348877 0.025608037
0.0046339706 0.011057403 0.02233553 0.012378626 -0.01745239 0.024778664 -0.018588524 0.009631433
0.003525 0.026967373 -0.0194614 0.021886159 -0.026706452 0.013504475 0.012164224 -0.0075173993
0.023593012 -0.0020858739 0.00018498302 0.016985487 0.022811651 0.022503998 -0.021514602 0.020395998
-0.009410329 0.004528988 0.012567073 0.023063842 0.030032963 0.016569357 0.016629059 -0.02859464
0.0077815503 -0.0038257036 -0.007861953 -0.027009308 -0.025484152 0.018986575 -0.0018776245 -0.023287322
0.016783506 -0.0008164607 0.021341719 -0.02800084 -0.003824588 0.0059856772 -0.00045306794 0.02275005
0.0010852441 0.008421145 -0.00011236407 0.0065685585 -0.028389053 -0.0048590098 0.024633482 -0.019021569
0.017813765 0.0006930828 -0.0048702396 -0.014797362 -0.030027473 0.014891472 0.0011963211 -0.00670198
-0.03006083 -0.01116913 0.010595981 -0.020408625 -0.015966695 -0.030556032 -0.0052986722 0.02962314
0.01590376 -0.0014575776 -0.0032704007 -0.012477899 -0.019053537 -0.0062146895 -0.0076357853 0.009047389
0.0016824603 -0.017309645 0.003921885 0.0030291975 -0.028232228 0.028603356 0.0011814162 -0.017150044
-0.01442471 0.021415196 0.003323935 0.0075416416 -0.016678035 0.016114958 -0.02616298 -0.0076204333
0.004763283 -0.0022264905 -0.0013957787 -0.022616945 -0.018846424 0.029804464 0.005971659 0.0054217353
-0.0043162107 0.016802534 -0.029240716 0.020099167 0.021876026 0.026648447 -0.022662584 -0.0068086535

output_1.bias f4 [24]
00000000: 9827 e73b b3dc 8abc c409 87bc 5f18 95bc
00000010: 3cfe 8ebb c0e1 263c dc4e 84bc d001 a63b
00000020: d001 e13c 600e a33a a073 31ba a4b1 723c
00000030: 402c e2b9 aaaa 8d3c aa93 c23c d006 2e3b
00000040: 6096 dfbc 5e81 0abc 783f e0bb 1e58 8e3c
00000050: 28d1 803b 5cc6 70bc cef3 f43c 4414 d5bb
0.0070542805 -0.01695094 -0.016484149 -0.018200098 -0.004363803 0.010185659 -0.016150884 0.005066134
0.027466685 0.0012440197 -0.00067692436 0.014812861 -0.00043139048 0.017293293 0.023752052 0.0026554354
-0.027293384 -0.008453695 -0.0068435036 0.017376002 0.0039311834 -0.01469573 0.029901411 -0.00650266

fc2.weight f4 [32, 1056]
00000000: 1a43 bfbc b50a adbc 5bef 973c 16ae 683c
00000010: b7de 863c fdca fcbc ac68 553c 9963 d3b9
00000020: f7a1 02bc bd23 b039 0135 04bb 0b8f debb
00000030: f414 3a3c 8c18 42bc 91d2 473c 44e2 c33b
00000040: 9f53 97bc 6fb4 003c 2264 b33b cc02 bcbc
00000050: 39dc 7bbc a619 f0bc edb2 493d 7f01 9cbb
00000060: 4598 15bb 19b3 2e3c 4d36 e93c adc9 eebb
00000070: 5d22 c6bc bc29 9fba 616b a6ba 5a71 8abc
00000080: c5db 9fbc 8cb9 893b f396 473c d2e1 b23b
00000090: 45cb f63c e280 fcbc c6ce 673b d82b 5e38
000000a0: b1a8 21bb 20c3 c7ba e9de c538 d0b4 36bb
000000b0: e567 a53c 4160 fbbc d425 533c 7a79 063c
000000c0: 6fc4 97bc ab42 263c 32b3 713c b79e 1cbd
000000d0: 1e12 d5bc 11d0 89bc a3ef ea3c cc3e 11bc
000000e0: 45c3 f9bb 55cd c53b 6b37 ef3c f504 cabb
000000f0: 6143 4dbc d42b 0bbc 4e51 74ba 52dc 7bbb
00000100: 291d eebc d483 21bb 5de0 bb3c 17e8 cd3c
00000110: 64e2 e73c fbc6 0cbd 0542 363c b1a7 c938
00000120: 509c 73bc 315b bb3a 8540 50ba cb95 7dbb
00000130: 89ea 1d3c 1202 2abd a329 e438 9396 333b
00000140: 98ed 8cbc bc23 6139 2df9 0f3c 6f32 84bc
00000150: 5a1b 62bc 3a98 babc 2b41 083d b5a2 08bc
00000160: 9782 7eba ce3c 4f3c 2cf8 053d 0e67 3fbc
00000170: bc12 a5bc e27f 8ebc 3975 edb8 cb68 7dba
00000180: 2fb9 4bbd 0649 f5ba 3e5e a43c 7690 103c
00000190: f17e 4e3c d36b e8bb 31c4 0c3c 6bbd c53b
000001a0: 0bf6 60bc aa0e d739 5a31 0839 8099 acbb
000001b0: 7110 803c 8524 d9bc f8ac 9d3b ebc9 bd3b
000001c0: b1ff 86bc c103 983b ca0e 4b3c bf24 9ebc
000001d0: b96e 78bc deff 35bc 82ae 153d 75cb f7bb
000001e0: 1ab6 1cbb 8a9e 503c 6118 3c3c 4ec4 43bc
000001f0: 8a7b b8bc 848d 53bc 8cdd afba e3bf 45bc
00000200: 09b1 51bc b0e6 09ba 8f43 093d 97e1 423c
00000210: d49d ec3c 6590 8ebc a3a8 913b 4eb2 d535
00000220: 105e e3b7 fd37 49bc 7810 31ba d9b6 883a
00000230: e353 0b3d 26dd 26bd c590 4c3b 097a 1f3a
00000240: 12ad c4bb bc3e 823a 05af 8c3a fccf 8439
00000250: b2a0 753a 66d1 f3bc 98cf d53c 1ce3 36ba
00000260: b5c5 96ba f5ff ca3c a434 ec3b 568b 5ebc
00000270: edb5 19bc adbe 43bb 2176 6b39 7d22 3dba
00000280: 8a03 41bc dd7c 073a 015b 083c d152 4f3b
00000290: a220 9a3c fe57 0ebd dc84 8f3b ee42 baba
000002a0: b4b0 e7ba 9136 21bc 25f4 0a3a fabe ae3a
000002b0: 4b8b 933c 0555 23bd 5458 6f3b 3476 813b
000002c0: 13db 3ebc 5309 943b e6bb 1f39 554d 3bba
000002d0: 90e4 b439 38ca e0bc 1f4a 023d bd9d 7a3a
000002e0: 56fc 3ebb d407 043d 6f4e a43c 8de8 22bc
000002f0: 2744 87bc dc06 f437 ffbc 8abb a4ef 1dbc
00000300: 62e9 e5bc 6637 3dbc fef8 9e3c 1b1d d73c
00000310: b7e9 493c 4d87 a5bc e263 803b 96b6 b63b
00000320: 9c38 03ba 77f1 7bb9 a4b6 b3ba e288 c8bb
00000330: b6b8 5c3b f524 1abd a5e5 673c eca3 293c
00000340: 11ec dbbc 0f82 3e3c 6281 8d3c 362a e7bc
00000350: 488b c0bc 5250 0bbd 1112 013d 8334 64bc
00000360: 7c87 81ba 0849 3b3c f8f7 5c3c 7704 40bc
00000370: 1a00 97bb 77e4 debb a12d 0cba f6db e9bb
00000380: 8186 f8bc 0b53 74bc cac8 143d 019f b53b
00000390: 251a b43c d82a 1bbd 974d ba3c 3c74 1d3c
000003a0: ab3c 70ba 3652 383a 1863 8e3a 73ee 87bc
000003b0: 7387 3f3c f296 aebc fe34 b83a 0d9d 973a
000003c0: 6eaa 38bc 56b6 5c3c 1e42 573c 56ef ebbc
000003d0: b7d2 81bc 8439 90bc c341 e53c ba99 8abc
000003e0: 5de1 1a3a e5c0 783b 1139 8f3c 47ed c7bb
000003f0: 64a8 5fbc 6b18 a7bc 5c63 93b9 d953 1bbb
-0.023347426 -0.02112327 0.01854675 0.014201662 0.01646362 -0.030858511 0.013025444 -0.00040319262
-0.007973186 0.00033595963 -0.0020173194 -0.0067919544 0.011357535 -0.011846673 0.012196199 0.0059779007
-0.01847249 0.007855519 0.0054745832 -0.022950552 -0.015372329 -0.029309105 0.049242903 -0.0047609205
-0.0022826355 0.010662817 0.028468275 -0.007287225 -0.024186308 -0.0012143175 -0.0012696796 -0.016899753
-0.019513974 0.004203027 0.012181985 0.005459049 0.030126223 -0.030823175 0.003537105 5.2969757e-05
-0.0024667198 -0.0015240647 9.435212e-05 -0.0027878769 0.020191142 -0.030685546 0.012887437 0.008207673
-0.018526284 0.010147731 0.014752196 -0.0382373 -0.026009616 -0.016822847 0.02867872 -0.00886507
-0.007622155 0.0060364404 0.02920123 -0.0061651417 -0.012528271 -0.008494336 -0.00093199767 -0.0038430882
-0.029066639 -0.0024645226 0.022934133 0.025135083 0.028306194 -0.03436945 0.011124139 9.615662e-05
-0.014868811 0.0014294145 -0.00079441845 -0.003869402 0.009638437 -0.04150588 0.00010879643 0.0027402982
-0.017203137 0.00021470984 0.0087874355 -0.01613733 -0.013800466 -0.022777665 0.033265274 -0.008339574
-0.00097087905 0.012648774 0.03270738 -0.011682285 -0.020150535 -0.017394964 -0.00011322875 -0.00096667995
-0.04973715 -0.0018713779 0.02006447 0.008823505 0.012603507 -0.007092932 0.008591698 0.0060345433
-0.013730536 0.0004101892 0.00012988356 -0.005267322 0.01563284 -0.026506672 0.0048118792 0.0057918928
-0.016479345 0.0046391194 0.012393663 -0.019304631 -0.015163117 -0.011108367 0.036543377 -0.0075620958
-0.0023912252 0.012733111 0.011480422 -0.011948658 -0.022519846 -0.012912158 -0.0013417467 -0.012069675
-0.012798556 -0.00052605104 0.033511695 0.011894605 0.028883852 -0.017402837 0.004445152 1.592163e-06
-2.710431e-05 -0.012281415 -0.0006754468 0.0010430469 0.034015547 -0.040738247 0.003121422 0.00060835533
-0.006002077 0.0009936909 0.0010733312 0.00025331962 0.0009369954 -0.029762935 0.026099965 -0.0006976591
-0.0011503013 0.024780253 0.0072084237 -0.013583025 -0.009381753 -0.002986829 0.00022455353 -0.0007214917
-0.011780629 0.00051684474 0.008322478 0.0031635056 0.018814389 -0.034751885 0.0043798517 -0.001421062
-0.0017676563 -0.00983967 0.00053006626 0.0013332062 0.018010756 -0.039876003 0.0036521154 0.0039508585
-0.011648911 0.004517713 0.00015233419 -0.0007145007 0.00034502568 -0.027440175 0.03180897 0.0009560248
-0.0029142103 0.032234028 0.020056931 -0.00994314 -0.01651199 2.909026e-05 -0.004233956 -0.009639654
-0.028065387 -0.011548853 0.019405838 0.026258996 0.012323788 -0.020206118 0.003918157 0.005575965
-0.0005005689 -0.00024027178 -0.0013711047 -0.0061198333 0.0033679432 -0.0376329 0.014153873 0.010354023
-0.026845964 0.011627688 0.017273609 -0.02821837 -0.023503914 -0.034012146 0.03151137 -0.013928535
-0.0009882296 0.011430986 0.013486855 -0.0117198145 -0.0046081664 -0.0068021375 -0.00053473754 -0.007136817
-0.030337574 -0.014912377 0.0363243 0.0055426364 0.021985123 -0.037882656 0.022742076 0.009610232
-0.00091643137 0.00070312934 0.0010863272 -0.016593194 0.011690008 -0.02131221 0.0014053879 0.001156719
-0.011271102 0.013471207 0.013138322 -0.028800648 -0.015847547 -0.01760555 0.02798546 -0.016919006
0.00059082155 0.003795677 0.017483266 -0.0061012837 -0.013650987 -0.020397386 -0.00028112053 -0.00237011

fc2.bias f4 [32]
00000000: a089 83bc 88fb 5bbd 84b0 47bd a5c8 93bd
00000010: ca08 13bd 4509 593d 0e36 74bc 47a4 1fbd
00000020: 1164 91bd a6a2 55bd a245 9abd d533 84bd
00000030: e3e9 35bd c4a6 90bd 126a 23bd 8b4f 803c
00000040: a74e 82bd 56df 9d3c 3b2d 46bd c38a 933d
00000050: 60c3 27bd 00c6 16bd 6c23 34bd c432 303c
00000060: c2b0 29bd 0ecf ef3c d072 283d e8b3 573c
00000070: 8f07 713c 26f5 ccbd 6e61 94bd 5a4c 9fbd
-0.016056836 -0.053706676 -0.048752323 -0.07216004 -0.035897054 0.052987356 -0.014905466 -0.038975026
-0.07099164 -0.052157067 -0.07532813 -0.06455199 -0.044412505 -0.07063058 -0.03989608 0.015662929
-0.06362658 0.019271534 -0.04838298 0.07204201 -0.04095781 -0.03680992 -0.043979093 0.010754291
-0.041428335 0.029273536 0.04112512 0.013165452 0.014711275 -0.10007696 -0.07245146 -0.07778235

fc3.weight f4 [10, 32]
00000000: bfea 583d 92a9 92bd a109 17bc af1b 5abc
00000010: 2d9b 1b3d 07ac ea3d 2ee5 363e eebc 863d
00000020: 01f8 5e3d f8ba 2abb ffe6 7c3d aa4d 15bd
00000030: be3c 41bd 58b7 003d 4302 833d 6a00 9b3d
00000040: 6735 be3c 40d2 7ebd 59da bb3b 065a 41bd
00000050: 7a13 033c fc9c 813c 2113 f4ba a2f7 883d
00000060: f0fe 6d3d 0ffb f73c e83e b93d d5c8 9f3d
00000070: c69e 5b3d 0562 e33b bd48 a9bd d3c7 0cbb
00000080: c115 093d 5df6 953d b014 183d f2cd acb7
00000090: d68e cf3d f201 9c3d 3688 18ba 6afc fb3d
000000a0: 93f5 0f3b 9927 383c 1021 f4bc 4206 293b
000000b0: b7b4 253d b6e5 da3c 0025 3b3c d571 d53c
000000c0: 5c91 923d 3fcb a1bc ea6b 32bb bf65 ca3c
000000d0: 378e 023d 184c 0a3e c567 b23d 93c4 cebd
000000e0: f222 c73c cca9 d93b 52ff 803c 5915 b6bd
000000f0: f7aa 573d 42d7 ba3d 665e 78bd 1768 793d
00000100: a775 bdbd a460 28bd f0ac 7d3c dd6e 76ba
00000110: f0fa ee3c 2f9f a7bd c2c4 22bd 80cb 36bd
00000120: 62fd 5fbc de31 303c a2f7 783b e663 8a3a
00000130: 9766 943d c5a0 84bc 0faa f03c 684f 213d
00000140: 0e50 43bc 5513 cabb 8ff9 8c3c 0281 d03d
00000150: 2939 e73d 98a7 1a3d b26c fb3c e4d3 613e
00000160: ff65 0f3d ab94 c83d 3e19 4e3e 0bba 35bd
00000170: b9e5 84bc 945c a1bb af36 bd3d 10ff 813d
00000180: d922 ce3d ec21 fbbc 4758 403d 6c88 103c
00000190: 1259 943d 76b1 ea3c d2b5 b33d fef8 5ebd
000001a0: c039 dfbc dc9e bf3c 796b 33bb e09f 223a
000001b0: fd24 d03d c20d 85bc d67a 653a 61b2 903d
000001c0: 6423 1ebb c7c4 ba3d 384c 0d3d 267f 7b3d
000001d0: 607a a73d 66ce 833d 5b2f 093e df7d b13d
000001e0: a803 be3d 6fcd 7e3d 386f ae3d 8a1e f53c
000001f0: 0f0a 503b 296c 693d 1dfd fabc ea59 bd3d
00000200: 09b3 dfbc c2d9 763c d061 263d b9c5 d73b
00000210: bb12 61bc b2af d63c f2b6 5c3e e3ed b33d
00000220: 331f 2abc de32 a6bb a035 cc3c a355 a93d
00000230: e699 a5bc 7b1d 30bd 2017 843c 2097 4dbc
00000240: 3338 38bd cba4 a9bc 326d 0ebc 11ee a33d
00000250: 2e86 2a3d d99d 12be 2e08 11bc 93a5 c9bd
00000260: 3fbb 1cbd cb6d 063d 7674 89bd 948b 293d
00000270: c3a1 903d 1235 e53d 13ee bebc 264c ae3b
00000280: 569f 423e ccde 3d3d df92 32bd cb02 b93b
00000290: eaf8 d63c 8d15 283e ffe9 333c 6eba 623d
000002a0: 07e5 a53d bb05 efbc 068a 27bd 77d8 2d3d
000002b0: ca5c 2bbc 35a1 bebc 5639 38bd a35e 07bc
000002c0: 1753 d23d 7053 813e 21f1 aebc 05b4 c43d
000002d0: 0842 1e3d c411 083b 3e04 42bd a7ec c13d
000002e0: d2b7 f53d 8c3a 5f3d 4476 e73c 195a 0abe
000002f0: 57e5 a3bc 6d0e ed3d ca96 a9bd b742 833d
00000300: 2276 b4bd 747b dabc df48 05bd 2515 08bc
00000310: 931b 3fbc 5867 573d a86a ea3d cc4d 633d
00000320: c6e5 263d 494f 4cb9 5260 a43b 50f4 75bc
00000330: 1503 7bbd a456 b3bb 7edf d93c a9f2 82bd
00000340: 8d23 8bbc e800 00bd 4e55 28bb d22c 3ebd
00000350: 6591 25bd 5c71 dc3c b9b0 eebb 9233 ccba
00000360: de16 5bbd 7aac 60bd e862 843b 2d38 69bd
00000370: a032 343d a771 1e3d 1ad1 a23c 9afc a03c
00000380: 9891 a0bc 8826 d53c 3489 e03b b15c ccbb
00000390: 2aca d3bc eb1f f93d 9f20 193e b0da 193e
000003a0: acfe 22bc 36a2 8b3c 1fb5 af3d 39d6 e93a
000003b0: 273e bd3b a598 053e d604 6c3d 9aa0 a53d
000003c0: 4310 e6bc 96ab 6e3d 09f7 6c3c 707d c13c
000003d0: 7008 11bd e2c0 323e 4a91 b0bc 6c33 ae3d
000003e0: ddf1 de3d a589 0c3d e5a2 1f3e 28d5 7e3e
000003f0: 016a 3d3e 4ee9 933d 57c4 033c 8373 bf3d
0.052958246 -0.07161249 -0.009218604 -0.013312264 0.037989784 0.11458593 0.17860863 0.06579004
0.054435734 -0.0026051383 0.061743733 -0.03645102 -0.04717707 0.03142485 0.06396916 0.07568438
0.023218824 -0.06221223 0.005732816 -0.047204994 0.008000249 0.015821926 -0.0018621424 0.06687857
0.058104455 0.030271081 0.090452015 0.078019775 0.053618215 0.006939175 -0.08265827 -0.002148141
0.03346801 0.07322381 0.037129104 -2.0599899e-05 0.10134666 0.076175585 -0.0005818637 0.123040035
0.0021966442 0.01123991 -0.029800922 0.0025791083 0.040455546 0.026720863 0.011422396 0.026055256
0.07156631 -0.019750236 -0.0027224966 0.02470672 0.031873908 0.1350559 0.08711199 -0.10096087
0.024308655 0.006642556 0.015746746 -0.088907905 0.05265328 0.091230884 -0.0606369 0.060890283
-0.09250956 -0.04110779 0.015483126 -0.0009400675 0.02917239 -0.08184659 -0.039738424 -0.044627666
-0.013671251 0.010754077 0.0037989398 0.0010558337 0.0724613 -0.016189942 0.029377965 0.03938237
-0.011920942 -0.0061668553 0.017208843 0.10180856 0.11290199 0.037757486 0.030691478 0.22053486
0.03500938 0.09793981 0.20126817 -0.044366878 -0.016222822 -0.0049243663 0.09238946 0.063474774
0.100652404 -0.030655824 0.046959188 0.008821588 0.07243551 0.028649073 0.08774914 -0.054436676
-0.027249217 0.02339118 -0.002737729 0.0006203633 0.10163305 -0.016241912 0.0008753961 0.07065273
-0.0024129981 0.091195635 0.034496516 0.061400555 0.08177638 0.06435852 0.13396971 0.08666586
0.09278041 0.062207635 0.08517307 0.029921789 0.0031744277 0.056987915 -0.030638272 0.09245665
-0.02730705 0.015066566 0.040620625 0.0065848497 -0.013737376 0.026206825 0.21554163 0.08785608
-0.010383415 -0.005071982 0.024927914 0.08268287 -0.020214986 -0.042996865 0.016124308 -0.012548238
-0.04497547 -0.020708462 -0.008693026 0.08004392 0.04163187 -0.14318027 -0.008852048 -0.09846034
-0.03826451 0.03281955 -0.06711666 0.041392878 0.070621036 0.11191763 -0.023306882 0.005319136
0.19006094 0.046355054 -0.0435971 0.005646085 0.026241738 0.16414471 0.010981082 0.055353574
0.08100324 -0.029177537 -0.040903114 0.042442765 -0.010459134 -0.023270229 -0.044976555 -0.008262309
0.102697544 0.2525897 -0.021355214 0.096046485 0.03863719 0.0020762542 -0.047367327 0.09468966
0.119979516 0.054499194 0.028254636 -0.13510932 -0.020006819 0.11575017 -0.08280714 0.06409209
-0.088115945 -0.026670195 -0.0325402 -0.0083058225 -0.011664289 0.05258879 0.11446124 0.055494115
0.040746473 -0.00019484492 0.005016365 -0.015011862 -0.061282236 -0.005472975 0.026595827 -0.0639394
-0.016984725 -0.031250864 -0.0025685611 -0.046429463 -0.040421862 0.026909523 -0.0072842506 -0.0015579334
-0.053488605 -0.054851986 0.004040111 -0.05693834 0.043993592 0.038682606 0.019875098 0.0196517
-0.019600675 0.02601935 0.0068522934 -0.0062366356 -0.025853235 0.12164291 0.1495385 0.15024829
-0.009948414 0.017045122 0.08579468 0.0017840333 0.0057752314 0.1304651 0.0576218 0.08087273
-0.028083926 0.058269106 0.014463195 0.023619384 -0.035408437 0.17456391 -0.021553654 0.08505902
0.108859755 0.034310956 0.15589483 0.24886 0.18497469 0.07222234 0.008042417 0.09348204

fc3.bias f4 [10]
00000000: 6f6b ca3e 2deb da3e 6c84 db3e 3f13 083f
00000010: 21fa f83e 6007 303f 7672 963e 94fe de3e
00000020: 6218 033e fcad 263d
0.3953509 0.4275755 0.42874467 0.5315437 0.48628333 0.68761253 0.29384202 0.43553603
0.1280227 0.04069327
