domain_adaption/best_tt_net2.pth.tar (torch, 264373 bytes, 16 tensors)

gcn1.w f4 [10, 32]
00000000: f28f c8bd 7e50 293e b006 af3d 140d 25bd
00000010: cefc c53d 365a 313d 3c2b 26bd eb7e cb3c
00000020: b7f8 1cbd ba92 f63d 16ed 4cbc ff3c 0ebe
00000030: 3d58 bd3c 8a55 74bd e4be 2b3d e0ab 38bd
00000040: e3f4 203e ad54 3abe 25fd 3bbd d34a b7bd
00000050: ed15 25be 915c d93d ab8f 003d 08cc f93d
00000060: 5ba9 afbc 6141 8fbd 5490 023e d70a 4a3e
00000070: ab6e 03be 4ac9 2bbd 3c23 44bd e476 f7bd
00000080: 272c 32be 16c6 35bd f670 323e 68bd 1cbd
00000090: 4912 a4bd 4aea 4fbd 063b debc 973d b63d
000000a0: 19f8 d13d fbc0 c83d 29c8 5d3c 8e2d 0a3b
000000b0: 8510 e83d d199 e3bb ef4a 193b f3ea 2f3e
000000c0: 92ef ef3c e8c2 d43c 7db0 3ebd bc3b b43d
000000d0: f5b9 463d 97e5 08be a14f c93d 272e b33d
000000e0: e64e b0bc eb70 43bd 4ad7 23be 34e0 d3bc
000000f0: ec6a d33d c0da 163e d2a3 e23d c354 3fbd
00000100: 31ea 16be e9e7 d1bc b39d 3f3e 5b8e 4dbb
00000110: 812c e3bd 4c5b abbd 7fd1 aa3a f881 c5bd
00000120: a22f 02bd a0c0 f13d 0cbd 24be da6b 25be
00000130: 190a bbbd 6411 973d 23a1 8a3d 8bb0 743d
00000140: 091e 0cbe d5f8 59bc f01f 6e3d 2a6b 013d
00000150: f29b fdbd 0c04 d83d 41b6 c0bd 47de 003d
00000160: feca 3dbe d93b 233e 2a7b 6d3c 573b 63bc
00000170: dc58 233e 444c ac3d 86b2 2e3d fa15 adbd
00000180: fcfb b43c 7517 14be bcbd d3bd a010 95bd
00000190: 6437 e7bd 2696 a43d 261f 06be 5368 10be
000001a0: 76a0 313e d6dc cabc 7878 e93d aced bfbd
000001b0: c89a ac3c ff4f f73d 28da 103d b768 143e
000001c0: 83f5 fb3c 2c50 6fb9 f8c7 2d3e 1ca5 f13d
000001d0: 2c8b 103e d272 eabd b80c 403e 463e 493d
000001e0: 45b9 30bc 137c 913d a7a3 a73d 1ceb b93d
000001f0: ce49 fcbd 8228 223d 9237 da3d 3567 1a3e
00000200: a4a0 acbd 7ae4 8c3d 4838 9a3d 3d63 20be
00000210: 19dd 353e 5617 b4bd b0b3 b03d 2b57 153e
00000220: 5445 063e e1b9 78bd 468f d7bd 4de2 05be
00000230: c8c0 de3d 6f2f f8bd 54dc 4cbd 09e8 00be
00000240: ac8e 2f3d cc99 1bbe f3df 0fbe 7cc6 a7bd
00000250: 622b 8dbd 4305 34be fdca af3c 9ab6 323d
00000260: 4039 9e3d fdba 5b3d ac3d 27bc 7eab 393e
00000270: 9993 bd3d a341 acbc a814 03be 6cf7 ddbd
00000280: 9f03 31be c625 e1bd bcfc f8bc d78e 89bd
00000290: 2986 893d 84c7 563d 1b6a 29be 5bfc 463e
000002a0: 8b86 f4bd b245 dfbd ad6f 783c 1f68 f83d
000002b0: 5cf8 433e dc35 e2bc 15f2 8e3c 2e4f b1bd
000002c0: 4639 f2bd a294 14be 2c3e afbd 8399 c3bd
000002d0: 72c0 c4bc 759a 18be 3699 323e 8216 07bd
000002e0: 1f36 bcbd 8345 84bd 4a38 97bc 9b6b 273c
000002f0: 6898 a03d 0e0f afbd 4d88 323e e9d9 d53d
00000300: ff6c 773d 6553 073d 4ecf e53d aef5 c53d
00000310: 51dd 96bd 1239 863d 6059 5c3d d5e7 e23c
00000320: 74c0 0a3e b783 093e 3873 c03c 8b4f 07be
00000330: fe66 e4bb 013d 2f3e 321a d53d 084f 17bc
00000340: 524c 1b3e efb4 12be 8b29 9cbd 2fa2 f13d
00000350: 583c 26be 246c 89bd 92e6 a4bd fe0c 95bc
00000360: 6441 d5bd 3298 13bd 469b 9abd 5809 183e
00000370: 38d8 f63d 8470 b0bd 2036 2f3e 2530 59bd
00000380: a503 e8bd fcd0 873c fc2d f93d 70ae e8bc
00000390: 7e7e 283e 43d2 6cbd 248c 14bd fc04 cd3d
000003a0: acf8 bdbd bde5 e2ba c11c 023d 4462 0c3e
000003b0: 080b e43d 6a28 373e db8d 2fbd b5c7 c4bc
000003c0: 2175 033e 10d1 cc3b fe12 9c3d 3e24 f0bd
000003d0: d1a9 f9bc 0108 fcbd e77f a83d 8be4 ac3d
000003e0: 0ab9 0bbe e517 313e dfa7 c0bd 0485 c6bd
000003f0: 5eef 1f3e 9f4e dd3d b3ba 05bd 9cb2 153e
-0.097930804 0.16534612 0.085461974 -0.040295675 0.09667359 0.043298922 -0.040568575 0.024840793
-0.03832313 0.120397046 -0.012507698 -0.13890456 0.023113364 -0.05965189 0.041930094 -0.045085788
0.15718417 -0.18196364 -0.045895714 -0.089498185 -0.16121645 0.10613359 0.031387012 0.12197119
-0.02144306 -0.06994892 0.1275037 0.19730698 -0.12835185 -0.04194001 -0.047885165 -0.120832235
-0.17399655 -0.044378363 0.17425904 -0.03826657 -0.080113 -0.050760545 -0.027127754 0.08898466
0.10252399 0.09802433 0.013536491 0.0021084282 0.11331276 -0.0069458266 0.0023390611 0.1717947
0.02928904 0.025971845 -0.04655503 0.08800456 0.048517186 -0.13368832 0.09829641 0.08749037
-0.021521997 -0.04771511 -0.16000095 -0.025863744 0.10323128 0.14731884 0.110664025 -0.046711694
-0.14737774 -0.025623279 0.18712501 -0.0031365368 -0.11092473 -0.08367023 0.0013032405 -0.0964393
-0.031783707 0.118043184 -0.1608774 -0.16154423 -0.09132785 0.07376364 0.06769016 0.059738677
-0.13683333 -0.013303955 0.058135927 0.03159634 -0.1238326 0.10547647 -0.09409762 0.03146198
-0.18534467 0.15940799 0.014494697 -0.013869128 0.15951866 0.08412984 0.042650722 -0.08451457
0.022092812 -0.14462073 -0.10338923 -0.072785616 -0.11289862 0.08036451 -0.1309782 -0.14102297
0.17346367 -0.024763506 0.11399931 -0.09371504 0.0210699 0.12075805 0.0353643 0.1449307
0.030756718 -0.00022822683 0.16970813 0.1179907 0.1411559 -0.114476815 0.18754852 0.049131654
-0.010786359 0.071037434 0.08185511 0.09078047 -0.123187646 0.039589413 0.106551304 0.15078433
-0.08429077 0.06879516 0.07530266 -0.15662856 0.17760123 -0.087935135 0.08628023 0.14584033
0.13112384 -0.060724143 -0.10525374 -0.13074608 0.10876614 -0.12118422 -0.05001481 -0.12588514
0.042860672 -0.15195388 -0.14050274 -0.08192155 -0.0689304 -0.17580132 0.021459097 0.043631174
0.07725763 0.053645123 -0.010207575 0.18131825 0.09256668 -0.021027392 -0.12800848 -0.108382076
-0.17286538 -0.10993533 -0.03039395 -0.06716698 0.06715042 0.052436367 -0.16544382 0.19432203
-0.119397245 -0.10901965 0.015163344 0.121292345 0.1913771 -0.027613573 0.017449418 -0.086576805
-0.1182733 -0.14509824 -0.0855678 -0.095507644 -0.024017546 -0.1490267 0.17441258 -0.03298045
-0.0919001 -0.06458571 -0.018459458 0.010218526 0.07841569 -0.08547793 0.17434807 0.10441954
0.06040668 0.033038516 0.11221181 0.09666 -0.073664315 0.06553854 0.053796172 0.027698437
0.13549978 0.13429151 0.02349244 -0.13213937 -0.0069702854 0.17113115 0.10405387 -0.009235151
0.15165833 -0.14326833 -0.07625111 0.11798512 -0.16233957 -0.06710079 -0.0805179 -0.018194672
-0.10412863 -0.036033817 -0.07549147 0.14847314 0.12052959 -0.08615211 0.17110491 -0.05302443
-0.1132882 0.016579144 0.12166974 -0.02840349 0.16454503 -0.05781771 -0.03626646 0.10010716
-0.09275946 -0.0017310899 0.031765703 0.1370936 0.111349165 0.1788651 -0.042859893 -0.024021009
0.1283765 0.006250508 0.0762081 -0.11725663 -0.030476483 -0.12306214 0.082275204 0.084420286
-0.13644806 0.17294271 -0.09407019 -0.096933395 0.15618655 0.108060114 -0.032648753 0.14618915

gcn2.w f4 [32, 32]
00000000: 2ff2 173d f870 d6bc 1ff3 34be ade7 20be
00000010: 4cf2 a1bd d143 75bd 5046 a43d 4ee7 52bd
00000020: ec2a 0f3e e659 283d 00df 95bd a4ef 1d3e
00000030: b736 9c3d c094 9f3d 7382 e83d b226 47bd
00000040: a461 103e f48e 293e a7cc 9abc 6b9c 0d3e
00000050: da59 183c 9a5e 7dbd cccc 4ebd ee5c 0abe
00000060: 58e9 0d3e 8f25 06be 2b12 8a3c 3a84 053d
00000070: 5c3e 2cbe 1bef d73d fe64 5cbd 5120 e13c
00000080: f61c 1a3e 3b9c d03b f168 22bc fc96 f6bd
00000090: 9eb0 b6bc 7a01 23be 7be5 8c3d 4946 b7bc
000000a0: 3ac2 ec3d 75c8 853d 18ff 123e 54f1 30bd
000000b0: f5cc eb3a dafd d43c 7870 d93d 9e9a f5bd
000000c0: 8d18 d4bd 2f2e 483c 3acd 1a3e 3272 2d3c
000000d0: 7cc8 473d 142e f1bd b866 403d 8f1a afbd
000000e0: 2757 1e3e 4ba0 c1bd e1a7 f6bc e598 fcba
000000f0: 81e2 6a3d 8db1 583d 549f 093c e50c 5fbc
00000100: 18c3 acbd e593 febd 4b46 9dbd 1794 f53d
00000110: 4e98 cebd 3fdb e23d de71 383e 45d5 203d
00000120: 5b84 25be 133d 833d efc8 dbbc 41db c0bd
00000130: 1727 06be dec8 323d 440b 9abc 5e1d 473d
00000140: 5882 2fbe dfdb adbd f1fc b9bd 96dc 3dbd
00000150: d42c 25be 9b19 dc3c f086 d2bd 41c0 dcbd
00000160: 4bd9 073d 15aa 9bbd 73f5 0b3d c188 1ebe
00000170: 0c3d dfbd f206 353e 32aa b73d 79a3 bdbd
00000180: c9fa 20bd 87f7 69bc 986d bfbd 1707 1f3e
00000190: 6345 0a3e 2f7a c23b 5b42 d73d 4cfd 1f3e
000001a0: e45e 2b3e 3c98 853c 4dd3 e53d 21c7 043d
000001b0: 8843 ef3d 24fa f73d 0439 abbd 67ce 4f3d
000001c0: 8a0a 3fbd d812 e3bd 32de 9cbd d7a3 0dbe
000001d0: 6a3a 053c e930 00be 7e1d bb3d 1f58 0cbd
000001e0: 85a7 1ebe 04ba 2cbe 2e78 c83d e409 3dbd
000001f0: e2d4 3fbe 1970 233e 994f 0fbe f1d1 a2bd
00000200: bc4d 1e3e ab9c cd3d 38b4 a33d aff0 01bd
00000210: 92b7 0b3e c523 b0bc b318 103e a2a1 f6bd
00000220: 8a3e 23be e7f7 183e 9a23 c3bc 1387 c3bd
00000230: a87d 05bd 3212 153e 366d 8ebd 97b6 d0bd
00000240: 0595 04bd 1e8d 4abd 6dd3 e5bd 2aee a93c
00000250: b738 203e 2691 14be 6a88 0fbe 9a6e a9bd
00000260: edf5 fbbd 0f90 953c be01 0c3e 49dd ab3d
00000270: 3ffb db3c 148c 3f3e f5d5 fb3d d55c 523d
00000280: 6e43 023e 107b f5bc dd20 853d 5291 513d
00000290: 662f 003c f484 78bd b161 1f3e 1174 7dbd
000002a0: b312 febd c6e2 b5bd 617e 01be 130c 053e
000002b0: 289d 1fbe 4c86 35bb f75c fbbd 6b23 f1bd
000002c0: aeac 263e cc23 03be 15a4 823d 644f bcbd
000002d0: 0189 34be 1d7d 0c3e 1afd 1b3e 2ffc f23c
000002e0: 2faf 5a3d 2010 bfbd 9618 9dbd d2ca 01be
000002f0: c58b 04bd aa5c 093e 67f1 be3c 7643 29be
00000300: fae8 1ebd c607 e03d 5527 d13d a8ef c43d
00000310: bb39 123e 5943 dcbd f74f 0f3e 6062 0bbe
00000320: 59fd 08be 37ba 2bbd d667 a83d 329a 30be
00000330: 2bcb cf3c 303c 9c3d c468 e03d ba10 bdbd
00000340: 2579 e73d 19db 043d 1bcb e4bd a7d8 04be
00000350: 529a 1b3e ad76 8c3d 4426 33be 431d 2dbe
00000360: 1a2a 1d3d 3309 863c d14e 8fbd c249 a3bd
00000370: 884e 023e bf23 db3d f72b dd3d 819a 963c
00000380: f0bd 433e 55a3 123e dfe6 293e 0f4b 1dbe
00000390: 2fc9 12be 13e5 2a3e 2ff8 f13d 71c6 373e
000003a0: bfaa db3d b144 1d3e 0da5 10be 5695 8f3d
000003b0: 72c7 0ebe 33f9 cdbd 9698 29bd f5e9 9f3c
000003c0: 4d11 783d 2270 103e 98e8 0abe 2c38 2c3e
000003d0: bc66 063e c49f e53b 00e2 4abc e22d fe3d
000003e0: 1711 92bd 7f13 ff3d 94a8 aabd f3e1 8d3d
000003f0: a148 fabd ae05 fb3c 62e3 00be be44 163e
0.0370962 -0.026176915 -0.17670868 -0.15713377 -0.079075426 -0.059879128 0.080212235 -0.05149012
0.13981217 0.04110136 -0.073179245 0.15423447 0.076276235 0.07792044 0.11353006 -0.048620887
0.14099747 0.16558439 -0.018896414 0.138292 0.009298766 -0.061857797 -0.05048828 -0.13512012
0.13858545 -0.13100265 0.016854366 0.032596804 -0.16820663 0.105436526 -0.05380725 0.02748123
0.1505011 0.0063662804 -0.009912715 -0.12040517 -0.022301015 -0.15918532 0.068797074 -0.022372382
0.11560483 0.06532375 0.14355123 -0.0431989 0.0017990159 0.025999952 0.10617155 -0.119923815
-0.10356245 0.012218042 0.1511735 0.010586308 0.04877518 -0.11776367 0.04697296 -0.085499875
0.15462933 -0.094544016 -0.030109348 -0.001927164 0.057344917 0.0529037 0.008399803 -0.013613914
-0.08435649 -0.124305524 -0.07679423 0.119911365 -0.100876436 0.11076974 0.18012187 0.03926589
-0.16163771 0.06408133 -0.026829211 -0.09416819 -0.13100849 0.043648593 -0.0188042 0.04861199
-0.17139566 -0.08489203 -0.09081448 -0.046352945 -0.16130382 0.026867678 -0.102796435 -0.10778857
0.03316621 -0.076008 0.034169625 -0.15481855 -0.10900316 0.1767843 0.08968009 -0.092596956
-0.039301667 -0.0142802065 -0.09347075 0.15530048 0.13503031 0.0059349756 0.10510703 0.15623969
0.16735417 0.016307943 0.11221943 0.032416467 0.116828024 0.121082574 -0.08360484 0.05073395
-0.04664091 -0.110875785 -0.07659568 -0.13832031 0.008131603 -0.12518658 0.091364846 -0.034263726
-0.15493591 -0.16867834 0.097885475 -0.04615201 -0.18733552 0.1596073 -0.13995208 -0.079501994
0.15459341 0.10039648 0.079933584 -0.031723674 0.13644245 -0.021501431 0.14071922 -0.12042548
-0.15941826 0.14938317 -0.023820687 -0.09547248 -0.03259054 0.14557722 -0.06954424 -0.10191076
-0.03236868 -0.049450986 -0.11221967 0.020743448 0.15646635 -0.14508495 -0.14016882 -0.08273049
-0.12302766 0.018257169 0.1367254 0.08391816 0.026853202 0.1870578 0.122966684 0.051358063
0.12721035 -0.029965907 0.06500409 0.05116398 0.007823801 -0.06067367 0.1556461 -0.061878268
-0.1240591 -0.08881144 -0.12645866 0.12992887 -0.15587294 -0.0027698455 -0.12273591 -0.117743336
0.1627681 -0.12806624 0.063789524 -0.0919483 -0.17630388 0.13719602 0.1523327 0.029661266
0.053389724 -0.093292475 -0.07670705 -0.12675026 -0.032359857 0.13414255 0.023308469 -0.1652964
-0.038796403 0.10938983 0.1021258 0.09616023 0.14279835 -0.10755033 0.13995348 -0.13611746
-0.13377894 -0.041925635 0.0822293 -0.17246321 0.025365433 0.07628667 0.109574825 -0.09231706
0.11302403 0.03243551 -0.11171552 -0.12973271 0.15195587 0.06858573 -0.17495066 -0.16905694
0.03837023 0.016361808 -0.06997455 -0.079730526 0.1272527 0.107001774 0.10799401 0.01838422
0.19115424 0.14320119 0.16591977 -0.15360664 -0.14334558 0.16688947 0.118149154 0.17946793
0.107259266 0.15358235 -0.14125462 0.070109054 -0.1394327 -0.100572966 -0.041405283 0.01952074
0.060563374 0.14105275 -0.1356529 0.16818303 0.13125128 0.007007571 -0.012382984 0.12411095
-0.07132166 0.124548905 -0.08332935 0.06927862 -0.12220884 0.030642357 -0.1258674 0.1467466

gcn3.w f4 [14, 32]
00000000: 7fb8 88bd 133d 16be a4b7 6bbc ff31 33bb
00000010: dc91 163e 047b 78bd 74bc 16be b94e 993d
00000020: 25db 29bd 473c fbbd 4380 2a3e a2b8 eb3d
00000030: b78c 403e 963e 3b3d 56f4 fbbd 4649 51bd
00000040: a203 453e df0f 163e bcf0 323e 5585 1c3e
00000050: b676 87bd 3c5a 553d ef35 30bb b893 f83d
00000060: 60b6 f43d c6e6 9bbd e8df 9dbd 9271 113c
00000070: 9b56 91bd dd34 343c ab5a 563d f52b d83d
00000080: 6c69 433d b46c a8bc d176 9d3d 4b43 143e
00000090: 66d9 99bd 8265 c53d 3e63 c33d 4e6b 67bd
000000a0: 8f36 a53d 0ea2 413e 28b7 48bd fb87 023e
000000b0: 138b d13c 0f3f 18bc ba80 29be 43d3 333c
000000c0: c573 bcbd c17a d63d 9fde 0abe 3b56 3b3d
000000d0: 7b52 ce3d ab11 46bd 603b d53d 79c0 d23d
000000e0: 9bbe b9bd 161d e23d cd53 f3bc 04f0 a33d
000000f0: b133 1a3e 18fb 4b3d c4e4 5f3d fcb5 00be
00000100: 18a6 2d3e 7923 7a3a 5fe9 2abd 81a2 aa3d
00000110: 6921 0b3e b892 81bd 0e5d 1a3d 509a 91bd
00000120: 0365 203e d7bb de3d ba01 0fbe 542a b23d
00000130: a8ea 043e 11f0 39bd befd 25be 92a3 ecbd
00000140: 73af 893d 3472 d53d 49c8 2e3e 3cd0 e0bc
00000150: cab2 e53d c174 d33d ed0c a0bc 36e5 2b3e
00000160: 2ec4 e13d a067 44bc 7632 b93d 1f49 873d
00000170: 6525 bb3d 426d 403b 2757 31be 9d30 a03d
00000180: 5775 02bd 4c17 18be 8d0b 893c 93b4 f4bd
00000190: 02c6 723d 4da1 01be 87d9 e03d 445b 67bc
000001a0: 6e0d 323d 2ba9 243e 5855 aa3d 1f2b 82bd
000001b0: d7f2 043b 0a1a 8f3d d1a0 763d dbc4 9f3d
000001c0: d948 523a 4473 2f3e a8e4 333c 1528 a93d
000001d0: a415 f2bd cfea cdbd 16d2 0e3e 2dab 22be
000001e0: 0a79 513d 3a77 a53d 0213 a8bd 50aa d9bd
000001f0: ec96 e0bb 9f94 a8bd e680 b73c ecb8 f5bd
00000200: 053f 9bbd fcb9 ea3d 7a20 303e b758 2e3e
00000210: f8bb 8938 af56 a33d f434 69bd 0e4a 26be
00000220: 934c 23be 80a5 293d b1a4 0cbe ec74 3c3c
00000230: 88c1 4a3d b365 083e c492 07be 422d 283e
00000240: 7e82 4fbc 371b 82bd 59f9 613d f9cf 393e
00000250: e380 ea3d 23da 19be d79c 0dbe 9130 1dbe
00000260: 92b0 3ebd dc1a d9bd 0217 2d3e 7ee7 883c
00000270: 7dba 2dbc fe3c 8cbd fab2 a83c 288b 67bc
00000280: 2de0 183e 22f5 bc3d 76b5 0abe f57d c23d
00000290: 5977 813d ff17 023c 86c9 ff3d 7552 d73d
000002a0: d843 64bd 115b cf3d efd0 22be 12d5 373d
000002b0: c2c3 1e3e 6f77 4c3d 16ac d83d 6afd bebc
000002c0: cb18 143e 088f a93d ba7c b2bd 0a45 c9bb
000002d0: b9ed 43bd 40c9 06bd 5521 05bd db9c d3bd
000002e0: 3a78 143e dbc2 d2bd 8ae3 d73d ed2e 93bd
000002f0: 605f 223e 65dd 8fbd f447 36be e0ad 5f3d
00000300: 3193 3cbd b4e2 313e f09a 873d bfb0 fb3d
00000310: 373e 41bd 83d2 fbbd 3344 2b3e e057 c03c
00000320: 3091 0c3d ef45 2fbd 06fd b73d 8de8 fd3c
00000330: 566d b4bd b919 0c3e 2dcc f1bd 7813 b5bb
00000340: 1aa5 ffbd f91d b23d b624 e8bd 35c9 323e
00000350: 35cb 773d f297 ebbd de38 273d eb63 0e3d
00000360: 58d8 263e 77da c93d 2bd0 20be 9822 4a3d
00000370: 9415 a03d 6c15 e13d eb3a 813d f1ce 9f3d
00000380: b227 43bd 2081 083e 6b82 4abd 1df2 59bd
00000390: cde0 26be 6da3 21be 2fb6 e5bd d099 183c
000003a0: be55 cd3d a473 823d ca1a 01bc 0a44 3b3e
000003b0: 4ec5 823d cfd0 373e 2cb2 363e 8e8d 36bd
000003c0: 08c8 0f3e 1c78 853d 5b92 113e 34b9 95ba
000003d0: bd5d 023c b093 2f3e 8f82 48bd f2a5 413e
000003e0: f470 a7bd 387e 293d ec74 15bd 33bd d4bd
000003f0: b3bb fc3d cd2d ff3d 4b2d 08be 97a4 5dbd
-0.06675815 -0.14671735 -0.014387045 -0.0027343032 0.14704078 -0.06066419 -0.14720327 0.07485718
-0.041468758 -0.12267356 0.1665049 0.11509825 0.18803678 0.045713983 -0.12302463 -0.05109527
0.19239667 0.14654492 0.17474645 0.15285237 -0.06614439 0.052088007 -0.0026887616 0.1213755
0.11948848 -0.07612376 -0.07708722 0.008877175 -0.07096597 0.010998932 0.05233256 0.10555259
0.04770796 -0.020559646 0.07688678 0.14478795 -0.075121686 0.09638502 0.09540413 -0.056498818
0.08067047 0.18909475 -0.049002796 0.12747185 0.025579011 -0.009292378 -0.16553012 0.010975662
-0.09201769 0.10472632 -0.13561486 0.045736533 0.10074326 -0.048356693 0.104117155 0.102906175
-0.09069558 0.11040704 -0.029703045 0.08004764 0.15058781 0.04980001 0.054661527 -0.12569422
0.16957891 0.0009542029 -0.041726466 0.083317764 0.13586964 -0.063268125 0.0376864 -0.07109511
0.15663533 0.10875671 -0.13965502 0.0869948 0.1298014 -0.04539496 -0.16210076 -0.11554636
0.067229174 0.10422173 0.1706859 -0.027443044 0.11215742 0.103250034 -0.019537413 0.16786656
0.110237464 -0.011987597 0.09042828 0.066057436 0.09137992 0.0029361998 -0.17318402 0.07821772
-0.031850185 -0.14852637 0.01672914 -0.11948504 0.059270866 -0.12659188 0.1097899 -0.0141208805
0.04346984 0.16080157 0.08317059 -0.06355881 0.0020286345 0.069873884 0.06021196 0.07801219
0.00080217194 0.17133814 0.010979809 0.08259598 -0.11820534 -0.10054552 0.13947329 -0.15885611
0.051140822 0.08079381 -0.082067505 -0.10628188 -0.006853929 -0.08231472 0.02240033 -0.11998162
-0.075803794 0.11461255 0.17199889 0.1702603 6.567681e-05 0.07975518 -0.056935266 -0.16239187
-0.1594718 0.0414176 -0.137347 0.011502486 0.049500972 0.13320045 -0.1323958 0.16423514
-0.012665389 -0.06352847 0.055169437 0.18145742 0.114503644 -0.15024619 -0.13829361 -0.15350558
-0.04655511 -0.10600826 0.16903308 0.016711947 -0.010603544 -0.06847571 0.020593155 -0.0141322985
0.14929266 0.09226443 -0.13545784 0.09496681 0.06321592 0.007940291 0.124896094 0.10513774
-0.055728763 0.101247914 -0.15900014 0.044880934 0.15504363 0.04991859 0.10579698 -0.023314197
0.14462583 0.08279234 -0.08715196 -0.0061422633 -0.047834132 -0.03290677 -0.03250249 -0.10332652
0.14498988 -0.10291072 0.105414465 -0.07186685 0.15856695 -0.070246495 -0.17800885 0.05460918
-0.04603881 0.17371637 0.06621349 0.12289571 -0.047178473 -0.12296011 0.16725235 0.023479402
0.03431815 -0.042791303 0.08983807 0.030994678 -0.08809917 0.13681687 -0.118065216 -0.0055260025
-0.124826625 0.08697123 -0.11335127 0.17459567 0.060496528 -0.11503591 0.040825717 0.034763258
0.16293466 0.09856122 -0.1570441 0.049349397 0.07816616 0.10990414 0.06310066 0.07803143
-0.04764528 0.13330507 -0.049440783 -0.053209413 -0.16296692 -0.15784998 -0.112163894 0.0093140155
0.1002612 0.06369713 -0.007879922 0.18287674 0.06385289 0.17950748 0.17841405 -0.04456859
0.1404115 0.0651705 0.14215986 -0.0011422993 0.007956919 0.17146182 -0.048952635 0.1891096
-0.08175841 0.041380137 -0.03648846 -0.103876494 0.12340488 0.12459908 -0.13298528 -0.054112043

gcn4.w f4 [32, 32]
00000000: d791 c5bc 7637 ddbd 4ba7 b0bd 783c 80bd
00000010: cf48 15be c23c aa3d 424f 20be 79a2 10be
00000020: d879 fd3d d8c7 a0bd 7346 2d3e f5e2 cd3b
00000030: f6fb 083e 1035 12bc a154 bd3d 8431 043e
00000040: 7ab0 eb3d 4fc9 d2bd f561 8abd c75a bd3d
00000050: a070 35be 5470 e03d 118a ae3c 447b a33c
00000060: 4753 be3d 4b96 333d 9ee5 983c 6afc 38be
00000070: 29c2 0e3e 8ee4 23be 8060 313d a7e8 b93d
00000080: 23c1 76bd 5d2a 0dbe 08f2 413d cd12 6a3d
00000090: 89b9 943d 8726 6d3d b618 f13d f43d 24be
000000a0: 7cb8 b8bd 7eb8 863d 1553 293c 2a3d e53c
000000b0: 1198 3b3e 573c ba3d 022d 94bc fa28 9a3d
000000c0: e155 363e 5f4b 063e 422a 45bd ff4f 45bd
000000d0: 456e 0dbe 699f 77bc baa7 cebd 7e3b ab3d
000000e0: 611c 0b3e b2f7 493d a065 7e3d e6bc c63d
000000f0: d08b dfbd 2eb9 0b3d f01d e23d f7df fd3d
00000100: adbc 60bd 6720 2abe 3427 f83d 01e5 363e
00000110: aab4 223c cf8f 23be e891 b0bd 7e5c fbbd
00000120: 370b 303e 3e9c a5bd 62cc f33d d550 b13d
00000130: 3e2b 293e 54a9 2f3e 61cc 4bbd b0e6 333b
00000140: f8a8 eebd 5277 1d3e 8b71 2d3e 475d 85bd
00000150: 7c7b 893d 0f04 e2bc f938 083e a94e 443c
00000160: 7d6a 58bd df54 a93d 16f1 89bb 7912 6abc
00000170: 00bf 96bb 03b0 a5bd 47fa 3cbd 1e81 b63d
00000180: b5f6 8b3d e28c 38be c176 393e ff28 3fbd
00000190: 950a acb9 616c 8dbd 5cce 20be 601a 9a3d
000001a0: 58be b13d 7ccc 123d 7a45 0a3d 57e8 9ebc
000001b0: 1147 f0bd 1c94 273d b816 3ebd 9c3d 13be
000001c0: ceea ff3d f9a0 273e acfb 47bd 601a 113e
000001d0: ac1d 3f3e 1609 92bd d033 fdbd a4c3 383e
000001e0: 339e 0a3e cb8e bdbd 3b6a b93c 86ca cfbd
000001f0: 81c8 40be afa7 153e 311b 0b3d 0d5a bb3b
00000200: 987c 273d 98c6 10be 24bf c93d 7fce 153e
00000210: 7936 40bd c468 bd3c 9c57 2fbe 74d9 5d3d
00000220: 5ab3 0c3b e10b 20be 063d 073e 6305 863c
00000230: b666 ffbd 1973 29be 89b7 7bbd 99f2 323d
00000240: 6f29 19be 6356 7ebd 1aae a93d 0f81 06be
00000250: da38 8dbd c12d 11be 2320 fa3d 9c79 9939
00000260: 0ccf 243e 7906 c13d 2a66 a83d abb4 e4bd
00000270: 825d aabd 765f 19be 02ac 05be e7e0 5bbd
00000280: fa66 f33d 5dd5 cbbd 966f 2b3d 1919 2b3e
00000290: bee5 233d b056 dbbd 07c1 ef3d 46d1 283e
000002a0: abfc 39bd 71be a93d a872 253e 932f f43d
000002b0: 2fd4 01be 2989 22be aec2 12bd b2d2 e4bd
000002c0: 8980 6bbc 7d8c a73d 8aae e3bd 8182 ee3d
000002d0: 5add 33be a9a9 eb3d c818 f23d 7acc fbbd
000002e0: 785d 463d ef69 ea3d 191c 7dbc 8581 0fbe
000002f0: dbb4 3b3d 481b 26bc 6d84 88bd 9182 a03c
00000300: 072f 133e c3fd f8bd 525b 98bc 5a55 d8bd
00000310: 84b3 b3bc eed3 dd3d fb18 e83d 39e9 403e
00000320: f985 783d 0fc1 2b3e eb13 f13d 0001 f23d
00000330: 1695 b1bc 8b4b 2b3e 2591 9c3d 3082 fa3c
00000340: e1b1 383e e15c 093e a344 203e ba53 babd
00000350: bc06 56bd 4ce0 7a3d 428a 17be 8005 0b3c
00000360: 491f 5fbd ef67 c93d 7ed7 0bbe 3d62 903d
00000370: b171 37be a159 693d 73e6 af3d 17cb e73d
00000380: fe82 4abd 1729 b9bd b78a 5d3d 9261 f6bd
00000390: 2212 11be 26fd d9bd 88a1 10be ea70 353d
000003a0: 1908 e4bd 8faf d03d 0496 763d 50e1 8cbd
000003b0: 25f4 8fbd 7097 1e3d 99fc 13be 177b 9cbd
000003c0: 8d7c 953c 0523 74bd 79c3 283e a391 0e3b
000003d0: ee73 3cbc 7d64 8b3d 3ade 2b3e 9117 82bd
000003e0: 0c5e 3abd 49d1 953d 4c05 ae3d 9d92 06be
000003f0: 2987 17bd d6b1 08bd d58b 91bc 0ba7 693d
-0.024117393 -0.10801594 -0.086256586 -0.062615335 -0.14578556 0.0831237 -0.15655234 -0.14124478
0.123767555 -0.07850617 0.16921405 0.006283159 0.13377365 -0.008923784 0.09244657 0.12909514
0.115082696 -0.10292303 -0.06756965 0.0924583 -0.17718744 0.10958925 0.02130607 0.019956239
0.09293228 0.043844502 0.018664178 -0.18065038 0.13941254 -0.16005155 0.04330492 0.09077578
-0.060242783 -0.13785692 0.04734996 0.057146836 0.072619505 0.05789807 0.11772291 -0.16039258
-0.090195626 0.06578158 0.01033475 0.027983267 0.18319727 0.0909354 -0.018087868 0.07527347
0.17806198 0.1311469 -0.048136003 -0.048171993 -0.13811596 -0.01511369 -0.10090585 0.083609566
0.13585044 0.049308486 0.062108636 0.09703998 -0.10915339 0.034112148 0.110408664 0.123962335
-0.054867435 -0.16613923 0.121168524 0.17860796 0.009930769 -0.15972827 -0.086215794 -0.12273501
0.17191778 -0.080864415 0.11904217 0.086579956 0.16520402 0.17154437 -0.049755458 0.0027450733
-0.11653322 0.15377548 0.16937844 -0.06511932 0.06713006 -0.027589826 0.13302983 0.011981645
-0.05283593 0.08268141 -0.004209648 -0.014286631 -0.0046004057 -0.08090212 -0.04613712 0.08911346
0.06834165 -0.18022493 0.18111707 -0.046669956 -0.0003281428 -0.06905437 -0.1570372 0.07524562
0.08678883 0.035839543 0.033757664 -0.019397898 -0.11732305 0.040912732 -0.046408385 -0.14378971
0.12495957 0.1637 -0.048823997 0.14170218 0.18663663 -0.07130639 -0.12363398 0.18043381
0.1353691 -0.09255751 0.022633662 -0.1014605 -0.18826486 0.14614747 0.03396148 0.005717522
0.040890306 -0.14138258 0.0985091 0.14629553 -0.04692695 0.023121245 -0.17123264 0.054162458
0.0021469207 -0.15629531 0.13206872 0.01635999 -0.124707624 -0.16547813 -0.06145433 0.04368839
-0.14957212 -0.062094104 0.0828516 -0.1313517 -0.06895609 -0.1417761 0.12213161 0.0002927304
0.16094607 0.09425063 0.08222611 -0.11167272 -0.083186164 -0.14977822 -0.13053897 -0.05368128
0.118848756 -0.09952805 0.041854464 0.16708793 0.04001402 -0.10709894 0.11706739 0.16486081
-0.04540698 0.08288277 0.16157019 0.119231366 -0.12678598 -0.15872635 -0.035830192 -0.111729994
-0.014373907 0.08181093 -0.11117275 0.116459854 -0.17564908 0.115069695 0.11821133 -0.1229486
0.048428982 0.114459865 -0.015448594 -0.14014252 0.045826774 -0.01013834 -0.06665883 0.019593509
0.14373408 -0.12157776 -0.018598232 -0.105631545 -0.021936186 0.10831438 0.1133289 0.18838967
0.06067464 0.16772865 0.11771377 0.11816597 -0.021677535 0.16728036 0.076448716 0.030579656
0.18036605 0.13414337 0.15651183 -0.09098001 -0.052252516 0.061249062 -0.14798835 0.008485198
-0.054473195 0.09834277 -0.13656422 0.070499875 -0.17914464 0.056970242 0.085888766 0.11318033
-0.04944133 -0.090410404 0.054087367 -0.12030329 -0.14167073 -0.10643987 -0.1412412 0.044297136
-0.11134357 0.10189735 0.06020166 -0.068789124 -0.07028989 0.03871864 -0.14451827 -0.07640665
0.018247867 -0.05960371 0.16480817 0.0021754287 -0.011502249 0.06806276 0.16783991 -0.06352151
-0.045499846 0.073153086 0.08497104 -0.13141866 -0.036994133 -0.033372723 -0.017766872 0.05704407

fc1.weight f4 [32, 2]
00000000: 5e75 743d 4890 d6be 45de a83e 0420 e9bd
00000010: c037 87bd 495e 35be f22c b43d 4bc1 86be
00000020: ae2d fdbe bd8c 8fb8 005e b8be bcfb 0abf
00000030: 468c 0dbf bbad 5fbe acbe 3b3e 61b0 06bf
00000040: 625c 15bf 243a 083e 5bde 553e 7d79 123f
00000050: a072 d4be b7a4 c3bb ea2b ce3e b181 fd3d
00000060: 239f 3b3d 9585 09bf 0586 1dbd 3327 e73d
00000070: ac35 9c3e f99f f3bd 1c29 d73e c382 cbbd
00000080: 3010 0d3f 2110 10bf f91d ff3e 98ba 043e
00000090: 18bc 0a3f b7fd f1bd 7003 04bf c50b b33e
000000a0: 3d1f 653e cb31 e5be 8d0a 24bf 9420 ee3e
000000b0: dc1d 023f e045 383e 3bba b3be 61d2 933e
000000c0: 210e b53d f79d 823d 5911 9abe deb8 ed3e
000000d0: 4e59 02bf 7a3d 883e 4091 be3e e833 a83e
000000e0: 0922 323f e509 9dbd eb56 2ebe c9b5 f63e
000000f0: e7a8 d13e 8bf2 be3e b594 70bd f771 d23e
0.059682243 -0.41906953 0.32982078 -0.113830596 -0.0660243 -0.17711748 0.08797635 -0.26319346
-0.49448913 -6.844986e-05 -0.36009216 -0.54290366 -0.55292165 -0.21843617 0.18334454 -0.5261288
-0.5834409 0.13303429 0.20885603 0.57216626 -0.41493702 -0.0059705633 0.4026788 0.12378252
0.04580606 -0.53719455 -0.03845789 0.112867735 0.30509698 -0.11895747 0.4202355 -0.0993705
0.55102825 -0.5627461 0.49827555 0.12961805 0.5419326 -0.118159704 -0.51567745 0.34969917
0.22375198 -0.44764552 -0.640786 0.4650923 0.5082681 0.17995405 -0.3510302 0.28871444
0.088405855 0.06377786 -0.3009136 0.46430105 -0.5091752 0.26609403 0.37220192 0.328521
0.69583184 -0.07667903 -0.17025344 0.48185566 0.40949175 0.3729442 -0.058735568 0.41102573

fc1.bias f4 [32]
00000000: 45c1 2c3e b6c5 0ebf 780a d3be 3ec8 42be
00000010: 74f1 87be fe9d e5be 1fcd 5e3e 9c6e 29bf
00000020: dd90 2abf 12f2 57be f8ad df3e c6b3 f0bd
00000030: f797 5b3e 4746 1fbf 3f7e 03bf 2421 833e
00000040: 8d4e 3fbe ad13 1d3f 6b95 c73e 28b0 b1bc
00000050: 1297 0f3e d55f 28be b457 81be ecbe 10bf
00000060: 50f2 f7bd d041 e13e ce3f 61be 2707 223f
00000070: 3d2d 0c3f f333 643e c693 13bf c767 143f
0.16870601 -0.5577043 -0.41218925 -0.19021699 -0.26551402 -0.448471 0.21757935 -0.661844
-0.66627294 -0.21088436 0.43687415 -0.11753039 0.21444689 -0.6221661 -0.5136451 0.25611222
-0.18682308 0.6135815 0.38981184 -0.021690443 0.14022473 -0.16442807 -0.25262225 -0.56541324
-0.12106764 0.43995523 -0.21996996 0.63292164 0.5475653 0.22285442 -0.5764736 0.5797085

output_1.weight f4 [24, 1056]
00000000: 7ed3 a7bc 4ecd a93c ec0b 88bc a062 0bbb
00000010: 54d0 ae3c a291 e33c 50e6 633c 2fe8 7cbc
00000020: fa31 5bbc 0583 ddbc f880 3dbc a347 f8bc
00000030: 005d 9db8 28c3 613c d0a3 c33b 0041 113a
00000040: f052 1cbc aca6 f13c 6ce0 bcbb 801b a039
00000050: 82d9 dcbc e626 5bbc 50b6 e03c 70bb cfbc
00000060: 68e1 34bb 9b89 f9bc 44a4 5fbc 205d 78bb
00000070: 006a 853a 3831 953b 5010 87bb 205c 3eba
00000080: 5d9c c5bc e6dd 6ebc 70c8 d2bc d4f8 7a3c
00000090: c860 ccbb cab4 e7bc ce08 c6bc bce5 993c
000000a0: a05f e73a e057 c7ba bcc4 3dbc 2410 593c
000000b0: 3042 3d3c d1b5 abbc eed6 c9bc d06d f43b
000000c0: 9c1a 343c c8b7 81bc eb69 f6bc 6c45 043c
000000d0: 046e e23c ca28 8dbc 90aa a43b 8e7b 1ebc
000000e0: 706b 803c 787f 803c dc3b f8bc e0e9 03bc
000000f0: 00ec b63a 1cd6 b1bc d8e0 d8bb 0296 9abc
00000100: 18a7 cbbb 7e68 e63c 80ef 5239 244f 89bb
00000110: 4ae5 03bc c0cf 95b9 d316 b7bc c4b7 e7bb
00000120: ec50 673c 0063 a43c a474 d23c ccaf 4d3c
00000130: 614a debc 003b 53bb d0a4 c93b b29c d33c
00000140: 8451 d9bc 38c3 81bb a6bf 9fbc 8b1d f3bc
00000150: fcfe 183c c816 08bc ceaf a83c bccc b33c
00000160: 2ceb 36bc ad9c cebc 96d9 70bc 860e afbc
00000170: 3ae4 e7bc d2cd e63c a0cc 883c b0ea dfbb
00000180: 9899 f1bb d8b5 57bc 5c17 58bc a4ae 7dbc
00000190: fbb1 86bc 6c5c f8bb 4030 df3b 1249 1dbc
000001a0: 1cee a43c 1096 cf3c 0706 bcbc 52dd 1bbc
000001b0: 4837 d13b e6c2 4dbc 9ea2 f7bc 581f 893b
000001c0: d0ae 1c3b 3c60 b2bc 2090 f0bb 7290 68bc
000001d0: fc45 0e3c ac72 f53c 88d6 61bc 7610 43bc
000001e0: 85be c6bc 9438 91bc 20c3 e43a 4066 93bb
000001f0: 8c9c 223c d829 afbc 8095 2e3a 460d 2dbc
00000200: 4044 433c dc56 c73c 3ebd 5bbc 3e99 b03c
00000210: 1e52 3bbc 0033 3b3a d4f6 a13c e4e6 0b3c
00000220: d081 84ba 0299 3cbc 14fd aabc 1c7e b8bb
00000230: 4455 db3c 0d67 f3bc c8c2 483c 1e0e b1bc
00000240: 6c71 083c da15 58bc 2276 803c 2625 b2bc
00000250: e0d3 19bc 0879 c1bb 409a 3d3a 9080 61bb
00000260: bafb b03c 90bd 833c 0e86 c23c c48f 733c
00000270: 2aec b03c 1ce4 843c dac5 49bc 904b 28bc
00000280: 0039 b23c 58e4 1d3c e87f b23c 76a0 9a3c
00000290: e0e7 2cbb ace0 cc3c 7003 b13b 594e 83bc
000002a0: 1810 373c 384d 953b 1a3c 00bc 42ca 9d3c
000002b0: f8c8 853c 6afe b8bc 6564 e6bc 34bb 413c
000002c0: 50ac f83c 00de 2e3c 24ba 343c 20fd 8fba
000002d0: 348d 533c d49e a7bb 2686 e23c 2078 9fbc
000002e0: 38c0 a93b 9813 763c 9ffe e2bc d0ce 1f3c
000002f0: 4868 a43b 4776 7bbc 5dc0 f2bc a0de da3b
00000300: 708f ed3b d8d5 ae3c 9010 9cba a06a ac3b
00000310: 4066 2dbb 446d 4a3c 124a 993c 3047 53bb
00000320: bee1 e1bc f35b 91bc 0866 a73c 40b7 4dbc
00000330: 787b 2fbc 303c 0cbb 90fb 623b e470 47bc
00000340: 043c abbc d8f7 cabb e05e b83b a4b7 e33c
00000350: a6e0 8abc 60b1 4a3c 28b5 db3c 7808 b13c
00000360: 9af0 aabc 26d5 a23c 78be dcbb 3824 80bc
00000370: 605e ae3b de1a f13c 287f 89bc daf6 e43c
00000380: 9488 793c ca0a fa3c 4cef 673c cc3a 1abc
00000390: 2099 9d3a 10bc 8abc 6c95 13bc 7e80 983c
000003a0: c4d2 cabb 30c9 793b c89b 8c3c 2190 d7bc
000003b0: a25f 8e3c dcf7 c6bc 406d 1a3a daca 71bc
000003c0: 58ad c03c e0f6 39ba 0c1a b2bc f084 b83c
000003d0: 4a54 83bc a0e8 973b c6e2 d2bc 700b 45bb
000003e0: f888 91bc dedf dcbc 54eb e03c 985e 3fbb
000003f0: 7c6d d03c dead de3c c810 9ebc 94ac ce3c
-0.02048659 0.02072778 -0.016607247 -0.0021268502 0.021339573 0.027779404 0.013909891 -0.015436216
-0.013378615 -0.027040014 -0.011566393 -0.030307597 -7.503666e-05 0.013779439 0.0059704557 0.0005540997
-0.009541258 0.02949842 -0.005764058 0.00030538067 -0.026959185 -0.013375973 0.027430683 -0.025357932
-0.0027600173 -0.030461123 -0.013650004 -0.0037897304 0.0010178685 0.0045529865 -0.0041218176 -0.00072616525
-0.024122411 -0.014579272 -0.025730342 0.015318114 -0.006237123 -0.02828445 -0.02417412 0.018786304
0.00176524 -0.0015208684 -0.01158255 0.013248477 0.011551425 -0.02096072 -0.02463862 0.0074593797
0.010992672 -0.015834704 -0.030079802 0.008073192 0.02764035 -0.017231364 0.0050252154 -0.009673012
0.01567623 0.015685782 -0.03030198 -0.008051366 0.0013955832 -0.02170854 -0.0066186003 -0.018870357
-0.0062149875 0.028125998 0.00020116381 -0.0041903425 -0.008050272 -0.0002857428 -0.02234975 -0.007071467
0.014118414 0.020066738 0.025690384 0.01255412 -0.027135076 -0.0032231212 0.0061536804 0.025831554
-0.026528127 -0.0039600395 -0.019500565 -0.029677173 0.009338137 -0.008306213 0.020591643 0.02194821
-0.011164468 -0.025221193 -0.014700314 -0.02136923 -0.02830707 0.028174315 0.016699135 -0.006833397
-0.007373046 -0.0131659135 -0.013189163 -0.015483532 -0.01644229 -0.007579377 0.006811172 -0.009599941
0.02013307 0.02534011 -0.022952093 -0.009513216 0.006384764 -0.012558674 -0.03022891 0.0041846447
0.0023907907 -0.021774404 -0.0073414 -0.014194595 0.008683678 0.029961906 -0.013784058 -0.01190578
-0.024260769 -0.017727174 0.0017453171 -0.004498273 0.009925019 -0.021382257 0.00066598505 -0.010562247
0.011918128 0.02433341 -0.013411818 0.021557447 -0.0114331525 0.00071410835 0.019771017 0.008538935
-0.0010109488 -0.011511089 -0.02087263 -0.005630268 0.026774056 -0.029712224 0.012253471 -0.021613177
0.008327823 -0.013188804 0.01568133 -0.02174623 -0.009388894 -0.0059043206 0.0007232763 -0.0034408905
0.021604408 0.016081601 0.023745563 0.014865819 0.021596987 0.016222052 -0.012315238 -0.010271922
0.021755695 0.009636961 0.021789506 0.018875342 -0.0026383325 0.025009476 0.005402021 -0.01602857
0.011173271 0.0045563243 -0.007826829 0.019261483 0.01633118 -0.022582252 -0.028124044 0.011824418
0.030355603 0.010673046 0.0110307075 -0.0010985471 0.012912083 -0.0051153693 0.027651858 -0.01946646
0.005180385 0.01501932 -0.027709303 0.009753898 0.005017314 -0.015348024 -0.029632742 0.006679371
0.007249765 0.021342203 -0.0011906791 0.005261734 -0.002645865 0.0123551525 0.018712077 -0.0032238476
-0.027573463 -0.01774404 0.020434394 -0.012555897 -0.01071059 -0.002139818 0.0034634806 -0.012172911
-0.020902641 -0.006194096 0.0056265444 0.027797528 -0.016952824 0.012371391 0.02681978 0.021610484
-0.02086668 0.019877028 -0.006736573 -0.01564227 0.005321309 0.029431757 -0.016784266 0.02794974
0.015230317 0.030522723 0.014156174 -0.009413432 0.0012023784 -0.016935378 -0.009007793 0.018615957
-0.006189676 0.0038114302 0.017164126 -0.026313843 0.017379586 -0.02428811 0.00058909133 -0.014757836
0.023520157 -0.0007093977 -0.021740936 0.022524327 -0.016031403 0.0046358854 -0.0257429 -0.0030066632
-0.017765507 -0.026962217 0.027455963 -0.002920067 0.025442831 0.027182516 -0.019295111 0.025228776

output_1.bias f4 [24]
00000000: 3a3e 76bc 7449 dd3c 0867 90bc 440c 983c
00000010: 9972 c4bc 7ae4 edbc 8b1c cebc 5ec3 bd3c
00000020: 90dc 013b 96e4 873c fc9a 1e3c bad9 bb3c
00000030: 76e3 60bc 4263 82bc 66a2 92bc 8ca7 7c3c
00000040: 9023 803c 82cc b43c 6cdb cfbc b82f e53c
00000050: 6bd5 b0bc bb1f d8bc 4c70 0b3c 8c2f 5a3c
-0.015029484 0.027012564 -0.017627254 0.018560536 -0.023980426 -0.02903961 -0.025160095 0.023164447
0.0019815303 0.01658849 0.009680506 0.022930969 -0.013726106 -0.01591647 -0.017899703 0.015420806
0.015641958 0.022070173 -0.025373183 0.027976856 -0.02158614 -0.026382318 0.00851066 0.013317

fc2.weight f4 [32, 1056]
00000000: 83b2 6c3c 3189 bf3c 1663 fabb 8eba 7cbb
00000010: e60d 383c 9b83 a6bc b491 c3b8 e439 41ba
00000020: bb5c acbc a740 0e3d 28b9 6e3c a4d2 9fbc
00000030: 4478 cdbc a14d 23bb 7e06 68bc 48fc adbc
00000040: 6443 e9bc e314 ad3b d5c0 30bd 5a44 2dbc
00000050: acb6 2abd 4713 d63c 64e0 ffbc a208 4d3c
00000060: b2a0 913b dd9b f83b beb4 773c d811 aebc
00000070: d618 2dbc 7e22 103d 056a 673c d512 b53c
00000080: ec63 1cb9 f3a3 fbbc 199c 0a3c cfb0 e1bb
00000090: 7f3c 36bc 50c5 8fbc a6fc ed3c 7ef3 253c
000000a0: 2c0f 783c 9168 373d 8eef 2c3d 63aa 173c
000000b0: eea4 f93b 680e d2bc 4dde 5dbc 0037 44bb
000000c0: c612 0bbc fc54 b23b 3649 153c 5aae a7ba
000000d0: 7d18 e5bc 8371 4b3c 8455 72bc 7722 1dbd
000000e0: 8e92 cf3c e2d3 edbc 59bc 173d 2e05 79bc
000000f0: a27b babb 86ca dc3c 9d58 9fbc fb27 f2bc
00000100: 205d 6dba 89ae 3dbc 634c ea3c f514 ed3b
00000110: d3ac a93c 54cc aebc 8629 f13c 77f7 383d
00000120: 4833 94bc 30ee ae3c 3014 f53c e6d4 12bd
00000130: 4c5a 6dbb 509f 0fbd 5c73 a7bb ad1a fcbc
00000140: 953c 503c d11b 113b 9c71 8ebc 32e1 673c
00000150: 1c29 0cbd 7aef 233d 9c8d 29bd faab 13bd
00000160: 0354 2a3d acf2 743c 0d33 c63c 2f61 2cbc
00000170: 19a8 03bd 6b6c c33c 03f0 393c 3a63 1a3d
00000180: f4fa f63c ac85 d13c a0ad c93c 2dac 9c3b
00000190: e256 99bc 50d4 94bc 60bc e43c 9ba7 633b
000001a0: 74d3 25bc 51df da3a 3424 343c 3a3a cabb
000001b0: ce5f 7abc fedc 92bc 4517 a6bb ed10 78bb
000001c0: 5a10 2ebb 606e 193d ea1c c8bc 18cb 1e3d
000001d0: 15e9 d2bc e56d 183d e7c7 22bd 9141 183c
000001e0: 256a e53c 55c2 b6bb 6057 dabb e733 99bc
000001f0: 63e8 36bd 438e 1d3c 86a2 0e3d c305 093d
00000200: 3430 223d b6d6 043c 5250 883c 4066 09bc
00000210: 6b5a 003c 0c0b a5bc 52c4 a8ba 14b5 1bbc
00000220: 967f 4d3c 75bf 223d 9c26 14bc e80f 27bd
00000230: d08c 1cbd a752 2dbd 281c bb3b 4dab dd3b
00000240: e6b5 cfbc 6fd0 9ebb 0099 483c b641 3e3c
00000250: cc7f a0ba 875d c43c 894b 5b3b 1a81 573c
00000260: f748 1dbc 2e6f 1cbc 7aa9 6d3c a5f1 d4bc
00000270: 7cf3 16bd a585 d8bb c6db d13b 7141 59bc
00000280: 0106 fe3c bc20 a8bb b2d8 913c f0a1 193c
00000290: 30cd 89bc 4803 bf3b 83da 1f3d 463f dc3a
000002a0: 50a1 ee3b 61c7 98bb e9ff 1b3c 9946 26bd
000002b0: 0e92 afbc eac5 24bd caa0 003c c1d4 e43c
000002c0: e8ba b4bc 53dc 0dbc 9230 a7bc c008 d93c
000002d0: 241c 7c3c f8c0 e63c f882 603c 3b66 dabc
000002e0: 8286 083d 8001 1ebd e5d7 a73c 78ea 94bc
000002f0: 631a a2bc fcdf 1d3d 0459 d53c 5c83 ae3c
00000300: c7de 193a fd0d e03c ebef a63c 60dd 653c
00000310: 636b f43c fbf7 87bc 11df 83bc 9d6a d2bb
00000320: fc40 ecb9 0d0f 303d 75c8 803c 57e7 65bc
00000330: 7383 4cbc 6905 2cbd 6d91 9c3b 9cc7 d4ba
00000340: 8dc3 ecbc e4ef 353d 86a6 9bbb 7d13 bf3c
00000350: 60a6 293c 58bc 8c3c 0a5c d2bc 2380 32bd
00000360: d92a 1cbc 72c4 babc 4ac7 b33c 9a90 6dbc
00000370: bd62 733b 1c28 1e3c 45a3 a43a 64e0 54bc
00000380: 3c08 a03c cf55 263c 801e 5abc f709 9fbc
00000390: 000e de3c 2ce7 90bc 1f38 2a3d 1356 213d
000003a0: 76d8 d83b 05f4 863c 505f 05bb ef6e 7a3c
000003b0: 9a58 263c c81c d93b c208 45ba 3190 643c
000003c0: 3cc7 c6bc c918 1b3d fc14 42bc eed7 74bc
000003d0: 71dc e63b f60c 7dbc f1c0 8dbc 0b15 0f3c
000003e0: 449b d13b eaac 16bd 6815 363c 3ab3 a6bc
000003f0: e5d2 d9bc 0ab6 3d3d 8ca0 fabb a7e7 453c
0.014446857 0.023380848 -0.0076412065 -0.0038563344 0.011233782 -0.020326426 -9.325464e-05 -0.0007370992
-0.021040311 0.034729626 0.014570512 -0.019509621 -0.025081761 -0.0024918097 -0.014161704 -0.021238461
-0.028474517 0.005282031 -0.04315265 -0.010575378 -0.041678116 0.026132239 -0.031234927 0.012514265
0.004444205 0.0075869397 0.015118776 -0.021248743 -0.010565003 0.035189144 0.014124398 0.022103706
-0.00014914543 -0.030717826 0.008460068 -0.0068875323 -0.011122822 -0.01755014 0.029051136 0.010128854
0.015140336 0.044777457 0.042220645 0.009256932 0.007618538 -0.025641635 -0.01354177 -0.002994001
-0.008488363 0.00544226 0.009111693 -0.001279305 -0.027965778 0.0124172 -0.014790896 -0.038362946
0.025338437 -0.029031698 0.037044857 -0.015198989 -0.0056910077 0.02695204 -0.019451434 -0.02956008
-0.0009054709 -0.011577257 0.028600877 0.0072351643 0.020712292 -0.021337666 0.029438745 0.045157876
-0.018090859 0.021353811 0.029916853 -0.035847567 -0.0036217151 -0.03506404 -0.0051101875 -0.030774439
0.012709756 0.0022141824 -0.017388158 0.014152812 -0.034218892 0.040023305 -0.041394815 -0.03605268
0.041584026 0.014950436 0.024194265 -0.010521217 -0.032142732 0.023855409 0.011348727 0.037692286
0.03014896 0.025576435 0.024618924 0.004781267 -0.018718187 -0.018167645 0.027921855 0.0034737352
-0.010121215 0.0016698634 0.01099496 -0.006171492 -0.015281631 -0.017927643 -0.005068692 -0.0037851885
-0.002656004 0.037458777 -0.02442785 0.038767904 -0.025745908 0.03721418 -0.039741423 0.009292976
0.028004715 -0.0055773654 -0.006663248 -0.018701507 -0.044655215 0.009616437 0.034822963 0.03345276
0.03959675 0.008107832 0.016639862 -0.008386195 0.007834057 -0.02014687 -0.0012875891 -0.009503622
0.012542626 0.03973337 -0.009042408 -0.040786654 -0.038220227 -0.04231515 0.0057101436 0.0067648054
-0.02535529 -0.0048466246 0.012243509 0.011612346 -0.0012245118 0.023970379 0.003346177 0.013153339
-0.009599916 -0.009547992 0.014505738 -0.025994131 -0.0368533 -0.0066077285 0.006404373 -0.013260231
0.031008722 -0.0051308554 0.017803524 0.009376988 -0.016821474 0.0058292486 0.03902675 0.0016803525
0.0072824135 -0.0046624397 0.009521463 -0.04059467 -0.021431949 -0.040227808 0.007850835 0.02793348
-0.02206178 -0.008658486 -0.020408902 0.02649343 0.015387569 0.028168187 0.0137031 -0.026660075
0.0333314 -0.03857565 0.020488689 -0.01817821 -0.019787973 0.038543686 0.026043423 0.021302871
0.0005869683 0.02735042 0.020378074 0.014029831 0.029836362 -0.016597738 -0.016097577 -0.0064214007
-0.00045061845 0.042983104 0.015720585 -0.0140322065 -0.012482512 -0.041997347 0.0047780783 -0.0016233805
-0.02890184 0.04441823 -0.0047500758 0.023324722 0.010354608 0.017179653 -0.025678653 -0.043579232
-0.0095317 -0.02279875 0.021945614 -0.014499808 0.003713771 0.0096531175 0.0012560865 -0.012992952
0.019535176 0.010152294 -0.013312936 -0.019413931 0.027106285 -0.017688356 0.041557427 0.039388727
0.006617601 0.01647378 -0.0020351 0.015285238 0.01015296 0.0066257454 -0.00075162586 0.013950394
-0.024264924 0.037865434 -0.011845823 -0.01494406 0.0070453216 -0.015444985 -0.017303916 0.008733044
0.006396683 -0.036785997 0.011113502 -0.020349134 -0.02658982 0.046316184 -0.007648533 0.012079156

fc2.bias f4 [32]
00000000: e219 f13c 118c 5c3b 67cd b93c 011a cdbb
00000010: 527c c1bc 782e bf3c 079f 2ebc 07e2 df3b
00000020: 23c8 133d 9434 003c dfb3 18bc 28fb a5bb
00000030: b8fb 113c 8757 9abc 7afd 4ebc 3dbf f0ba
00000040: 76a0 c33b accb 083d a71b 8abc a380 143d
00000050: 5d8f ba3c d000 8ebc ed00 02bc 98d2 babb
00000060: 442f d4bb e735 7a3c 41e5 923c d29e d3bc
00000070: d415 ed3b 0648 15bc bb26 cf3c e014 80bc
0.029431287 0.0033652822 0.022680951 -0.0062592034 -0.02361885 0.023337588 -0.010658032 0.0068323645
0.036079537 0.007825036 -0.009320228 -0.0050653405 0.008910112 -0.018840564 -0.012633676 -0.001836754
0.005970056 0.03339736 -0.016858889 0.03625549 0.022773439 -0.017334372 -0.007934791 -0.0057013743
-0.006475361 0.01527164 0.017931582 -0.025832567 0.007235268 -0.00911141 0.025287023 -0.015634954

fc3.weight f4 [10, 32]
00000000: a18f 013e 8333 08be 29ff c63d 3482 57bd
00000010: 14c2 6f3d 6840 ccbd 4733 7a3d 086f 853d
00000020: 85f2 5e3d 44fc a4bd 83d0 03bd 519e a8bd
00000030: f4cc 0f3e ca44 0fbe 1751 353e e478 7f3c
00000040: 5979 d13d 3e23 f43d e4c9 dabd 8989 abbd
00000050: 80be 78bd 3582 0b3e 3173 dfbd 23b1 37bd
00000060: ccbf d3bd c0f4 7637 ab6a ae3c 438c 703d
00000070: b9b6 7a3c cf0e e73d d12d fdbd 1345 e13c
00000080: fe06 163e b7e0 0cbe d301 1cbe 43e3 6fbd
00000090: eaff db3d 93c1 233e 3b53 523d 16fe 923d
000000a0: a82c 3b3e 8702 95bd f7b6 453e 46f1 6c3b
000000b0: 6ebb fcbd f2ae e7bb 14c9 373e a366 8e3d
000000c0: 56b3 0c3d d2ca 8abd 4d44 63bd 61a8 5d3d
000000d0: 9eca 0cbd c895 3bbd d637 18be e594 02be
000000e0: 9fc7 183d b986 3a3d e0d5 febd 45f9 f13d
000000f0: ee7e 9c3d 76c9 f2bd c5c3 dcbc 63c2 113b
00000100: 458c bebd fe87 9a3b 02f3 2abd eb7d da3d
00000110: f9e2 16bd 3068 f4bd d298 033e b70d d8ba
00000120: 2a82 cfbd 7094 e6bd adfd 243e 8479 303e
00000130: 85c3 013e f9ff 1ebd b6d0 dfbd 1218 093e
00000140: 8917 0c3e 301c f63d 24ad 103e 8057 463e
00000150: 4ee9 513d 3272 8dbc 1efb 0f3e 6fe2 0fbd
00000160: f00e f83d f70b aebd ff67 00be 9a74 96bd
00000170: b46a 81bc 6522 483e 5794 2ebd dc26 cabd
00000180: 6b1c 293e 5fe4 b4bd 308a d03c 6aa9 3b3e
00000190: cd77 af3d bf88 8a3d c285 22be 645d d4bd
000001a0: 5a86 87bd 6cb5 c0bd df25 e3bd 811d e0bd
000001b0: 1ca9 313e f78d d4bd 1d5a 943d 173d 3bbd
000001c0: 0138 51bd 942f 953c ae55 f0bd eb17 303e
000001d0: aaa6 6a3d 53f3 12be 74c7 183e 6b45 10bd
000001e0: 300a c23c 599f 2b3d f89f c33d 2dda 5a3c
000001f0: 1c79 7cbd b3ca a0bd 6de1 43bb 4c97 2f3d
00000200: 8473 903d 8239 b73d 1155 0cbe fe23 273e
00000210: fb8c d1bd 6c7f b43c 84c4 113e add9 8a3b
00000220: 9dda f93d fc78 6d3d 9f00 323d 74ef 643d
00000230: 84fc 19bc f073 dc3d 9c0e dcbd 3344 243e
00000240: be9c d43d f0ea bbbc 4fc4 183e d8b0 303e
00000250: e84d 4ebd 42fb 853d 953f ec39 f49d 89bb
00000260: 540b 8d3d 4127 ee3d 0c2b 1e3e 0444 923b
00000270: 8d9a b03c 952e 6e3c 3058 053d 0cb9 f93c
00000280: a0e7 393e c2b3 06be 5b5f 4f3d d282 cebd
00000290: 47b4 13be 2b17 aa3d f293 633d 2e14 24be
000002a0: 6fc7 0e3e 0cef a6bd 8513 4a3e 7686 e53c
000002b0: ad93 0d3e d5bc 183d 60c6 de3d 0585 053c
000002c0: 9d4d 2e3e 8a0e 303e d140 353d 66d1 053e
000002d0: 2d41 00be e7ae 143e f03e dabd e6bc 48bd
000002e0: d9f2 043e 7b10 463e f470 573d 5089 5ebd
000002f0: e841 70bd d101 acbc d5d7 e6bc b4cb 9b3a
00000300: 7a62 e1bd 4bdb 7abc 5fdd f43d bc3b 15be
00000310: bb41 173d a9eb 14be 5078 ee3d c1a5 acbb
00000320: baaf 193e 34b5 5fbc 2d85 0c3e 10de f23d
00000330: f751 003d 0be8 84bd 7464 06be f93e 88bb
00000340: 6dde cc3d fd61 15bd b687 abbd 90b7 7ebd
00000350: 0866 00be 24e3 b63d e92b ca39 205e 35bd
00000360: 45da 053e d81f 1b3e c561 6e3d 6034 13be
00000370: 2aab f93d 61fc 073e 83b3 053d 0f3c 703d
00000380: ef4c 143e fa84 aebd efa1 aabd 599d 8ebc
00000390: 64ce 14bc 5884 b3bd c1bf 0c3c cfb9 4a3d
000003a0: 1b53 d03d 0929 a8bb 2c53 db3d 97dc 36bd
000003b0: 2e90 0cbe a7b2 d2bb 1bd3 af3c bd1e 193d
000003c0: 7548 81ba c5b9 3f3e d056 19ba 6d5d 9f3d
000003d0: fe63 233e 708c 823d f4c1 113e 892f 88bd
000003e0: aa31 c8bd c310 c1bc 5ecf e83d d28a 1bbe
000003f0: 04f0 c13d 6501 07be 09fc 1fbd 4bd4 273c
0.12652446 -0.133009 0.09716637 -0.052614406 0.058534697 -0.09973222 0.061084058 0.06515318
0.054430503 -0.08055928 -0.032181274 -0.082333215 0.14043027 -0.13991085 0.17706715 0.015592787
0.10228223 0.119207844 -0.10683039 -0.08375842 -0.06072855 0.13623889 -0.10910643 -0.044846665
-0.10339317 1.4719728e-05 0.021291098 0.058727514 0.015302354 0.112821214 -0.123622544 0.027498757
0.14651105 -0.13757597 -0.15235071 -0.058566343 0.10742171 0.15991811 0.051348906 0.07177369
0.18278754 -0.07275873 0.19308077 0.0036154552 -0.12340437 -0.0070704157 0.17947799 0.0695317
0.034350716 -0.06776966 -0.05548506 0.054115657 -0.03437292 -0.04579714 -0.1486505 -0.12752111
0.03729975 0.045538638 -0.12443137 0.118151225 0.076413974 -0.11854832 -0.026948819 0.0022241108
-0.09304098 0.0047159186 -0.041735657 0.10668548 -0.03683755 -0.11933935 0.12851265 -0.001648358
-0.10132249 -0.11258781 0.16112395 0.17233855 0.12672241 -0.038818333 -0.1092848 0.13388088
0.13680853 0.12017095 0.14128548 0.19369316 0.051247887 -0.017266367 0.14060637 -0.035128053
0.12112224 -0.08498376 -0.12539671 -0.07346459 -0.01579795 0.1954437 -0.042621937 -0.09870693
0.16514747 -0.08832621 0.025456518 0.18326345 0.08567772 0.067643635 -0.15871337 -0.10369375
-0.066174224 -0.094096035 -0.11091208 -0.109431274 0.17349666 -0.1037864 0.0724375 -0.045712557
-0.0510788 0.018211164 -0.11735092 0.17196624 0.05728785 -0.14350633 0.14919835 -0.035222452
0.023686498 0.041900013 0.09551996 0.013357681 -0.061638936 -0.07851162 -0.0029889003 0.042868897
0.07053283 0.089465156 -0.13704325 0.16322324 -0.10231968 0.022033416 0.14235121 0.0042373748
0.121999 0.057976708 0.043457624 0.055892423 -0.009398583 0.10764301 -0.10744974 0.16041641
0.10381459 -0.022939175 0.14918636 0.1725496 -0.050367266 0.06542064 0.000450608 -0.0041997377
0.06886926 0.11628581 0.15446109 0.0044636745 0.02155807 0.014537473 0.032554805 0.030483745
0.18154764 -0.1315451 0.050628047 -0.10083546 -0.14424239 0.083052 0.055561014 -0.16023323
0.13943265 -0.08151063 0.19734009 0.028018218 0.13825865 0.03728946 0.10877681 0.00814939
0.17021795 0.17193046 0.044251267 0.1306816 -0.12524863 0.14519845 -0.106565356 -0.049008273
0.12983264 0.19342224 0.052597955 -0.05433017 -0.058656603 -0.02099696 -0.028179089 0.001188627
-0.11005111 -0.015311073 0.11956286 -0.14573568 0.03692792 -0.14543022 0.116440415 -0.005268783
0.1500844 -0.013654042 0.13722678 0.11858761 0.031328168 -0.06489571 -0.13124257 -0.0041578976
0.10003362 -0.036470402 -0.08375494 -0.062186778 -0.12538922 0.089300424 0.00038561158 -0.044279218
0.13071544 0.15148866 0.05819871 -0.14375448 0.1219085 0.13279869 0.0326419 0.058651026
0.14482473 -0.08521457 -0.08331668 -0.017409014 -0.0090824105 -0.08765477 0.00859064 0.049493607
0.10172101 -0.005131845 0.10709223 -0.044643965 -0.13726875 -0.0064299884 0.021462968 0.03738283
-0.0009863513 0.18723209 -0.0005849423 0.077814914 0.15956113 0.063744426 0.14234143 -0.066496916
-0.09775098 -0.023567563 0.11367677 -0.15189674 0.094696075 -0.13184126 -0.03905872 0.010243486

fc3.bias f4 [10]
00000000: ab2e ecbc 1cbd 703d 50fb 3cbd 3435 01be
00000010: f564 1b3d 3992 433e 4369 2fbd 0464 01be
00000020: 50b0 013e 43e9 27be
-0.028830847 0.0587741 -0.046138108 -0.12617952 0.037938077 0.19098748 -0.042824995 -0.12635809
0.12664914 -0.16397576
