domain_adaption/best_tst_net.pth.tar (torch, 264565 bytes, 16 tensors)

gcn1.w f4 [10, 32]
-0.16877306 -0.08235255 0.0634433 -0.10121769 0.2944857 -0.03868754 0.8180934 -0.07393695
1.0053418 0.19218957 0.4652957 -0.16204424 -0.081287116 -0.10812855 -0.04592152 0.79687965
0.9422807 -0.02033367 0.8377422 0.40982404 0.67689013 0.018673876 0.73487204 0.8576344
-0.2418755 0.35291722 0.7572788 0.7306853 -0.037035216 -0.0506311 1.1418015 0.9530278
0.070157096 -0.031361736 0.09692763 0.047768086 0.06608156 -0.100123875 0.8260605 0.046504766
1.2141467 -0.10243836 0.3218243 -0.059117757 -0.08755061 -0.2628563 -0.14861378 0.72584915
0.80729 -0.14468463 0.6572516 0.20940524 0.8422404 0.226812 0.7357264 0.7360004
-0.29544538 0.4930269 0.7333389 0.63343024 -0.04754959 -0.033366024 0.797391 1.0733244
-0.15107298 0.17905974 0.12828563 0.029022781 0.3297429 -0.249677 0.63733333 -0.09345612
0.90212524 -0.25050586 0.44074893 -0.18332791 -0.02161097 -0.22467041 -0.040402967 0.7873537
1.0772371 -0.019271076 0.5995698 0.6083654 0.794863 0.24420509 0.6576666 1.0668011
-0.052038684 0.48497543 0.5518891 0.75194466 -0.044988625 -0.05101666 0.94513744 1.0196642
-0.02584991 -0.22219487 0.08838771 0.09211593 0.31241158 -0.07387853 0.73444444 0.04736519
0.8437619 -0.09850405 0.46778762 -0.094194755 -0.014389543 -0.14328589 0.030542515 0.5769916
0.6771654 -0.09909278 0.6762722 0.3489828 0.8954307 0.4172357 0.71766275 0.6398123
0.01345208 0.13887614 0.65988004 0.6444592 0.14531314 -0.0872629 0.86855626 0.8085897
-0.11447089 -0.07287964 0.30663392 0.257318 0.40335086 -0.20374994 0.43044987 0.11207052
0.79630274 -0.1088136 0.3832991 -0.012521281 -0.012562127 -0.20059039 -0.12447778 0.7652315
0.6599574 -0.115643114 0.79365695 0.47964042 0.7298712 0.39920327 0.6696176 0.5940314
-0.23468219 0.24644876 0.39654928 0.66941494 0.27628657 -0.08016585 0.8169645 0.6228529
-0.09037227 0.0036180865 0.111236975 0.14625032 0.045887135 0.04826678 0.5546156 -0.038829323
1.0720407 0.21553285 0.5969444 -0.05788232 -0.006070834 -0.0037471598 -0.08184448 0.86608857
1.0168545 -0.20347604 0.5792864 0.4376895 0.5623454 0.17454827 0.7699122 0.96858734
-0.26858386 0.39334506 0.87237746 0.8744814 -0.16875808 -0.09373222 1.1154329 0.9051974
0.00063275185 -0.21122721 0.021730497 -0.19626956 -0.03118992 -0.28133386 0.74946 0.14891385
1.1570743 -0.037450533 0.37722185 -0.1644733 -0.1513843 0.027087156 -0.058379006 0.8408154
1.1146345 -0.089750774 0.9203461 0.5079198 0.68903005 0.28058237 0.6324432 0.9353799
-0.08990053 0.3310579 0.7750259 0.69412553 0.07917848 -0.06636491 1.0243522 0.9615622
-0.19831899 -0.052343417 0.23984076 0.27887097 0.23567672 -0.21116896 0.8319856 0.1825475
1.2131741 -0.16516887 0.443101 -0.16866437 -0.007326417 -0.26145974 -0.04577311 0.8124388
0.9286419 -0.11092834 0.82026446 0.39618823 0.7975522 0.15776333 0.60747117 0.910393
-0.1496887 0.34445047 0.8824818 0.91114813 0.16665508 -0.060946804 1.001664 0.96491224
00000000: d8d2 2cbe 74a8 a8bd 90ee 813d 384b cfbd
00000010: d4c6 963e d376 1ebd 926e 513f 416c 97bd
00000020: 0aaf 803f 58cd 443e 3d3b ee3e edee 25be
00000030: dc79 a6bd 8072 ddbd 3418 3cbd 4e00 4c3f
00000040: 4f39 713f cc92 a6bc 4676 563f 75d4 d13e
00000050: ac48 2d3f f5f9 983c 9320 3c3f ee8d 5b3f
00000060: 36ae 77be 91b1 b43e 06dd 413f 310e 3b3f
00000070: 3db2 17bd 8e62 4fbd 8d26 923f a1f9 733f
00000080: 86ae 8f3d 2a75 00bd fe81 c63d 78a8 433d
00000090: c555 873d bf0d cdbd b378 533f c87b 3e3d
000000a0: 2969 9b3f 34cb d1bd 28c6 a43e 7625 72bd
000000b0: bc4d b3bd 1a95 86be 362e 18be 40d1 393f
000000c0: 8faa 4e3f 3528 14be a441 283f 546e 563e
000000d0: 119d 573f 6841 683e 9158 3c3f 866a 3c3f
000000e0: 9e44 97be 066e fc3e 19bc 3b3f 7c28 223f
000000f0: 5cc3 42bd d0aa 08bd d121 4c3f b262 893f
00000100: e0b2 1abe 705b 373e 4f5d 033e 2fc1 ed3c
00000110: 10d4 a83e 54ab 7fbe 4728 233f ec65 bfbd
00000120: aef1 663f 4e42 80be d8a9 e13e 50ba 3bbe
00000130: 7d09 b1bc 0010 66be 957d 25bd 0390 493f
00000140: e8e2 893f 60de 9dbc 687d 193f d6bd 1b3f
00000150: 247c 4b3f e610 7a3e d75c 283f f08c 883f
00000160: 8426 55bd b34e f83e 9b48 0d3f 727f 403f
00000170: fe45 38bd d8f6 50bd 87f4 713f 5b84 823f
00000180: 31c3 d3bc 0d87 63be 9e04 b53d 47a7 bc3d
00000190: 69f4 9f3e a04d 97bd 8d04 3c3f 0002 423d
000001a0: c800 583f 7ebc c9bd dc81 ef3e 2ee9 c0bd
000001b0: 1ec2 6bbc 89b9 12be 4c34 fa3c b9b5 133f
000001c0: b65a 2d3f 28f1 cabd 2d20 2d3f e0ad b23e
000001d0: f23a 653f eb9f d53e bfb8 373f bdca 233f
000001e0: 1d66 5c3c 8c35 0e3e e6ed 283f 47fb 243f
000001f0: f8cc 143e e4b6 b2bd b459 5e3f bcff 4e3f
00000200: b76f eabd ec41 95bd 1fff 9c3e 2fbf 833e
00000210: 0184 ce3e d3a3 50be ed63 dc3e 3b85 e53d
00000220: 7fda 4b3f aad9 debd c83f c43e 0f26 4dbc
00000230: 61d1 4dbc 9167 4dbe 35ee febd 36e6 433f
00000240: f8f2 283f 4cd6 ecbd 1a2d 4b3f 6e93 f53e
00000250: d7d8 3a3f 5f64 cc3e 0f6c 2b3f 7112 183f
00000260: 8750 70be 105d 7c3e 8208 cb3e c75e 2b3f
00000270: 6f75 8d3e fe2d a4bd 9624 513f 4a73 1f3f
00000280: 1915 b9bd 6b1d 6d3b 36d0 e33d a5c2 153e
00000290: 26f4 3b3d 63b3 453d 4afb 0d3f 7f0b 1fbd
000002a0: a138 893f a5b4 5c3e 59d1 183f 0316 6dbd
000002b0: d9ed c6bb e992 75bb 149e a7bd fbb7 5d3f
000002c0: 4a28 823f 065c 50be 1d4c 143f d718 e03e
000002d0: def5 0f3f c8bc 323e f718 453f 57f5 773f
000002e0: d383 89be 8664 c93e 2154 5f3f 03de 5f3f
000002f0: ebce 2cbe aef6 bfbd 81c6 8e3f 04bb 673f
00000300: 42df 253a f24b 58be 2804 b23c e3fa 48be
00000310: 0182 ffbc fe0a 90be 9cdc 3f3f df7c 183e
00000320: 031b 943f bb65 19bd 3923 c13e b06b 28be
00000330: 7c04 1bbe e2e5 dd3c d31e 6fbd ae3f 573f
00000340: 58ac 8e3f 41cf b7bd cd9b 6b3f 0807 023f
00000350: 4664 303f 7ea8 8f3e cce7 213f 0f75 6f3f
00000360: c51d b8bd 6c80 a93e 1968 463f 36b2 313f
00000370: 5428 a23d 53ea 87bd f91d 833f f128 763f
00000380: 2214 4bbe 0d66 56bd d198 753e 2dc8 8e3e
00000390: 3d55 713e ad3c 58be 02fd 543f bbed 3a3e
000003a0: 4a49 9b3f 0722 29be 22de e23e 5ab6 2cbe
000003b0: 7112 f0bb 0dde 85be 967c 3bbd fdfb 4f3f
000003c0: 7abb 6d3f 662e e3bd dafc 513f 2fd9 ca3e
000003d0: 622c 4c3f b68c 213e 3b83 1b3f 840f 693f
000003e0: ff47 19be d05b b03e 54ea 613f 0141 693f
000003f0: a1a7 2a3e 5ba3 79bd 8736 803f 7d04 773f

gcn2.w f4 [32, 32]
-0.03127674 0.07408673 0.005032626 0.0727809 0.1891845 -0.091369845 -0.0780377 0.010550241
-0.12268972 -0.05070903 -0.01886765 -0.02188853 -0.035147674 -0.0019477607 -0.17615995 0.09107691
0.08520065 -0.085652575 -0.030581508 -0.042104103 -0.05484776 -0.05231471 -0.0878706 0.06788041
0.056502637 -0.06854746 0.027198963 -0.060688656 0.042699564 0.04640253 -0.09677374 0.016712824
-0.14825736 0.30138052 0.055855818 0.13918626 0.09582605 -0.18508534 -0.1365354 -0.45865157
-0.0975177 -0.021035416 0.33927107 0.06989218 -0.103430614 0.051290218 0.24540778 -0.29290608
0.07580508 0.04068388 0.15007935 0.1773405 0.14867784 -0.22277826 0.2215086 0.268379
-0.10642562 -0.2838172 0.144156 0.232382 -0.007173532 0.050445385 0.06840797 -0.058471717
-0.15101506 0.16609833 0.10016566 -0.29568896 -0.008696187 -0.075927354 -0.13275647 -0.15114686
-0.018985935 0.49536407 0.34944186 0.16227381 -0.036264915 -0.15665944 -0.2617673 -0.2063206
0.45821428 0.1317203 0.14492755 -0.07007716 -0.18714768 0.048547592 0.42859507 -0.06725161
-0.09941853 0.011037029 -0.13015105 0.03657864 0.1684648 -0.3318018 0.042364087 0.057052106
0.04032463 0.13561347 0.40972131 -0.051032856 -0.22090966 -0.27256364 -0.28993195 -0.0077224397
0.09439213 -0.1283282 -0.08111153 -0.6408197 -0.034008633 0.21357208 -0.41391233 -0.081877925
-0.122147664 0.15759592 0.22266687 0.434587 -0.053351156 0.18092869 0.4815171 0.12210801
-0.08421909 0.0832267 0.071264885 -0.11599732 0.044289988 0.005118456 -0.14870301 0.0041908454
-0.031100277 0.21130332 0.23993541 -0.06416824 -0.013141963 -0.17466669 -0.00043100462 -0.36152956
0.0071650166 0.26292178 -0.120979674 -0.06980983 -0.2077616 0.025341852 -0.2747092 -0.30698982
0.14411707 0.051420383 -0.25845984 -0.23856035 -0.39115053 0.12878314 0.2753966 -0.3457289
-0.22283919 0.0425279 0.09151766 0.013854139 0.24137196 -0.30860987 -0.041402686 0.25168344
-0.4926151 -0.0807768 0.35458183 0.043409523 0.114328355 0.27954665 -0.17482485 0.29216963
0.2520138 -0.0636089 0.1722542 0.13876425 -0.31496105 -0.20286052 -0.066448234 0.046159916
0.018968211 -0.42545396 0.044077158 -0.06502936 -0.11274906 -0.32588091 0.028560046 0.078953356
-0.09076699 0.25501135 0.054477815 -0.0912578 0.03698243 -0.1614992 0.08210933 -0.07782141
0.232249 0.33747026 0.2678036 -0.3229876 -0.5412522 -0.22885735 -0.09811753 -0.14526413
-0.15885195 0.37988204 0.21278961 0.5072032 -0.36863908 0.49333972 -0.32248017 -0.50850827
0.19144061 -0.34283152 0.535524 0.060034722 -0.3076449 -0.03169878 0.1200668 -0.47410622
-0.26690623 -0.11399062 0.52954024 -0.04023213 0.3651857 -0.59055007 -0.18330023 0.4067777
0.010037407 -0.044681076 0.10202438 -0.050524436 -0.044464093 -0.07318112 -0.0055131773 -0.0654571
-0.04719398 -0.02586946 0.04880617 -0.029815635 -0.10906956 0.09306239 -0.00059532124 -0.0033508316
0.013183039 0.058635622 0.010742201 0.047441516 0.05762609 0.094290026 0.0780449 0.030523546
0.042435765 0.05409776 0.1083763 0.050554737 -0.046091013 -0.03274859 -0.011912639 -0.019645631
00000000: 0a1c 00bd c9ba 973d bae8 a43b 270e 953d
00000010: 95b9 413e 1d20 bbbd 3bd2 9fbd ebda 2c3c
00000020: bf44 fbbd 46b4 4fbd 5490 9abc 934f b3bc
00000030: 02f7 0fbd 014c ffba 4663 34be 8886 ba3d
00000040: ae7d ae3d 9e6a afbd 1286 fabc 5a75 2cbd
00000050: 0ba8 60bd f347 56bd 80f5 b3bd e204 8b3d
00000060: 4f6f 673d 9c62 8cbd 5cd0 de3c ab94 78bd
00000070: bde5 2e3d 9410 3e3d 5031 c6bd 55e9 883c
00000080: c7d0 17be 8c4e 9a3e 12c9 643d d886 0e3e
00000090: 7340 c43d 0387 3dbe f0cf 0bbe 61d4 eabe
000000a0: 5cb7 c7bd 7752 acbc f0b4 ad3e a223 8f3d
000000b0: 6ed3 d3bd b115 523d 2d4c 7b3e c9f7 95be
000000c0: b23f 9b3d 24a4 263d 67ae 193e bf98 353e
000000d0: 013f 183e fc1f 64be 27d3 623e f968 893e
000000e0: adf5 d9bd 7d50 91be a19d 133e 8cf5 6d3e
000000f0: f30f ebbb d29f 4e3d 7a19 8c3d 0a80 6fbd
00000100: b1a3 1abe ae15 2a3e a723 cd3d 8b64 97be
00000110: 747a 0ebc cd7f 9bbd 50f1 07be 3ec6 1abe
00000120: 6488 9bbc 5ca0 fd3e 0bea b23e 1b2b 263e
00000130: 858a 14bd 556b 20be 5d06 86be b545 53be
00000140: 109b ea3e b0e1 063e e367 143e 9d84 8fbd
00000150: a4a3 3fbe d7d9 463d d070 db3e 36bb 89bd
00000160: f19b cbbd a8d4 343c 5146 05be 7cd3 153d
00000170: 0982 2c3e ede1 a9be f785 2d3d 78af 693d
00000180: 702b 253d 42de 0a3e fec6 d13e d407 51bd
00000190: 2436 62be 768d 8bbe f671 94be 850c fdbb
000001a0: a950 c13d 7868 03be cd1d a6bd c30c 24bf
000001b0: a34c 0bbd a4b2 5a3e 51ec d3be 9daf a7bd
000001c0: 8e28 fabd d360 213e c902 643e 3082 de3e
000001d0: be86 5abd 5f45 393e 6989 f63e c413 fa3d
000001e0: 0f7b acbd c372 aa3d 53f3 913d 0190 edbd
000001f0: 6b69 353d b9b8 a73b 9a45 18be 5c53 893b
00000200: 02c6 febc e65f 583e a1b1 753e a36a 83bd
00000210: 6351 57bc d3db 32be 76f8 e1b9 671a b9be
00000220: 84c8 ea3b af9d 863e 31c4 f7bd 75f8 8ebd
00000230: 75bf 54be b799 cf3c afa6 8cbe c52d 9dbe
00000240: 6d93 133e 2e9e 523d d954 84be 2a49 74be
00000250: e244 c8be badf 033e c800 8d3e 6103 b1be
00000260: f52f 64be bc31 2e3d 9c6d bb3d 78fc 623c
00000270: 362a 773e 1d02 9ebe dd95 29bd a7dc 803e
00000280: 0c38 fcbe 4f6e a5bd c08b b53e 2fce 313d
00000290: fc24 ea3d bd20 8f3e 4905 33be 4297 953e
000002a0: f407 813e 6245 82bd 6863 303e 3718 0e3e
000002b0: 9342 a1be abba 4fbe 0316 88bd 2e12 3d3d
000002c0: 3963 9b3c 1ad5 d9be 408a 343d 1d2e 85bd
000002d0: fbe8 e6bd ddd9 a6be c2f6 e93c 4cb2 a13d
000002e0: 0be4 b9bd d990 823e 2124 5f3d 5fe5 babd
000002f0: e37a 173d 0c60 25be f028 a83d d560 9fbd
00000300: afd2 6d3e e7c8 ac3e 8e1d 893e a15e a5be
00000310: 818f 0abf 9559 6abe d8f1 c8bd 1fc0 14be
00000320: 16aa 22be e67f c23e 85e5 593e 12d8 013f
00000330: 43be bcbe 0697 fc3e 1f1c a5be 992d 02bf
00000340: 0209 443e 9d87 afbe 1a18 093f f8e6 753d
00000350: a283 9dbe 94d6 01bd 95e5 f53d 0dbe f2be
00000360: efa7 88be ea73 e9bd f38f 073f 72ca 24bd
00000370: 9ff9 ba3e 4a2e 17bf 0eb3 3bbe 2b45 d03e
00000380: f073 243c 8103 37bd 28f2 d03d b6f2 4ebd
00000390: fb1f 36bd fcdf 95bd e2a7 b4bb 5f0e 86bd
000003a0: 7a4e 41bd 31ec d3bc fae8 473d eb3f f4bc
000003b0: dd5f dfbd 7f97 be3d 550f 1cba a099 5bbb
000003c0: acfd 573c e82b 703d 0e00 303c 0952 423d
000003d0: 5609 6c3d 211b c13d 01d6 9f3d 840c fa3c
000003e0: 20d1 2d3d 9d95 5d3d 65f4 dd3d 7c12 4f3d
000003f0: eec9 3cbd 6323 06bd 3b2d 43bc e0ef a0bc

gcn3.w f4 [14, 32]
0.72310203 1.0947634 1.4025538 -0.056090854 1.0073447 1.3229346 -0.24448127 1.0278008
0.6674977 -0.04569529 0.9751976 1.4468739 -0.028483175 1.2251168 1.1972307 -0.049682084
-0.21392034 1.3564962 0.09704258 0.92210114 1.2665659 0.44087738 0.9354066 1.2949336
0.46329078 1.1253321 0.8096832 -0.09433746 -0.06814044 -0.21071662 0.21873721 1.1117858
0.49633157 0.93657684 1.178309 0.10629437 0.86071736 1.3006668 -0.13330378 0.84207875
0.7336202 0.0065634376 1.0343144 1.455415 -0.11190329 1.1096231 1.3729539 0.007068063
-0.07342056 1.1442302 0.00077699166 0.6563898 1.0570766 0.68666625 0.7392356 1.2658806
0.3348331 1.2336496 0.84834665 0.09839428 0.120880276 -0.14685807 0.24816397 1.1507472
0.7947073 1.0363414 1.0829353 -0.06323812 0.9397756 1.2955617 -0.109138 0.8444924
0.75490355 -0.10980475 1.278475 1.3999188 -0.08925813 1.1962538 1.1239539 -0.04929716
-0.0049332334 1.2299783 -0.212648 0.94172215 1.1379849 0.66016006 1.0524787 1.2691368
0.25929892 1.0707835 0.8731399 -0.056655686 0.04210923 0.013957128 0.22836351 0.8817716
0.52058727 1.0514306 0.9483073 0.02710856 0.9647042 1.126569 -0.088217504 0.7514659
0.67337734 -0.13571815 1.1948707 0.99180627 -0.061112493 0.8629213 1.1311136 -0.03792647
-0.23352785 1.1628464 -0.12382438 0.74184275 0.87176377 0.6342607 0.7360972 1.1294907
0.18218595 0.9831693 0.91812855 0.039170265 -0.108743675 0.09287565 0.18381964 1.0164515
0.7428414 1.1637775 1.2357433 -0.12843344 1.0858154 1.160885 -0.031148324 0.87646663
0.87571776 -0.19929333 1.078353 1.3703166 -0.11599636 1.2250134 1.2141075 -0.040613946
-0.21656422 1.262324 -0.20404607 0.7978585 1.0208915 0.5720305 0.786421 1.0903572
0.2411182 1.1752666 0.9327466 0.122768804 -0.08344512 -0.16814236 0.21813151 1.1070935
0.40142375 1.055575 1.1235859 -0.047963727 0.9584682 1.1901605 -0.08255753 0.7962727
0.7904876 -0.10391995 0.98618996 1.3285893 -0.0014042478 0.83982897 1.1017442 -0.025802625
-0.23084497 1.1829326 0.058344804 0.68234766 1.0178498 0.65842974 0.8746325 1.1832058
0.1797624 1.0762244 0.77696115 0.011388166 -0.17366523 -0.1370079 0.25708884 1.0106966
0.56451195 1.4192879 1.2944316 0.30406845 0.92031634 1.5173149 -0.18376097 1.1158025
0.8824414 -0.09526186 1.2151549 1.5356351 -0.12541088 1.2361676 1.3750201 -0.08963459
-0.052888636 1.2631329 -0.17759982 0.97444266 1.1109381 0.57334185 0.9632973 1.4324197
0.40103915 1.2609944 0.95135957 -0.19286303 -0.100282155 -0.072082326 0.19567496 1.0222243
0.61486244 1.0723305 1.0389339 -0.1638311 1.0439883 1.0688188 -0.17521574 1.0259268
0.9562512 0.095634244 0.9519059 1.4964799 -0.0025668212 1.1983291 1.3069599 -0.04365762
0.093868084 1.3729328 -0.06573722 0.8267234 1.1980721 0.44904187 1.0440612 1.2346205
0.26047996 1.0340554 0.9315035 0.0076319817 -0.045322485 -0.13480571 0.24143302 0.56607485
00000000: 371d 393f 3521 8c3f e286 b33f 86bf 65bd
00000010: acf0 803f ec55 a93f 4c59 7abe fa8e 833f
00000020: 21e1 2a3f fc2a 3bbd 8da6 793f 2a33 b93f
00000030: 8c55 e9bc a1d0 9c3f db3e 993f 717f 4bbd
00000040: ef0d 5bbe aba1 ad3f 43be c63d d20e 6c3f
00000050: d51e a23f aeba e13e cf76 6f3f 62c0 a53f
00000060: 7334 ed3e e20a 903f 6647 4f3f 0034 c1bd
00000070: 378d 8bbd 19c6 57be a6fc 5f3e ff4e 8e3f
00000080: 2c1f fe3e 80c3 6f3f d4d2 963f ddb0 d93d
00000090: f957 5c3f 407c a63f c980 08be 7992 573f
000000a0: 89ce 3b3f 1b12 d73b 6a64 843f 0a4b ba3f
000000b0: 8d2d e5bd 2108 8e3f f4bc af3f 369b e73b
000000c0: 855d 96bd 2376 923f 07af 4b3a 2909 283f
000000d0: 494e 873f 5cc9 2f3f 8b3e 3d3f 6008 a23f
000000e0: 3e6f ab3e 3be8 9d3f 3f2d 593f f182 c93d
000000f0: 1490 f73d f661 16be b21e 7e3e af4b 933f
00000100: f071 4b3f d6a6 843f a09d 8a3f fd82 81bd
00000110: 2295 703f f7d4 a53f be83 dfbd a730 583f
00000120: 5c41 413f 50e1 e0bd 12a5 a33f 8a30 b33f
00000130: f7cc b6bd d81e 993f b9dd 8f3f d2eb 49bd
00000140: f6a6 a1bb ee6f 9d3f 66c0 59be b414 713f
00000150: 7da9 913f 4000 293f 9fb7 863f 1373 a23f
00000160: d4c2 843e 6f0f 893f 1986 5f3f cb0f 68bd
00000170: ba7a 2c3d 70ac 643c 20d8 693e c9bb 613f
00000180: 3545 053f 4795 863f 44c4 723f c512 de3c
00000190: dbf6 763f 6a33 903f 61ab b4bd 1260 403f
000001a0: 7562 2c3f b3f9 0abe 86f1 983f 04e7 7d3f
000001b0: 1851 7abd 69e8 5c3f 55c8 903f c958 1bbd
000001c0: ed21 6fbe 27d8 943f a397 fdbd 68e9 3d3f
000001d0: e92b 5f3f e95e 223f de70 3c3f 2793 903f
000001e0: f48e 3a3e fcb0 7b3f 790a 6b3f 0071 203d
000001f0: 01b5 debd 9735 be3d 373b 3c3e 151b 823f
00000200: db2a 3e3f a9f6 943f d62c 9e3f 0e84 03be
00000210: 00fc 8a3f e197 943f c52a ffbc 1e60 603f
00000220: 0a2f 603f 8d13 4cbe 7907 8a3f 8966 af3f
00000230: 808f edbd 3dcd 9c3f e067 9b3f cf5a 26bd
00000240: 03c3 5dbe d593 a13f 74f1 50be 7440 4c3f
00000250: 93ac 823f 9770 123f e352 493f d390 8b3f
00000260: b0e7 763e 236f 963f 7bc8 6e3f 366e fb3d
00000270: 46e5 aabd 832d 2cbe de5d 5f3e 3db5 8d3f
00000280: 6a87 cd3e 151d 873f aad1 8f3f 9d75 44bd
00000290: 2c5e 753f 2e57 983f ec13 a9bd 87d8 4b3f
000002a0: 655d 4a3f fcd3 d4bd f276 7c3f 370f aa3f
000002b0: bd0e b8ba 08ff 563f f405 8d3f 0760 d3bc
000002c0: a062 6cbe 566a 973f f6fa 6e3d 56ae 2e3f
000002d0: e748 823f da8e 283f eae7 5f3f 4a73 973f
000002e0: a213 383e b9c1 893f ede6 463f 6e95 3a3c
000002f0: 4cd5 31be cd4b 0cbe 26a1 833e 825e 813f
00000300: db83 103f 3aab b53f efaf a53f dcae 9b3e
00000310: da99 6b3f 6037 c23f d62b 3cbe 9ed2 8e3f
00000320: aee7 613f a618 c3bd 328a 9b3f b18f c43f
00000330: b66b 00be bd3a 9e3f a900 b03f 5792 b7bd
00000340: c1a1 58bd 57ae a13f badc 35be 1375 793f
00000350: 3833 8e3f 88c6 123f a79a 763f 8759 b73f
00000360: 0155 cd3e 4468 a13f 4d8c 733f e37d 45be
00000370: bb60 cdbd e69f 93bd 045f 483e 3fd8 823f
00000380: a067 1d3f 2042 893f c9fb 843f 57c3 27be
00000390: 69a1 853f 0ecf 883f c16b 33be 9251 833f
000003a0: e1cc 743f e3db c33d 1bb0 733f a78c bf3f
000003b0: 1d38 28bb d962 993f 764a a73f 55d2 32bd
000003c0: e93d c03d 43bc af3f 3ca1 86bd 25a4 533f
000003d0: 6d5a 993f d1e8 e53e cca3 853f 0b08 9e3f
000003e0: a15d 853e ed5b 843f 0377 6e3f b415 fa3b
000003f0: 12a4 39bd 820a 0abe 383a 773e 48ea 103f

gcn4.w f4 [32, 32]
0.5647413 -0.19863158 0.40922374 -0.46987566 0.73259664 -0.11012266 -0.06843807 0.08575517
-0.2664483 0.017602399 0.2180791 0.5742879 -0.16013853 0.24406983 0.3558183 -0.40434664
-0.27214566 0.0026719067 -0.42913064 -0.61625737 -0.24738015 -0.32170653 0.47461084 0.17068577
0.4589317 0.38866588 0.43522868 -0.32122776 0.35827234 -0.13085824 0.4995044 -0.56172484
0.48933107 -0.15497543 0.58033097 -0.4102004 0.48047048 -0.50328314 -0.36230943 0.19767597
-0.85672534 0.48589563 0.38477832 0.711301 -0.030863281 -0.08893685 0.5894758 -0.20735659
-0.60674095 -0.0023183422 -0.5685897 -0.7575063 -0.8968263 -0.67023355 0.71474344 0.47339714
0.44695854 0.2997429 0.17886822 -0.45671597 0.75842553 -0.6171019 0.59983397 -0.35659766
0.63465244 -0.12090823 0.9303082 -0.4658394 0.69356304 -0.77525145 -0.34394905 0.08971718
-0.67139405 0.15518294 0.77910775 0.65639186 0.18400829 0.24400024 1.0386801 -0.3690731
-0.69895977 -0.16408151 -0.41057312 -0.59813774 -0.63436776 -0.6389195 0.8482042 0.81825775
0.32233107 0.5261147 0.65169805 -0.5241083 0.77414113 -0.580666 0.6486203 -0.36335295
0.37597162 0.22348826 0.16061983 -0.14308816 -0.08274982 -0.12638198 0.0038301216 -0.09775764
-0.008350825 0.27521813 0.19040775 0.30660525 -0.34546405 -0.062650524 -0.08883228 0.083184026
-0.1606236 -0.2633914 -0.071094155 -0.1530971 -0.18411504 -0.20244843 0.032392703 -0.13773598
-0.112742096 0.07066444 0.09466844 0.15761025 0.20509347 -0.32027677 -0.015171348 0.18821599
0.5591586 0.084567614 0.62237287 -0.5613035 0.42491156 -0.5340327 -0.22700661 0.3927819
-0.37811276 0.4582815 0.6729773 0.5876678 -0.028175399 0.6027665 0.5262946 -0.2871472
-0.46247458 -0.289473 -0.637601 -0.41085303 -0.38416183 -0.5474369 0.66178846 0.5391016
0.26674318 0.5333053 0.3048268 -0.51036537 0.31284422 -0.6229741 0.8755488 -0.344389
0.80089265 -0.4480337 0.47317967 -0.49777895 0.54997027 -0.3282649 -0.6037189 0.48908997
-0.43293107 0.81654334 1.0150723 0.8419637 0.104799286 0.1648146 0.9042403 -0.23334074
-0.86718696 -0.6181967 -0.4303675 -0.5202232 -0.28326467 -0.51989156 0.98284566 0.66949743
0.28894582 0.19761561 0.47534174 -0.64410394 0.6380662 -0.5168695 0.796434 -0.7455351
-0.065960005 0.10700851 0.0511257 -0.05787713 -0.17483512 -0.004894179 -0.052307896 0.019240325
0.120268114 -0.023971165 -0.052823473 -0.019372987 0.19242337 -0.17761059 0.02586598 -0.16874343
0.02781409 -0.0020699147 0.09528854 0.13286658 0.17001225 0.1344673 0.19200796 -0.02325418
-0.019992014 -0.13455588 0.038358115 -0.12180855 0.032427564 -0.046962433 0.04268116 -0.15722328
0.37312692 -0.28231952 0.64967656 -0.26264924 0.68764824 -0.6555687 -0.4392848 0.15414996
-0.46178004 0.13541728 0.29650122 0.70064247 0.22041179 0.4836705 0.6606858 -0.36862117
-0.28945234 -0.16459219 -0.19663414 -0.40466508 -0.3125781 -0.6622198 0.45881492 0.5158081
0.23848842 0.3862347 0.5196475 -0.5092838 0.40822843 -0.59143573 0.57586676 -0.26218548
00000000: e392 103f 1466 4bbe c685 d13e 8b93 f0be
00000010: 748b 3b3f fd87 e1bd 4229 8cbd 68a0 af3d
00000020: e96b 88be e832 903c 2150 5f3e 8804 133f
00000030: 5bfb 23be 71ed 793e d12d b63e 8606 cfbe
00000040: ad56 8bbe 281b 2f3b 03b7 dbbe 0bc3 1dbf
00000050: 3951 7dbe b8b6 a4be 3100 f33e 40c8 2e3e
00000060: 19f9 ea3e 37ff c63e 4bd6 de3e f777 a4be
00000070: 796f b73e b4ff 05be 0abf ff3e 33cd 0fbf
00000080: 9a89 fa3e e1b1 1ebe 9290 143f c905 d2be
00000090: 3a00 f63e 2ad7 00bf 9f80 b9be 926b 4a3e
000000a0: 5a52 5bbf 50c7 f83e aa01 c53e d317 363f
000000b0: fed4 fcbc 8624 b6bd e3e7 163f 4955 54be
000000c0: 6053 1bbf 54ef 17bb 188f 11bf efeb 41bf
000000d0: 6996 65bf 6d94 2bbf 6df9 363f 1c61 f23e
000000e0: c0d7 e43e e777 993e 3b29 373e add6 e9be
000000f0: 2d28 423f 64fa 1dbf b88e 193f f893 b6be
00000100: 9578 223f bc9e f7bd ae28 6e3f 8082 eebe
00000110: 598d 313f e176 46bf 171a b0be a4bd b73d
00000120: 7be0 2bbf 47e8 1e3e 9b73 473f 4c09 283f
00000130: ab6c 3c3e 33db 793e 78f3 843f 26f7 bcbe
00000140: 07ef 32bf fc04 28be a436 d2be 8e1f 19bf
00000150: ed65 22bf 3a90 23bf e923 593f 5779 513f
00000160: 9408 a53e 74af 063f afd5 263f f62b 06bf
00000170: 1d2e 463f 87a6 14bf fb0b 263f 6609 babe
00000180: 5a7f c03e 1bda 643e 8679 243e b485 12be
00000190: bd78 a9bd 476a 01be c702 7b3b 2835 c8bd
000001a0: e6d1 08bc 64e9 8c3e 40fa 423e 5dfb 9c3e
000001b0: aae0 b0be eb4e 80bd b3ed b5bd 635c aa3d
000001c0: 837a 24be 3ddb 86be d099 91bd 7cc5 1cbe
000001d0: a788 3cbe a44e 4fbe 36ae 043d a90a 0dbe
000001e0: 54e5 e6bd 85b8 903d 87e1 c13d 9564 213e
000001f0: 0604 523e 51fb a3be 3f91 78bc b1bb 403e
00000200: 0525 0f3f c931 ad3d d453 1f3f 96b1 0fbf
00000210: 028e d93e 5eb6 08bf 6c74 68be b61a c93e
00000220: ff97 c1be dfa3 ea3e 3e48 2c3f 6671 163f
00000230: 18d0 e6bc e84e 1a3f 3ebb 063f f504 93be
00000240: 78c9 ecbe ce35 94be d239 23bf 545b d2be
00000250: dcb0 c4be d324 0cbf f86a 293f 9002 0a3f
00000260: 9092 883e b286 083f 4212 9c3e 4ea7 02bf
00000270: 1e2d a03e 3b7b 1fbf f723 603f c153 b0be
00000280: 4d07 4d3f ac64 e5be 9b44 f23e e2dc febe
00000290: daca 0c3f 5612 a8be 528d 1abf 006a fa3e
000002a0: 24a9 ddbe fc08 513f e4ed 813f ef8a 573f
000002b0: 02a1 d63d 29c5 283e 4b7c 673f e0f0 6ebe
000002c0: f7ff 5dbf 2442 1ebf 2159 dcbe 592d 05bf
000002d0: 1108 91be 9d17 05bf c69b 7b3f 2f64 2b3f
000002e0: b5f0 933e bf5b 4a3e fe5f f33e ffe3 24bf
000002f0: 4e58 233f 8f51 04bf 19e3 4b3f 63db 3ebf
00000300: 0a16 87bd 4727 db3d 2f69 513d 9210 6dbd
00000310: fa07 33be 595f a0bb ce40 56bd e39d 9d3c
00000320: 214f f63d 2d5f c4bc 6d5d 58bd 19b4 9ebc
00000330: a20a 453e 8ddf 35be e4e4 d33c 14cb 2cbe
00000340: 60da e33c 68a7 07bb a326 c33d 2d0e 083e
00000350: b117 2e3e ccb1 093e bc9d 443e 8d7f bebc
00000360: 4bc6 a3bc 04c9 09be 661d 1d3d c376 f9bd
00000370: c4d2 043d ae5b 40bd 71d2 2e3d 24ff 20be
00000380: 7e0a bf3e 2f8c 90be 3451 263f f679 86be
00000390: b709 303f 5ad3 27bf f0e9 e0be 7dd9 1d3e
000003a0: 6f6e ecbe d4aa 0a3e 02cf 973e 4e5d 333f
000003b0: a1b3 613e a9a3 f73e b422 293f eabb bcbe
000003c0: 1933 94be db8a 28be 765a 49be 4330 cfbe
000003d0: 3d0a a0be 3d87 29bf cae9 ea3e 000c 043f
000003e0: 4f36 743e 8ec0 c53e 9e07 053f 6c60 02bf
000003f0: 5103 d13e 5568 17bf 016c 133f 2d3d 86be

fc1.weight f4 [32, 2]
0.08207323 -0.11057947 -0.17277035 0.2629683 -0.21156266 0.62678754 0.0034343381 0.004470388
0.3019987 0.7627155 -0.0025374293 -5.71003e-06 -0.21228775 -0.6662037 0.4042032 0.62338597
0.5093474 0.5753347 -0.076207384 -0.07157683 -0.0006528166 -0.00015674978 0.5687404 0.7334819
-0.45028546 0.6940945 -0.0071345232 -0.0023153366 -0.042838924 0.0045258817 0.6836519 0.5599606
-0.28301436 -0.07462718 -0.0003308643 -0.00024018392 -0.57708013 -0.6361404 -0.00028897676 -0.005255625
0.60663617 -0.679489 0.1407114 0.92640936 0.00024168115 -0.023661297 -0.0072260317 0.42709556
0.0003907536 -0.0037527697 0.8575819 -0.6805866 0.08488002 0.474055 0.65426606 -0.4187608
-0.031378206 -0.000831031 0.064138934 -0.08484922 0.5334816 -0.16788664 -0.31320566 0.4711168
00000000: 0216 a83d 7d77 e2bd b6ea 30be c8a3 863e
00000010: e2a3 58be 2675 203f a212 613b 557c 923b
00000020: 939f 9a3e 5341 433f 004b 26bb c998 bfb6
00000030: f661 59be 538c 2abf b9f3 ce3e 3996 1f3f
00000040: 9764 023f 2349 133f 9e12 9cbd e096 92bd
00000050: c821 2bba 335d 24b9 f998 113f 78c5 3b3f
00000060: d18b e6be 2db0 313f b8c8 e9bb e7bc 17bb
00000070: de77 2fbd d94d 943b d003 2f3f 9459 0f3f
00000080: 42e7 90be 23d6 98bd db77 adb9 e1d9 7bb9
00000090: 86bb 13bf 19da 22bf ce81 97b9 6137 acbb
000000a0: 824c 1b3f fef2 2dbf a616 103e 2a29 6d3f
000000b0: ca6b 7d39 56d5 c1bc 59c8 ecbb 45ac da3e
000000c0: 0fde cc39 07f1 75bb 7d8a 5b3f ec3a 2ebf
000000d0: 93d5 ad3d 56b7 f23e fb7d 273f d167 d6be
000000e0: 6f86 00bd 8cd9 59ba 465b 833d 6ec5 adbd
000000f0: 4092 083f 7aea 2bbe 7e5c a0be 3936 f13e

fc1.bias f4 [32]
-0.22121303 0.47414702 0.4299552 -0.017877568 0.04790933 -0.023773296 0.29815963 0.19856547
-0.5778691 -0.082825035 -0.0016707403 0.43499258 -0.4675868 -0.002685274 -0.07147167 -0.18562587
-0.09678914 -0.0037151237 0.57806486 -0.03474606 -0.06508508 -0.2701117 -0.007985695 -0.1317981
-0.0344446 -0.06972716 0.20478606 0.18540461 -0.028161598 0.13526267 -0.6760043 0.42191872
00000000: ab85 62be 66c3 f23e 1723 dc3e fa73 92bc
00000010: 933c 443d 37c0 c2bc 61a8 983e bf54 4b3e
00000020: 3bef 13bf 2ca0 a9bd befc daba 59b7 de3e
00000030: 8967 efbe 6cfb 2fbb bd5f 92bd b514 3ebe
00000040: 6239 c6bd 6f79 73bb 0ffc 133f e251 0ebd
00000050: 544b 85bd 154c 8abe 6fd6 02bc 15f6 06be
00000060: c815 0dbd 1dcd 8ebd 70b3 513e b5da 3d3e
00000070: 27b3 e6bc 4c82 0a3e 9e0e 2dbf bb05 d83e

output_1.weight f4 [24, 1056]
-0.0003891196 -0.026221037 0.012820326 -0.0015524533 -0.018994045 0.008572135 -0.028975347 -0.026048908
0.014894828 -0.008192569 -0.0073147994 -0.01124418 -0.018678274 -0.015948027 -0.01031873 0.009985071
-0.0029850677 -0.025025714 0.0074814595 0.021011192 -0.025452724 0.0075889155 0.00029030629 -0.004797032
0.017427914 -0.020950034 -0.02140347 -0.020704303 0.010951441 0.028518945 0.01737924 -0.026473962
-0.029282639 0.006115038 0.026536226 -0.0085916445 -0.010286616 0.01967065 0.016769286 -0.0012178756
-0.009648867 -0.021853257 0.0040082894 -0.025671251 -0.011360927 0.004987374 0.021997493 -0.0052984487
0.007273115 -0.015111985 0.029020756 0.014474537 0.004047498 0.0062131397 0.013737775 -0.028810697
0.012220491 -0.014315989 -0.017249802 0.0034077428 0.019569758 0.01684755 -0.014113311 0.028922495
-0.007121533 -0.02026438 -0.018195823 -0.027083151 -0.007337235 0.0021774918 -0.0039406493 -0.0002469644
-0.017938364 0.012334887 -0.013354532 0.008267008 0.0049346723 -0.009261597 0.017674621 -0.025051275
0.015188124 0.0075704865 0.020656597 -0.025968928 0.01400698 -0.01225508 -0.023446297 0.0039543323
-0.008239621 0.021674864 -0.02557222 0.014092214 0.023602095 -0.010832228 0.02726328 0.016957164
0.02268153 -0.029053826 0.008095026 -0.02530167 0.021288149 -0.0036342014 0.011953764 0.013595872
0.018849514 0.013430569 -0.016224679 0.01339655 -0.012827991 0.028885584 -0.0007643178 0.026531354
0.0214542 -0.029925605 -0.026213095 0.022259902 0.00928719 0.009725865 0.01959861 0.0022149496
-0.016826924 -0.023635147 0.02623199 0.016332626 0.023796625 -0.003669696 0.0081824735 -0.006243121
-0.01620569 0.01217011 0.023562096 -0.026606947 -0.014673715 -0.01964912 0.019353878 0.02620102
-0.004481707 -0.006853625 -0.00020046346 -0.029034888 0.0073021874 -0.028869083 0.0030221976 0.024233174
0.0049472116 -0.0044327658 0.0062002577 -0.019695938 -0.00049555115 -0.0154753 0.0295657 0.011615112
0.02159397 -0.029053494 -0.02696664 -0.0116069745 0.011783723 -0.009443387 -0.007996725 -0.026814563
-0.028191363 -0.017571226 0.02109034 0.016279489 -0.026769236 0.030615367 0.027214453 -0.00267837
0.012718327 -0.0061322283 0.003359437 -0.004730059 -0.00025489926 -0.029794976 0.029558714 -0.026040973
-0.0025858488 0.02958602 -0.0128639545 -0.015595954 -0.0039995965 -0.0046475735 -0.009072289 -0.0025880653
0.025571596 0.021205634 0.0035242885 -0.0022242572 -0.022328587 0.002592992 0.030770868 0.019574437
-0.030285586 -0.016505966 0.011634499 -0.028844483 -0.010978891 -0.018394185 0.00073941424 -0.016553314
0.0100183375 0.0008555539 0.008388557 0.018973198 -0.028366735 0.003766384 -0.00083020516 -0.014299398
-0.0019029342 -0.023989402 0.020514987 0.014855519 0.014388125 0.022955183 -0.0063034613 0.015100814
0.00289369 -0.013485175 -0.023642194 -0.012783393 0.0009817891 -0.010764787 -0.029234935 0.020758606
0.024427574 0.024737734 0.019403972 -0.016680373 0.016677402 0.022801045 -0.00482036 0.012400612
-0.0171687 0.021483254 0.029715624 -0.022008378 -0.028040595 -0.0040687826 -0.022372872 0.029211428
-0.006662512 -0.028220471 -0.006154418 -0.013202213 -0.022184033 0.013330098 0.005521644 -0.029919423
-0.017630188 0.0088116415 -0.0195773 -0.0109747015 0.016361445 0.018839292 -0.008022733 -0.0069044977
00000000: c002 ccb9 80cd d6bc 580c 523c b07b cbba
00000010: 6699 9bbc 2472 0c3c b55d edbc 8564 d5bc
00000020: 7009 743c 203a 06bc fcb0 efbb 8239 38bc
00000030: 2e03 99bc 70a5 82bc e40f 29bc 6c98 233c
00000040: 20a1 43bb ba02 cdbc 0827 f53b aa1f ac3c
00000050: 3b82 d0bc 70ac f83b 4034 9839 6c30 9dbb
00000060: fcc4 8e3c 689f abbc 5456 afbc 129c a9bc
00000070: ac6d 333c 90a0 e93c e85e 8e3c ecdf d8bc
00000080: 25e2 efbc a860 c83b 8062 d93c f8c3 0cbc
00000090: 3289 28bc 5824 a13c be5f 893c 20a1 9fba
000000a0: 4816 1ebc 9a05 b3bc f857 833b 844c d2bc
000000b0: 2e23 3abc 206d a33b 1634 b43c 9c9e adbb
000000c0: 5053 ee3b 4298 77bc f0bc ed3c 9c26 6d3c
000000d0: e0a0 843b 9897 cb3b 6814 613c 6904 ecbc
000000e0: 7438 483c 9c8d 6abc 754f 8dbc 7054 5f3b
000000f0: c250 a03c e003 8a3c 843b 67bc deee ec3c
00000100: c05b e9bb 7c01 a6bc 680f 95bc 7cdd ddbc
00000110: 306d f0bb 40b4 0e3b 9020 81bb 007b 81b9
00000120: 7af3 92bc 4418 4a3c f8cc 5abc 5872 073c
00000130: 08b3 a13b f4bd 17bc 5eca 903c 5538 cdbc
00000140: 9cd7 783c d811 f83b 0638 a93c cabc d4bc
00000150: 887d 653c 88c9 48bc 7312 c0bc 5893 813b
00000160: 7aff 06bc 7c8f b13c d57c d1bc 08e3 663c
00000170: 2e59 c13c a879 31bc 3e57 df3c c0e9 8a3c
00000180: 9ece b93c 4a02 eebc 00a1 043c 7345 cfbc
00000190: 7c64 ae3c c82b 6ebb b8d9 433c 38c1 5e3c
000001a0: 4c6a 9a3c e40b 5c3c 9ee9 84bc 347d 5b3c
000001b0: 7e2c 52bc 76a1 ec3c 805c 48ba 4858 d93c
000001c0: b8c0 af3c 8b26 f5bc d8bc d6bc 665a b63c
000001d0: 4c29 183c 3c59 1f3c 448d a03c b028 113b
000001e0: 9ed8 89bc 7f9e c1bc 78e4 d63c 00cc 853c
000001f0: 24f1 c23c 487f 70bb c80f 063c 1893 ccbb
00000200: ccc1 84bc 2465 473c 4c05 c13c d0f6 d9bc
00000210: 066a 70bc 31f7 a0bc 068c 9e3c 86a3 d63c
00000220: 48db 92bb 6094 e0bb 8033 52b9 93da edbc
00000230: 3047 ef3b db7e ecbc 1010 463b a684 c63c
00000240: 381c a23b bc40 91bb 882b cb3b 6059 a1bc
00000250: e0e7 01ba 1d8c 7dbc c433 f23c 504d 3e3c
00000260: d6e5 b03c 9801 eebc 25e9 dcbc 2e2b 3ebc
00000270: 8410 413c 70b8 1abc b204 03bc 37aa dbbc
00000280: 93f1 e6bc 88f1 8fbc a6c5 ac3c 905c 853c
00000290: 284b dbbc 14cd fa3c d8f0 de3c 9887 2fbb
000002a0: 8860 503c dcf0 c8bb 002a 5c3b 9cfe 9abb
000002b0: 00a4 85b9 9814 f4bc 1e25 f23c e153 d5bc
000002c0: 5877 29bb 625e f23c 56c3 52bc 2c86 7fbc
000002d0: 0c0f 83bb ac4a 98bb f0a3 14bc 889c 29bb
000002e0: 867b d13c 70b7 ad3c c0f7 663b d8c4 11bb
000002f0: 71ea b6bc 30ef 293b 3013 fc3c 925a a03c
00000300: 7a19 f8bc 8537 87bc a09e 3e3c 444b ecbc
00000310: cee0 33bc 67af 96bc 40d5 413a d19a 87bc
00000320: f423 243c 4047 603a 2870 093c ae6d 9b3c
00000330: 5b61 e8bc 70d5 763b 20a2 59ba 0648 6abc
00000340: e06b f9ba 6c85 c4bc 0c0f a83c 9064 733c
00000350: 2cbc 6b3c 820c bc3c 448d cebb 6869 773c
00000360: 10a4 3d3b ecf0 5cbc 46ad c1bc 7071 51bc
00000370: 60af 803a ca5e 30bc 1a7e efbc f40d aa3c
00000380: 561c c83c caa6 ca3c 14f5 9e3c 47a5 88bc
00000390: 0c9f 883c 42c9 ba3c 1cf4 9dbb f02b 4b3c
000003a0: 60a5 8cbc a6fd af3c 2e6e f33c ea4a b4bc
000003b0: 64b5 e5bc 6c53 85bb 5047 b7bc ce4c ef3c
000003c0: 3451 dabb 9e2e e7bc 00ab c9bb 184e 58bc
000003d0: 4abb b5bc 7c66 5a3c e8ee b43b 9419 f5bc
000003e0: 2f6d 90bc b45e 103c 9360 a0bc 3ccf 33bc
000003f0: 7008 863c dc54 9a3c c871 03bc 203f e2bb

output_1.bias f4 [24]
-0.013077278 -0.020196594 0.02790514 0.006157797 -0.009245951 -0.006591674 -0.016715484 0.020439968
-0.019968426 -0.0027034245 -0.017787522 0.004323978 -0.025680566 0.02979058 -0.03006872 -0.016253935
0.026604392 -0.015773468 -0.0018912982 -0.021077368 0.022379681 -0.013536416 0.0019318052 -0.004875796
00000000: 1442 56bc 5473 a5bc 5299 e43c 58c7 c93b
00000010: 547c 17bc f8fe d7bb e9ee 88bc b871 a73c
00000020: d394 a3bc f02b 31bb 23b7 91bc 28b0 8d3b
00000030: 0d60 d2bc 600b f43c ad52 f6bc f926 85bc
00000040: 74f1 d93c 5c37 81bc 70e5 f7ba 72aa acbc
00000050: 9855 b73c d8c7 5dbc a034 fd3a 24c5 9fbb

fc2.weight f4 [32, 1056]
-0.018735262 0.06460747 -0.0762468 -0.006899274 0.050172795 -0.013564676 -0.023690159 -0.022988122
-0.017213881 -0.028224625 -0.015762765 -0.018438287 0.03867627 -0.008894343 0.01664596 -0.019471264
0.045776512 -0.0003896286 -0.029153714 0.023415575 -0.08528779 0.022514421 0.027011013 -0.006778417
-0.054345615 -0.056096498 -0.0069486736 -0.014778079 -0.010507066 0.03598997 -0.043974787 -0.0254807
-0.078536436 -0.019184379 0.045447174 -0.06459855 -0.037264153 0.011935719 0.037414353 -0.044740815
0.024081072 -0.04702889 0.0018882031 0.016166046 -0.004088022 -0.0010087207 -0.019344354 -0.008491035
-0.037585452 0.015975762 0.017582139 0.04161625 -0.038932253 0.033577695 0.063956566 -0.04548035
-0.018792253 -0.08674601 0.04646959 -0.07992991 0.060752578 0.036649037 -0.034201927 0.020229524
-0.00526445 0.010341677 -0.02485614 -0.0059816157 0.010478588 0.01052708 0.037925713 -0.003478779
0.03827903 0.019802725 0.045304123 -0.0099581005 -0.01398453 -0.014216425 0.003701906 -0.021698078
0.015210478 -0.0074887974 -0.030008793 0.019393897 -0.00015632945 0.047356963 0.00038587872 -0.024561398
-0.054922372 -0.024606833 0.010613557 -0.02219646 -0.020020748 0.036217917 -0.028309539 -0.035178825
-0.05424998 -0.019195272 -0.013840492 0.024373204 0.012709684 0.0011757704 0.018685788 -0.009030731
0.005029413 -0.005086126 0.012530223 -0.054710153 -0.0026766302 -0.028626809 0.06895812 -0.019402755
0.055701584 -0.011268174 -0.017756479 0.038323626 -0.044482574 0.059552256 0.02393697 -0.079541445
-0.027610922 0.02678877 0.049534064 -0.036552176 -0.0032872888 0.06100462 -0.03796449 0.029644381
-0.015518874 -0.025980653 0.01964001 -0.017588105 -0.022666603 -0.0012730419 0.017040703 -0.015369846
0.0093057845 -0.021038806 -0.008191109 -0.010377333 -0.039687842 0.0070439265 0.02217628 -0.005552497
0.06169401 0.06765482 -0.09402129 0.06855987 -0.006959033 0.002143801 0.017119173 -0.021803519
-0.040293075 -0.025639195 0.00288003 0.007514472 0.040678836 0.019750517 0.048674863 0.014919469
-0.039066195 -0.021156874 0.0200454 0.035972245 0.0003873692 -0.03857895 -0.002774996 0.036926523
0.044885606 0.018215444 0.011251683 -0.042369775 -0.06337195 -0.03675822 0.023235599 0.011796272
0.02421371 0.012382638 0.014472584 0.0511361 -0.031109435 0.0326115 0.0061182524 -0.027101412
-0.040713552 -0.03436943 0.0075197043 -0.06071036 -0.011952456 0.03471529 -0.018504184 0.0146968
-0.028461434 0.014994563 -0.013947691 0.005808629 -0.007048177 -0.024471572 -0.026189914 -0.042292792
0.013527538 -0.009842048 0.0030369053 -0.014542175 -0.0001968142 -0.033490535 0.011630052 -0.018444955
-0.005100127 0.0010982832 -0.0062332344 0.036076132 -0.02198597 0.047566064 0.057727527 -0.006787074
-0.0734553 -0.004928744 0.05003999 -0.05114941 -0.003916321 0.010575303 -0.012113959 -0.045081235
0.0053795255 0.0010848555 -0.04716594 0.028164707 0.04538411 -0.013526693 -0.016184345 0.0023785725
0.021476658 -0.0046309996 0.011508875 -0.015706323 0.0051123113 -0.054999974 0.028659688 -0.020678213
0.025378658 -0.028993588 -0.079285905 0.048602372 -0.046389453 0.04809107 0.016256204 -0.037325148
-0.025977662 0.0002724165 0.0020857775 -0.06099569 -0.014327066 -0.03634063 0.0012775682 -0.037845347
00000000: b17a 99bc ec50 843d 4827 9cbd 4e13 e2bb
00000010: fd81 4d3d 603e 5ebc dd11 c2bc 9651 bcbc
00000020: 2004 8dbc 5437 e7bc ea20 81bc e40b 97bc
00000030: 026b 1e3d 94b9 11bc 1c5d 883c 3382 9fbc
00000040: 2780 3b3d 1147 ccb9 c5d3 eebc 05d2 bf3c
00000050: 5dab aebd 2a70 b83c 3346 dd3c 7c1d debb
00000060: 8299 5ebd 71c5 65bd b3b1 e3bb c21f 72bc
00000070: d425 2cbc 386a 133d e81e 34bd e7bc d0bc
00000080: b6d7 a0bd 8f28 9dbc d126 3a3d 3f4c 84bd
00000090: 4ca2 18bd 098e 433c cb3f 193d 2542 37bd
000000a0: ab45 c53c 5ea1 40bd 957d f73a a86e 843c
000000b0: d0f4 85bb 0d37 84ba 0d78 9ebc fb1d 0bbc
000000c0: 34f3 19bd 9adf 823c 6b08 903c cd75 2a3d
000000d0: 6d77 1fbd c488 093d a9fb 823d 9a49 3abd
000000e0: 36f2 99bc e4a7 b1bd e656 3e3d 4bb2 a3bd
000000f0: b2d7 783d 4d1d 163d 5217 0cbd 63b8 a53c
00000100: 6881 acbb 2370 293c 1b9f cbbc 6e01 c4bb
00000110: 62ae 2b3c c679 2c3c fe57 1b3d 3afc 63bb
00000120: 79ca 1c3d 5339 a23c d190 393d 4d27 23bc
00000130: 5f1f 65bc 02ec 68bc ad9b 723b 2bc0 b1bc
00000140: 5e35 793c 9664 f5bb 00d5 f5bc f3df 9e3c
00000150: 5eec 23b9 60f9 413d c44f ca39 fc34 c9bc
00000160: 48f6 60bd 4594 c9bc 7ce4 2d3c 5ad5 b5bc
00000170: 8d02 a4bc 3d59 143d 68e9 e7bc ac17 10bd
00000180: 3a35 5ebd 673f 9dbc 3bc3 62bc 50aa c73c
00000190: 473c 503c 4f1c 9a3a f012 993c a2f5 13bc
000001a0: c6cd a43b 84a9 a6bb 904b 4d3c c117 60bd
000001b0: 676a 2fbb c582 eabc ea39 8d3d 87f2 9ebc
000001c0: 5827 643d 269e 38bc 0976 91bc 3cf9 1c3d
000001d0: 5c33 36bd 11ed 733d 7717 c43c a0e6 a2bd
000001e0: 4d30 e2bc 1f74 db3c 3be4 4a3d bcb7 15bd
000001f0: 8e6f 57bb fbdf 793d a780 1bbd c6d8 f23c
00000200: e042 7ebc 61d5 d4bc 16e4 a03c ee14 90bc
00000210: 50af b9bc 33dc a6ba f298 8b3c ced1 7bbc
00000220: 4a77 183c 9359 acbc 0034 06bc b005 2abc
00000230: b88f 22bd bdd0 e63b 08ab b53c b9f1 b5bb
00000240: dcb2 7c3d 9c8e 8a3d 3c8e c0bd 1e69 8c3d
00000250: 9a08 e4bb 037f 0c3b 823d 8c3c 4b9d b2bc
00000260: 5a0a 25bd 4a09 d2bc e3be 3c3b f63b f63b
00000270: da9e 263d d6cb a13c 4b5f 473d ca70 743c
00000280: e003 20bd 2e51 adbc 4036 a43c a257 133d
00000290: d017 cb39 f604 1ebd b5dc 35bb 4440 173d
000002a0: f8d9 373d 8e38 953c fb58 383c ee8b 2dbd
000002b0: 27c9 81bd ca8f 16bd 9558 be3c 2745 413c
000002c0: d55b c63c 8ce0 4a3c 6b1e 6d3c 1674 513d
000002d0: 37d9 febc a393 053d 9f7b c83b c803 debc
000002e0: 41c3 26bd f6c6 0cbd da67 f63b 6dab 78bd
000002f0: 3cd4 43bc 9f31 0e3d 1696 97bc d9ca 703c
00000300: f427 e9bc c1ab 753c db84 64bc 5056 be3b
00000310: 65f4 e6bb 9b78 c8bc 3b8c d6bc 353b 2dbd
00000320: 9ba2 5d3c 8b40 21bc d106 473b 4e42 6ebc
00000330: e95f 4eb9 5f2d 09bd f98b 3e3c e019 97bc
00000340: f71e a7bb 45f4 8f3a 2940 ccbb 91c4 133d
00000350: ec1b b4bc a2d4 423d b373 6c3d 1a66 debb
00000360: bb6f 96bd 4d81 a1bb bcf6 4c3d 0b82 51bd
00000370: 7b54 80bb 0944 2d3c a079 46bc 1aa7 38bd
00000380: bb46 b03b b631 8e3a 1331 41bd acb9 e63c
00000390: b0e4 393d 109f 5dbc 0895 84bc d3e1 1b3b
000003a0: d1ef af3c a4bf 97bb b88f 3c3c 8caa 80bc
000003b0: 2d85 a73b a747 61bd b9c7 ea3c 5b65 a9bc
000003c0: e7e6 cf3c f683 edbc a660 a2bd 4813 473d
000003d0: de02 3ebd 24fb 443d bb2b 853c 41e2 18bd
000003e0: 1bcf d4bc 20d3 8e39 8ab1 083b 9ed6 79bd
000003f0: 12bc 6abc ead9 14bd 1374 a73a b903 1bbd

fc2.bias f4 [32]
0.1034989 -0.065745674 0.024397623 0.08551315 0.0077829594 0.028686693 -0.031304043 0.022580387
0.013403733 0.0506856 -0.089254744 0.0049257022 -0.051247336 0.016419746 -0.012912256 0.041814584
-0.062736295 -0.074493594 0.05592916 0.07862078 -0.04882272 -0.06718722 0.07694511 -0.058196034
-0.06533375 -0.08437365 0.073295906 -0.04379107 -0.00071914465 -0.09589983 -0.08985811 -0.05264571
00000000: 3bf7 d33d aba5 86bd 86dd c73c 8521 af3d
00000010: 3208 ff3b 5b00 eb3c ab38 00bd 81fa b83c
00000020: 559b 5b3c b49b 4f3d 31cb b6bd c967 a13b
00000030: bae8 51bd b482 863c ed8d 53bc c545 2b3d
00000040: e37b 80bd 1990 98bd fa15 653d ee03 a13d
00000050: 55fa 47bd 7499 89bd 6695 9d3d f75e 6ebd
00000060: b3cd 85bd 18cc acbd 2a1c 963d 445e 33bd
00000070: fb84 3cba 2167 c4bd 8707 b8bd 07a3 57bd

fc3.weight f4 [10, 32]
0.06762555 -0.09864241 -0.013497193 0.04818604 0.16913897 0.0643138 0.021864707 0.11141561
0.09896424 -0.10252961 0.1866501 -0.07396192 -0.08419756 -0.044147234 0.015448108 -0.09726947
-0.07307326 0.13536352 0.08571477 0.03582105 0.23147604 0.109456785 -0.12231533 -0.0033354678
0.072993316 -0.07260063 0.0040293764 0.015711386 0.06665975 -0.03960996 0.014295302 0.01785521
0.08654907 0.14198937 0.007599794 0.1049022 0.028075935 0.03587807 0.116260044 0.10200748
0.17369327 0.19446018 0.08530758 -0.0765794 -0.07033281 0.20418163 0.18943235 0.04779702
-0.05902976 -0.06340512 0.17200738 0.017370997 0.012190808 0.017783584 0.06661953 0.16003919
0.046598304 0.06858624 0.059594374 0.10774025 0.09950127 0.07841082 -0.011596791 -0.07935364
0.025792854 -0.0852358 0.025158476 0.07503407 0.15570551 -0.052362517 -0.014819415 -0.089968555
0.0029913518 0.13379286 0.011503891 -0.08984378 0.106852904 -0.056973938 0.03608079 0.14897907
0.116091415 0.13346018 0.06086801 0.03550865 0.0972286 -0.07298447 0.13808545 -0.1404945
0.021244299 -0.07956089 0.10146315 0.04457613 -0.03776625 0.21188755 -0.009718261 0.052414216
0.03484279 0.03683666 0.003282091 0.077678196 0.13014455 -0.10530819 0.1641513 0.054853335
-0.007343009 0.0035073836 0.0132546555 -0.012747549 0.11205379 0.18362425 0.1834834 -0.08760716
-0.057444505 -0.061796367 0.08403969 0.050755735 0.18797244 0.17895001 0.07137743 -0.05302323
0.03006222 0.17240939 -0.05621655 0.10924591 0.080165915 -0.056154806 0.11239188 0.010252821
0.1093275 0.2505423 0.111067005 0.04337124 0.111809336 0.032495886 -0.024049737 0.11056168
0.014831003 0.15737446 0.054242633 0.091131315 -0.021757603 0.12344033 -0.010863996 0.040758807
-0.10875376 -0.0426314 -0.08339748 -0.060749426 -0.08770285 0.10421672 0.06911264 -0.11135118
0.120800264 0.07399677 -0.049957745 0.036936548 0.17333189 0.09009686 0.0032365313 0.0808817
0.17031942 0.090645894 -0.16268054 0.13330139 0.052488208 0.09870858 0.13918783 0.076704
0.1835083 -0.06894321 0.1243433 -0.10625715 -0.045266014 0.1463169 0.16986132 0.15748835
-0.019516852 -0.08308725 -0.013311525 -0.0778328 -0.046388358 -0.09679409 0.033080764 0.12165725
-0.001561807 -0.03838113 0.19277507 0.13943136 0.17396301 0.16638829 0.11585058 0.13261852
0.09215662 0.19242954 -0.023825822 0.03244818 -0.13487972 0.0015667295 -0.07604521 -0.12760362
0.18887794 0.110250056 0.039731655 0.13120915 0.115248404 -0.06806327 0.15299043 0.04309432
-0.0830937 0.036686644 -0.1478508 0.010503942 0.10380328 -0.029461794 0.09706106 0.13224773
0.06416673 -0.045073878 0.101976015 -0.035175767 0.019011652 0.016645132 0.063386135 0.036397953
0.06277756 0.12240597 0.17646477 0.04611037 0.028926412 0.117128596 -0.00824542 -0.09010289
-0.06788296 -0.14535138 0.03424339 0.2070681 0.19556582 0.12422291 0.06585277 -0.04760872
-0.08372189 0.19183744 0.17437881 0.057109695 -0.036666058 -0.0017560672 -0.08313781 0.20846194
-0.041613404 0.1673714 -0.07857686 0.018036697 -0.047183402 0.10390953 0.013589048 0.04999431
00000000: 447f 8a3d 0805 cabd 5523 5dbc ba5e 453d
00000010: c432 2d3e f4b6 833d 9d1d b33c de2d e43d
00000020: c3ad ca3d 0bfb d1bd 3421 3f3e 5979 97bd
00000030: c56f acbd bbd3 34bd 101a 7d3c 3735 c7bd
00000040: 6fa7 95bd bc9c 0a3e 3a8b af3d 18b9 123d
00000050: 0e08 6d3e e12a e03d 7680 fabd dd97 5abb
00000060: 857d 953d a4af 94bd dc08 843b 2ab5 803c
00000070: e884 883d 0e3e 22bd d836 6a3c 1745 923c
00000080: a440 b13d a965 113e b107 f93b f7d6 d63d
00000090: 81ff e53c e2f4 123d bf19 ee3d 4ce9 d03d
000000a0: a6dc 313e 9220 473e beb5 ae3d a9d5 9cbd
000000b0: a60a 90bd fd14 513e 8efa 413e cfc6 433d
000000c0: 31c9 71bd 8bda 81bd b422 303e 9f4d 8e3c
000000d0: f4bb 473c e1ae 913c d26f 883d 50e1 233e
000000e0: dddd 3e3d f176 8c3d 3b19 743d eca6 dc3d
000000f0: 52c7 cb3d da95 a03d 7800 3ebc 2984 a2bd
00000100: 894b d33c 1b90 aebd 2619 ce3c 76ab 993d
00000110: 4471 1f3e 147a 56bd 22cd 72bc 6f41 b8bd
00000120: 8e0a 443b ff00 093e d17a 3c3c 0400 b8bd
00000130: b2d5 da3d 815d 69bd 73c9 133d f88d 183e
00000140: 56c1 ed3d c9a9 083e bc50 793d 8571 113d
00000150: ca1f c73d e278 95bd 4666 0d3e cadd 0fbe
00000160: 8608 ae3c d2f0 a2bd e9cb cf3d 7695 363d
00000170: c9b0 1abd 0df9 583e 5739 1fbc 4ab0 563d
00000180: 50b7 0e3d 0ae2 163d 5a18 573b bf15 9f3d
00000190: 9d44 053e d2ab d7bd 4717 283e e4ad 603d
000001a0: a09d f0bb 22dc 653b 0e2a 593c 19db 50bc
000001b0: 757c e53d ff07 3c3e 13e3 3b3e 626b b3bd
000001c0: ee4a 6bbd 301e 7dbd 001d ac3d 3fe5 4f3d
000001d0: d97b 403e ac3e 373e 542e 923d e32e 59bd
000001e0: 0b45 f63c 168c 303e 5343 66bd 52bc df3d
000001f0: 072e a43d 9502 66bd b72d e63d 73fb 273c
00000200: 19e7 df3d 1547 803e 1977 e33d 0ba6 313d
00000210: 4bfc e43d 681a 053d f403 c5bc 296e e23d
00000220: bcfd 723c c526 213e 862d 5e3d 0ea3 ba3d
00000230: 003d b2bc 49ce fc3d e7fe 31bc b5f2 263d
00000240: 4bba debd 439e 2ebd 4ccc aabd 64d4 78bd
00000250: 8d9d b3bd 936f d53d ee8a 8d3d 160c e4bd
00000260: 2166 f73d 9e8b 973d 7ea0 4cbd c74a 173d
00000270: ea7d 313e b484 b83d fc1b 543b 4ea5 a53d
00000280: 3768 2e3e 8ea4 b93d ba95 26be 2980 083e
00000290: e0fd 563d b927 ca3d 4187 0e3e fd16 9d3d
000002a0: 9ae9 3b3e 1932 8dbd b3a7 fe3d 599d d9bd
000002b0: db68 39bd 19d4 153e 20f0 2d3e a044 213e
000002c0: cee1 9fbc a629 aabd 9518 5abc ce66 9fbd
000002d0: b801 3ebd fb3b c6bd b27f 073d 7027 f93d
000002e0: 8cb5 ccba 8835 1dbd d466 453e 18c7 0e3e
000002f0: 5c23 323e b161 2a3e 1243 ed3d 26cd 073e
00000300: 9cbc bc3d 400c 453e 5f2e c3bc 62e8 043d
00000310: e91d 0abe b85a cd3a 97bd 9bbd 86aa 02be
00000320: 3869 413e c8ca e13d a9bd 223d b15b 063e
00000330: 5b07 ec3d c164 8bbd 86a9 1c3e ab83 303d
00000340: 082d aabd bc44 163d 3366 17be ba18 2c3c
00000350: d096 d43d dc59 f1bc f3c7 c63d f36b 073e
00000360: d969 833d 639f 38bd cdd8 d03d 7714 10bd
00000370: 53be 9b3c 5f5b 883c 97d0 813d 0516 153d
00000380: 8591 803d fbaf fa3d 2eb3 343e 3ade 3c3d
00000390: 15f7 ec3c 1ee1 ef3d cc17 07bc dd87 b8bd
000003a0: 3906 8bbd fed6 14be cc42 0c3d a909 543e
000003b0: 6842 483e 9568 fe3d d1dd 863d 5c01 43bd
000003c0: 6276 abbd 0971 443e 5c90 323e dbeb 693d
000003d0: 262f 16bd d62b e6ba 2844 aabd 0c77 553e
000003e0: d172 2abd 6963 2b3e e8ec a0bd b2c1 933c
000003f0: 6243 41bd 85ce d43d 99a4 5e3c d5c6 4c3d

fc3.bias f4 [10]
0.40737107 0.43063393 0.42788464 0.5293691 0.4786374 0.69856566 0.28743067 0.44306812
0.12681587 0.035305995
00000000: f192 d03e 0d7c dc3e b213 db3e bc84 073f
00000010: f60f f53e 33d5 323f 1d2a 933e d3d9 e23e
00000020: 05dc 013e 059d 103d
