domain_adaption/best_cross_net.pth.tar (torch, 282921 bytes, 20 tensors)

Fea.gcn1.w f4 [10, 32]
000000 53 b1 40 bb f2 29 26 ab af 8c ec bd 52 5b 59 bd
       -0.0029402568 -5.903326e-13 -0.11550271 -0.053065605
000010 21 7b a7 bb 02 f6 82 bc f8 b7 b5 ba 01 d4 28 3f
       -0.0051111137 -0.015986446 -0.0013864031 0.6594849
000020 d9 12 57 b9 ec da b7 bc 26 0f 8e bd 4b b9 c6 af
       -0.00020511019 -0.022443257 -0.06936483 -3.614765e-10
000030 bd 76 4b b7 95 05 24 b5 89 2f b0 bd 15 af eb be
       -1.2127389e-05 -6.1102884e-07 -0.086028166 -0.46032014
000040 71 80 07 bd f4 0c 4b b8 4f 68 e4 bc 6b b0 21 b9
       -0.033081476 -4.8411035e-05 -0.02788177 -0.00015419877
000050 12 05 13 bd 9b 4b 63 b8 07 53 2f bc 5f 9c ad b2
       -0.035893507 -5.419143e-05 -0.010700948 -2.021096e-08
000060 ec 6b ce bb d6 09 9c bd b8 67 0d 3f 69 8c 09 b7
       -0.0062994864 -0.076190636 0.5523639 -8.198528e-06
000070 a5 0e 4f bd a0 bc ae bb a9 dc 1f bf e5 37 0c b7
       -0.050551075 -0.0053325444 -0.62446076 -8.357664e-06
000080 7a e2 03 bd ff 2f 4f ab 68 b6 13 bd 24 86 28 bd
       -0.032198407 -7.360778e-13 -0.036062628 -0.04114355
000090 96 c4 49 bb 31 ef 28 bc a7 91 83 bc b1 30 0c bf
       -0.003078734 -0.010310934 -0.016060663 -0.547618
0000a0 e9 65 86 30 68 70 96 ba b5 81 94 bd c3 6d 2b 32
       9.778748e-10 -0.0011477591 -0.07251302 9.978467e-09
0000b0 a6 d6 f0 2c 29 71 2d ae c5 de 0e bd f7 2e 11 3f
       6.845041e-12 -3.9436152e-11 -0.03488042 0.5671229
0000c0 18 c4 b8 bc df 7f 92 2c 54 97 e9 bc 95 fa 8b b5
       -0.022554442 4.163766e-12 -0.028514542 -1.0429236e-06
0000d0 c5 44 77 bc b7 53 98 2d 88 aa 09 bb d7 c4 16 b3
       -0.0150920795 1.7317576e-11 -0.0021006186 -3.510362e-08
0000e0 c6 ad db 39 e2 b8 8f bd 78 f6 90 bd 40 cd 8e b6
       0.00041900406 -0.070176855 -0.0707826 -4.255824e-06
0000f0 fc 78 87 bd 62 ea 3e bb 88 fa 96 bf dc f7 8b 2b
       -0.06614873 -0.0029131402 -1.1795206 9.945339e-13
000100 ae 6f 39 bd 4f 05 15 b5 15 0e b4 3c 8a b4 01 bb
       -0.04527252 -5.551455e-07 0.021979371 -0.0019791448
000110 dc 63 fa bb ee d0 bd bc 1e c5 cb 3b 03 70 ad 3e
       -0.0076412987 -0.023170915 0.0062185666 0.3387452
000120 cf ea aa b7 1b a5 24 bd 22 65 05 bd c1 d8 c0 b5
       -2.037492e-05 -0.04019652 -0.03256715 -1.4368198e-06
000130 f3 3d 49 b6 50 15 67 ac 3b 07 a1 3c 83 38 bd be
       -2.9987393e-06 -3.2838905e-12 0.019656768 -0.36957178
000140 aa 65 b4 3a b6 82 e1 ac a4 88 32 bb 5b 70 00 b9
       0.0013763208 -6.4093965e-12 -0.0027242089 -0.00012248887
000150 59 fa c2 bc 0f f3 09 31 8d 64 bb bb 84 58 d4 b4
       -0.023801016 2.0074287e-09 -0.0057187737 -3.955248e-07
000160 d4 18 81 bc e4 34 af bd f2 2a 90 bd a3 ef a2 b6
       -0.01575891 -0.0855501 -0.07039441 -4.8558736e-06
000170 fa 09 d8 bd ae ec 1d bc 55 36 15 bd 9d bf 0b aa
       -0.10548778 -0.009638948 -0.03642877 -1.2412159e-13
000180 82 c6 35 bd 6e c6 35 a9 45 9b 4f bc 8a db ab bd
       -0.044378765 -4.0362184e-14 -0.0126712965 -0.08391483
000190 16 5a cb b9 aa 2f 98 bb 17 cf b1 bb 2f 0a 0c c0
       -0.00038786296 -0.004644354 -0.0054262984 -2.1881216
0001a0 91 a4 b0 2b 97 9f 75 bc f3 6d 9d bd da 35 88 32
       1.2551229e-12 -0.014991662 -0.07686987 1.5856973e-08
0001b0 70 20 46 ab d3 d9 3e a9 52 f7 3e bd da 13 19 bf
       -7.0388747e-13 -4.2377407e-14 -0.04662258 -0.59795916
0001c0 1b 97 a3 3b 1d 82 dd 2b 37 bb 86 bb 66 20 b2 b3
       0.0049923784 1.5739108e-12 -0.004111673 -8.294664e-08
0001d0 64 22 5b bb 9a ce 40 2a 2e aa 84 b7 a0 31 f0 b3
       -0.0033437246 1.7124705e-13 -1.5814872e-05 -1.11848976e-07
0001e0 56 61 7a 33 61 98 dd 3a 89 4d 09 bb c7 03 be b5
       5.8296187e-08 0.0016906374 -0.0020950756 -1.4157202e-06
0001f0 65 f5 e0 bc cc c3 2a 3b d9 54 5d bf 1c 26 71 29
       -0.027460763 0.0026056645 -0.8645759 5.3545804e-14
000200 44 e6 14 bd 6e 66 a4 28 4b 5e 98 bc 62 94 9b bd
       -0.03635241 1.825208e-14 -0.01859965 -0.07596661
000210 e4 a7 17 b8 d1 be 32 b6 cd 0a d3 ba 16 6a 28 be
       -3.6157566e-05 -2.6635137e-06 -0.0016101241 -0.16446719
000220 0f 36 d3 a8 c1 53 de ba 53 f8 c4 bd 2b 69 16 b2
       -2.344915e-14 -0.0016962216 -0.096176766 -8.755062e-09
000230 ff 03 3f a9 bb 82 59 29 20 80 f0 bb 32 87 93 bf
       -4.2413986e-14 4.829707e-14 -0.0073394924 -1.1525633
000240 c5 e9 4d bc 43 b7 9e ac 83 d5 a5 bb ab 89 f2 a8
       -0.012567942 -4.5109762e-12 -0.005060853 -2.6927101e-14
000250 58 96 fc b9 e1 ba 08 a7 77 ea 09 af 4a 4a 0e b4
       -0.000481772 -1.8975099e-15 -1.2543376e-10 -1.3251807e-07
000260 e9 86 0e 2d 29 bc 28 3d 8e f5 2e 3f ac 50 06 b4
       8.1017216e-12 0.04119507 0.68343437 -1.2509071e-07
000270 5f 84 4a bc 7a d1 cf 3b 6a e7 af bf 18 c6 a6 27
       -0.012360661 0.00634211 -1.3742497 4.628903e-15
000280 79 92 93 36 86 44 97 ab 4c ee 1a be 36 e7 a0 bd
       4.397993e-06 -1.0748214e-12 -0.15129966 -0.078566
000290 c5 40 00 bc 90 8a 87 bc ad fb f4 ba e8 ce 94 bf
       -0.007827942 -0.016545564 -0.0018690728 -1.1625643
0002a0 d8 16 41 b9 b1 71 4b bc 73 f2 a4 bd d9 ae b1 b3
       -0.00018414424 -0.012417243 -0.08054056 -8.2740094e-08
0002b0 fc bf 99 b6 1c b5 a3 b4 4a 72 e9 bd ef 41 5c bf
       -4.5821052e-06 -3.049289e-07 -0.11398752 -0.86038107
0002c0 34 6e 36 bd e8 a8 90 b8 3c 94 1b bd 25 4d 3a b8
       -0.04453869 -6.897916e-05 -0.037983164 -4.4417702e-05
0002d0 5e c9 0d bd 19 f7 4d b8 6b 98 30 bc 6f fa 1a b3
       -0.034615867 -4.9105936e-05 -0.010778527 -3.6083687e-08
0002e0 e7 6f 83 3b f8 c4 f8 bd 45 02 a3 3d 2d 62 23 b7
       0.0040111425 -0.12146944 0.07959417 -9.738415e-06
0002f0 49 b5 33 bd f0 fd af bb da d4 ec 3e 9f 68 10 b7
       -0.04387406 -0.005370848 0.46256143 -8.607428e-06
000300 e0 c8 24 bd 81 11 31 aa b7 40 c5 bd 57 9e 27 bd
       -0.04023063 -1.5726831e-13 -0.09631484 -0.04092249
000310 84 e8 32 bb 95 f4 12 bc 7d e3 8e bc 7c 7e b7 bd
       -0.0027299235 -0.008969446 -0.01744246 -0.08959672
000320 77 6d 93 30 6d a3 f7 bb 72 25 8f bd ae 7c ed b2
       1.072677e-09 -0.0075573237 -0.06989564 -2.7647129e-08
000330 98 24 89 2c 30 53 60 2e b5 eb 73 bd 80 f4 0f 40
       3.897837e-12 5.100559e-11 -0.05955096 2.249298
000340 54 ac 16 bd 21 f7 44 ae 38 19 0a bd 22 fc 7c b5
       -0.03678544 -4.4784735e-11 -0.033715457 -9.4244217e-07
000350 f1 c4 83 bc 4c 23 93 2d ed 21 fa ba 3d a2 2a b3
       -0.01608512 1.672764e-11 -0.0019083597 -3.9728764e-08
000360 9d 12 87 3a 36 67 96 bd 8c a7 1b c0 82 b5 6f b6
       0.001030523 -0.07343905 -2.4321012 -3.5719427e-06
000370 cf f3 75 bd d5 79 3f bb 8c ad a8 3f 9a c5 55 ab
       -0.060046967 -0.0029216905 1.3177962 -7.594703e-13
000380 9b a3 4a bd bf 3c ac b5 a9 be 56 3d 5b a2 bf 3b
       -0.049472433 -1.2832678e-06 0.05242792 0.0058482117
000390 26 06 cb bb 13 3d be bc 80 7d db ba de 34 75 3e
       -0.0061958013 -0.023222482 -0.0016745776 0.23945948
0003a0 ca 6e 89 b7 69 d5 26 bd ea 41 07 bc 86 16 8e b6
       -1.6383263e-05 -0.040730868 -0.008255461 -4.234552e-06
0003b0 6e a5 7d b6 7f f5 50 ac 1e 3e 18 3d 05 15 07 bf
       -3.779623e-06 -2.9694856e-12 0.037168615 -0.5276645
0003c0 d2 a2 42 3c d4 4e a3 2b f9 bd 10 3c f0 4c 88 b9
       0.01187964 1.1603726e-12 0.0088343555 -0.00025997264
0003d0 48 ad a6 bc 38 96 b5 30 1c cb b4 bb 87 1e bd b4
       -0.020346299 1.3212178e-09 -0.0055173766 -3.5226205e-07
0003e0 5c e8 9a bc 13 a7 84 bd 26 b1 de 3e 02 8c 77 b6
       -0.018909626 -0.064771794 0.4349453 -3.6887363e-06
0003f0 0c 6c db bd 6d 1d 1d bc 85 f2 bc be 4c 20 62 2a
       -0.10713968 -0.009589535 -0.36903778 2.0084038e-13

Fea.gcn2.w f4 [32, 32]
000000 69 c5 41 ba 96 49 03 bb ec c1 63 bb 47 74 0d ba
       -0.0007391782 -0.0020032874 -0.0034753038 -0.000539605
000010 d0 48 99 3c 17 41 24 bc 5e be 68 b9 d3 1c b3 3b
       0.018711478 -0.010025284 -0.00022196161 0.0054660826
000020 1e b2 86 39 b1 84 7f 3c 12 ff 6b 3c 91 ba de 39
       0.0002569118 0.015595601 0.014404075 0.00042482142
000030 c1 3f 68 bb 00 41 cd bb b1 45 87 bc 35 f5 4f 3a
       -0.003543839 -0.006263852 -0.016512724 0.0007932962
000040 0b 9a 64 bb 8c 33 b1 bc dd 47 2e 3c a6 ae 92 3d
       -0.0034881856 -0.021631025 0.010637251 0.07162218
000050 a4 b4 d3 3b 51 54 0e 3c 3d be 22 3c 57 6e 9d bc
       0.006460743 0.008687095 0.009933052 -0.019217653
000060 fa 38 aa b9 0a 4f 8c 3c b0 52 c2 39 5b 5b 08 3b
       -0.00032467378 0.017127533 0.0003706417 0.0020806405
000070 46 c3 b5 3b 0f 98 1f bc 91 29 77 3d 10 ff 90 3c
       0.00554696 -0.009740843 0.060342375 0.017699748
000080 df 33 a8 a8 ff 95 d0 28 f5 0b 78 a9 2c 8a 29 28
       -1.8674242e-14 2.315769e-14 -5.5077433e-14 9.411346e-15
000090 51 87 00 a9 f3 dd 8d a7 b2 23 01 29 8b b4 56 29
       -2.8539078e-14 -3.9376e-15 2.8674715e-14 4.767414e-14
0000a0 b9 51 32 a9 ca fc 70 28 97 9c 29 a9 01 4c b7 28
       -3.9594823e-14 1.3377491e-14 -3.7661358e-14 2.0350043e-14
0000b0 cf 80 93 28 a0 19 1f a9 47 0e 3f a4 1b 11 15 a9
       1.637614e-14 -3.532732e-14 -4.1428616e-17 -3.3099483e-14
0000c0 56 09 c0 28 32 36 ac 28 c5 a9 8a 28 59 fb 5f 28
       2.1320331e-14 1.911934e-14 1.5394704e-14 1.2433489e-14
0000d0 5d 57 2d 29 da 6c 21 29 7b c0 c6 25 2e 45 c2 28
       3.8489492e-14 3.5843595e-14 3.4477955e-16 2.1568329e-14
0000e0 67 99 05 a8 a2 d8 1d a9 16 f4 cf 28 7d 18 31 a9
       -7.416247e-15 -3.5048902e-14 2.3087472e-14 -3.9323135e-14
0000f0 7e 7e b9 28 f6 06 bc 29 73 1e 61 29 57 64 a2 29
       2.0593983e-14 8.350085e-14 4.9986447e-14 7.2116514e-14
000100 e4 89 26 3d 30 92 ee 3d b1 ad 1f bc df 10 3a 3d
       0.040658846 0.11648977 -0.009746001 0.045426246
000110 7c 7f 2e bd ec 58 d4 bc bb 66 a4 bb f2 5e e8 bd
       -0.042602047 -0.025921308 -0.0050171292 -0.113462344
000120 02 fb 41 3d de 8f 51 bd 56 62 bf 3d ae 5f 07 be
       0.04735852 -0.051162593 0.09344928 -0.13220093
000130 70 48 3c 3d 16 52 f6 3d 38 f1 29 3d a7 be 9f 3d
       0.04596752 0.120273754 0.04148981 0.07800036
000140 dc dc c6 bc ac 51 be 3d 74 2e 19 be f2 51 c3 bb
       -0.024275236 0.092929214 -0.14959127 -0.0059606964
000150 73 da 50 3d ce 81 e4 3d 7f d7 d0 bb 72 08 8b 3d
       0.05098958 0.11157571 -0.0063733454 0.0678872
000160 05 bc 88 3d a3 65 bd bd 4a b5 a1 bc ac af 56 bd
       0.06676487 -0.09247901 -0.019739766 -0.052413628
000170 8e 67 70 bd b4 1c ca 3d fc 4f 4c bb 5f ac f7 3d
       -0.058692507 0.09868756 -0.0031175604 0.12093424
000180 49 7c 88 3c f5 90 ed 3d ec df 05 3d 33 a3 29 ba
       0.016660826 0.11599914 0.03268425 -0.0006471157
000190 67 39 61 3d b2 47 55 3c c1 48 c0 bc 97 99 d6 bb
       0.054986384 0.013017582 -0.023472192 -0.006549071
0001a0 92 e9 d0 3c a1 8f 39 bb 09 a5 d0 bd b9 af 09 bd
       0.025502 -0.002831437 -0.10187728 -0.033614848
0001b0 46 f9 2e bc 4d e2 e5 bc 09 e0 01 be 0f 98 d0 b9
       -0.010679549 -0.02806201 -0.12683119 -0.00039786144
0001c0 27 ee 25 3d b3 de d3 3c 3d 87 1f bd 8a b8 0e be
       0.040510323 0.025863027 -0.038947333 -0.13937584
0001d0 3e 8a 8e bd 8d 79 03 bd 58 c8 ab bd bc 62 6d bb
       -0.06959961 -0.03209834 -0.08387822 -0.003622218
0001e0 8b a0 ff 3c e7 01 cf bb 7e c3 19 3c cb 15 42 bd
       0.031204483 -0.0063173654 0.009384988 -0.047384065
0001f0 b1 13 5a bc 22 e8 65 3d 7e fc ff bc 00 42 95 3d
       -0.013310359 0.056129582 -0.031248327 0.07287979
000200 28 a7 3e 31 9b 86 b7 b9 bf 5d d0 b9 b2 01 31 b0
       2.7743656e-09 -0.0003500477 -0.00039742698 -6.4394634e-10
000210 fa 5e ab b6 a3 f2 6e ae f3 8f 41 32 3f 75 b4 b8
       -5.107254e-06 -5.433044e-11 1.1266809e-08 -8.6049076e-05
000220 79 0e ca b8 2a 61 0d 39 56 c0 bc 30 5e 29 ae 37
       -9.634806e-05 0.00013483004 1.3733465e-09 2.076168e-05
000230 73 73 3e ba fb f5 8e 38 f5 70 6f 2c 28 fe 68 b7
       -0.0007265128 6.816905e-05 3.4026647e-12 -1.3887453e-05
000240 20 f8 12 ba 0c a6 6a a9 d2 3c bb b4 c2 f2 36 39
       -0.00056064315 -5.210246e-14 -3.4875717e-07 0.00017447307
000250 f6 28 4e b8 0e a6 01 2a a8 cf 71 3a 00 24 aa 38
       -4.9152375e-05 1.1515113e-13 0.00092243636 8.112937e-05
000260 48 1b 0e b9 aa 0f e7 b7 ba 02 e5 b9 4f 9b 7e b8
       -0.00013552338 -2.754464e-05 -0.00043680315 -6.070296e-05
000270 ee a5 93 39 9d 39 43 34 67 28 39 ab 67 37 af b9
       0.00028161652 1.818175e-07 -6.578127e-13 -0.0003341988
000280 44 94 68 bc 3a ed 84 37 9c fb a4 bc cf 5b 9b 3b
       -0.0141955055 1.5846093e-05 -0.020139508 0.004741169
000290 16 f4 9d bb 28 23 9c 3a 20 cf 77 ac 7f b4 cf bb
       -0.004820357 0.0011912333 -3.5215789e-12 -0.0063386555
0002a0 14 30 ca 35 c8 85 f6 3a b6 cd ea 3a 04 de 6b 3c
       1.5064165e-06 0.001880818 0.001791409 0.014396194
0002b0 23 c9 ec 39 ee 0e 08 3c 18 b7 d5 37 70 34 a0 ba
       0.00045163286 0.008304341 2.5476838e-05 -0.0012222659
0002c0 a1 f8 0d ba e7 63 20 bc b0 73 56 b9 8c c4 28 37
       -0.0005415772 -0.009789444 -0.00020451727 1.00593425e-05
0002d0 e8 f4 9e bb e6 15 6a bc 05 4c 43 3c 97 a3 4b 3c
       -0.0048509724 -0.014287448 0.01191998 0.01242914
0002e0 e0 66 70 bc 3b bd 50 ba 30 3c 8a b0 ef bd 05 b9
       -0.014672965 -0.0007962768 -1.0057928e-09 -0.00012754624
0002f0 74 ea aa b4 79 08 e6 ba d0 44 8f 2c c6 0d 34 39
       -3.1835555e-07 -0.0017550132 4.071944e-12 0.00017171269
000300 37 db bb ba 0a 20 87 bb a7 2d c9 37 0d 38 ef b7
       -0.0014332299 -0.0041236924 2.3982326e-05 -2.851712e-05
000310 1b de 35 37 b1 a6 0c b7 0e 4e f7 39 9e 6e fe b8
       1.0840154e-05 -8.383461e-06 0.00047169667 -0.00012132268
000320 38 6f ab 38 55 15 18 3a 93 50 df b6 24 28 75 35
       8.1746315e-05 0.00058015186 -6.655298e-06 9.1328025e-07
000330 ad c8 cb b9 28 46 08 ba 79 b2 1a b7 00 d9 91 39
       -0.00038868692 -0.00051984424 -9.220669e-06 0.00027818233
000340 2b 24 c3 39 00 85 6f 37 08 fc 7b 3a e8 2d 12 38
       0.00037220246 1.4276477e-05 0.0009612446 3.4851866e-05
000350 d2 ae 83 37 f8 e1 23 b5 25 7f 56 39 43 c0 7a 3b
       1.5697824e-05 -6.105106e-07 0.00020455995 0.003826157
000360 4f 4b 34 3a 69 42 d2 ba 66 d9 0d 39 d1 a0 9c ba
       0.0006877677 -0.001604152 0.00013527795 -0.0011949782
000370 88 d7 a9 39 29 78 a8 b9 57 57 0a 37 80 78 0a bb
       0.00032394775 -0.00032132983 8.245776e-06 -0.0021128953
000380 72 0d 00 3f fd 59 00 3f 47 03 55 3e 6a 0b 94 3c
       0.50020516 0.5013731 0.20802031 0.018071849
000390 04 99 d4 3d ba a7 d1 be 53 ab e8 3d 6c a8 d2 3e
       0.10380748 -0.40948278 0.113608025 0.4114412
0003a0 65 09 ee 3d 97 4a 70 be 99 65 6c be ef cf 8f be
       0.116228856 -0.23465954 -0.23085631 -0.28088328
0003b0 5a e2 00 3f a0 d8 b6 be 46 0a 6b be a3 f0 fa 3d
       0.50345385 -0.35712147 -0.22953138 0.12252929
0003c0 64 e1 e3 3e 30 a1 84 3e ba c3 b6 3e 9c b1 1b 3e
       0.44507897 0.25904226 0.35696203 0.15204471
0003d0 4d 5e a3 3e 06 c0 3a 3e e8 a2 21 bf 21 d7 f2 bc
       0.31907883 0.18237314 -0.631392 -0.029643597
0003e0 13 28 4a 3e 89 10 b0 3e cd ff eb 3e 71 30 ff 3e
       0.1974185 0.34387615 0.46093598 0.49841645
0003f0 87 49 12 bf c4 b4 29 3f 5b b3 55 3d 1d 73 85 3e
       -0.57143444 0.6629145 0.052173 0.26064387

Fea.gcn3.w f4 [14, 32]
000000 cf e7 8a a7 ef 75 b7 ae 81 47 6d 27 17 b1 b5 b4
       -3.855402e-15 -8.342826e-11 3.292912e-15 -3.3842727e-07
000010 ae 10 ec a6 6e 78 dd 2d 2c e9 58 a9 ea 51 b3 ac
       -1.6380311e-15 2.5178273e-11 -4.816388e-14 -5.0965803e-12
000020 34 53 82 a5 6e 16 66 a6 67 9f 23 27 7e 44 5a 25
       -2.2607786e-16 -7.982768e-16 2.2707206e-15 1.8931692e-16
000030 4a 42 11 27 37 fc 79 aa 0d de 36 ae ea 95 87 a6
       2.0158728e-15 -2.2203147e-13 -4.157923e-11 -9.408141e-16
000040 04 b3 2f ad e7 81 20 b3 5c 9b e7 29 e5 d5 bb 33
       -9.987348e-12 -3.737105e-08 1.0285411e-13 8.746773e-08
000050 6c ab e6 ac 57 c3 2d a5 9f b9 6d aa fd d7 1e a6
       -6.556025e-12 -1.5071542e-16 -2.1114229e-13 -5.510998e-16
000060 aa 29 b2 26 7e 45 50 a7 b9 1a 02 28 a6 7f d0 b2
       1.2362524e-15 -2.890347e-15 7.222244e-15 -2.4272435e-08
000070 5f f3 50 27 d7 d0 2f a7 0c 34 41 27 ce 43 4d 27
       2.899773e-15 -2.439934e-15 2.6812345e-15 2.8486222e-15
000080 d8 f5 2a 2b c5 f6 2a 34 cf 6f 0c a7 ec 03 45 3a
       6.073731e-13 1.5922258e-07 -1.9489514e-15 0.0007515538
000090 10 60 0e 26 85 30 86 b4 12 cf 84 ae 29 1e d3 af
       4.9396336e-16 -2.4994748e-07 -6.039448e-11 -3.8402106e-10
0000a0 a7 a8 e9 25 7d 97 07 a7 57 69 1c a5 38 90 76 27
       4.053334e-16 -1.8817136e-15 -1.3566534e-16 3.421754e-15
0000b0 3a b5 6a a8 e4 5a ca 2d a6 24 9c 31 4b 42 24 a7
       -1.3028907e-14 2.3005105e-11 4.544364e-09 -2.279551e-15
0000c0 03 70 58 b1 40 9d 22 b5 d1 e3 c7 ac 80 aa 78 37
       -3.1495808e-09 -6.057853e-07 -5.681213e-12 1.48216495e-05
0000d0 19 c0 c4 b0 e1 50 20 28 f1 b6 44 ac 29 f9 07 a7
       -1.4315474e-09 8.899322e-15 -2.7954828e-12 -1.8870084e-15
0000e0 fb cd c2 a7 1c 63 5f a6 4e 80 5a ab d9 5c bd b6
       -5.406914e-15 -7.7502985e-16 -7.7627217e-13 -5.643448e-06
0000f0 6f 2d ae 26 9e 25 30 a7 ef 07 e7 a6 a3 20 0f 26
       1.208599e-15 -2.4445299e-15 -1.6030995e-15 4.965732e-16
000100 54 cd 7f a9 e5 29 1f 34 9e 71 09 a7 48 cd 83 39
       -5.6799468e-14 1.482327e-07 -1.9074161e-15 0.00025139214
000110 d4 6e c3 a5 c1 19 06 34 ac f9 82 ad 0f 16 98 2d
       -3.3902208e-16 1.2489092e-07 -1.4890165e-11 1.7290195e-11
000120 3c 4f 06 a6 8c 4e e8 26 2b 53 be 26 6c fe de 26
       -4.659797e-16 1.6119524e-15 1.3206441e-15 1.5473306e-15
000130 ee df 68 a6 01 7a 68 2d b4 ed cf b1 b4 15 34 a6
       -8.079465e-16 1.32147635e-11 -6.0515166e-09 -6.247946e-16
000140 0d ea 17 b0 0d d3 db b1 24 21 45 ac ce b2 09 b6
       -5.5266086e-10 -6.3977326e-09 -2.801378e-12 -2.0518669e-06
000150 59 da fa 30 14 23 97 a8 6a 46 cf ac 6d ec 06 a7
       1.8251952e-09 -1.677958e-14 -5.8911114e-12 -1.8724402e-15
000160 b3 ab 30 27 4d 99 0b 26 36 35 03 2b 4c 3f ca 35
       2.4517985e-15 4.8433074e-16 4.6614394e-13 1.5068595e-06
000170 89 45 8a a6 06 e0 46 26 31 98 f1 26 1b 64 45 27
       -9.594521e-16 6.899866e-16 1.6763986e-15 2.739351e-15
000180 98 57 95 29 1c 86 b6 32 1e 56 41 a7 20 33 5e 38
       6.632124e-14 2.1248574e-08 -2.6830815e-15 5.297654e-05
000190 bd 93 71 a6 a6 01 72 b1 07 4f d5 ac 3e c0 5b ae
       -8.3813894e-16 -3.5216572e-09 -6.062598e-12 -4.996558e-11
0001a0 44 e6 6d a7 30 2e 18 a7 ce 0f 54 27 fd 41 26 a7
       -3.3015184e-15 -2.1119276e-15 2.9429478e-15 -2.30729e-15
0001b0 88 c0 91 a7 65 43 e4 2b 5e f7 35 af a1 b8 32 27
       -4.0454327e-15 1.621908e-12 -1.6549737e-10 2.480255e-15
0001c0 29 bb 0b af aa a7 83 b4 6c 2f cb ab c4 a4 d1 b5
       -1.2708469e-10 -2.4522643e-07 -1.443718e-12 -1.5619667e-06
0001d0 86 4a 22 2f f8 1f 64 a6 fe 35 83 2c ff 15 79 27
       1.476029e-10 -7.9146716e-16 3.7292383e-12 3.4567616e-15
0001e0 91 aa 57 a7 12 1d c3 a5 ea 0c 86 aa 5d c0 cb 35
       -2.9929708e-15 -3.3846807e-16 -2.3812143e-13 1.5180664e-06
0001f0 7a c1 47 27 bf 14 7c 26 9e 55 17 a6 36 1a 2b 27
       2.7721682e-15 8.745818e-16 -5.250468e-16 2.3745226e-15
000200 24 f7 23 aa a3 2d bb 33 6b 2f 92 26 d7 21 9b 39
       -1.4563052e-13 8.716167e-08 1.0143638e-15 0.00029589116
000210 2c f5 1b a7 60 7e b8 33 c6 ea b6 ac 57 79 8b 2f
       -2.164348e-15 8.591155e-08 -5.198816e-12 2.537017e-10
000220 2d af fc 26 a6 1d 10 a7 e6 16 57 27 27 d6 66 a7
       1.7533494e-15 -2.0000087e-15 2.9849657e-15 -3.2035004e-15
000230 79 57 87 a7 4c b7 01 ad 2e ad fe b0 48 5d 85 a6
       -3.7564865e-15 -7.373501e-12 -1.8530153e-09 -9.254013e-16
000240 7b 64 81 af 1a 3a 1a b4 4f a3 c9 ab 85 c8 00 b5
       -2.353636e-10 -1.4363505e-07 -1.4327236e-12 -4.797551e-07
000250 1c 01 8d b0 1a 84 5f 27 08 1b 38 2d 3e cb 11 a6
       -1.0259416e-09 3.101908e-15 1.0465191e-11 -5.0582425e-16
000260 56 c3 50 a7 b3 b7 17 a5 16 88 84 ab 95 71 89 34
       -2.897169e-15 -1.3159402e-16 -9.416936e-13 2.560088e-07
000270 c3 e6 ec a6 ed 43 50 27 ae da 2f 26 9e be 56 27
       -1.6438338e-15 2.8902621e-15 6.101169e-16 2.98018e-15
000280 35 fb c7 a9 f5 28 48 33 30 eb 2c a7 08 a8 c0 38
       -8.880953e-14 4.660338e-08 -2.399729e-15 9.186572e-05
000290 ae 3f a1 26 f0 a5 ec 31 dc 01 a4 2d 72 f2 06 ae
       1.118888e-15 6.887369e-09 1.8645467e-11 -3.0683407e-11
0002a0 0e 5d 39 a7 74 a6 37 a7 ff 2f e1 26 90 13 40 27
       -2.5724352e-15 -2.5486586e-15 1.5625521e-15 2.6655957e-15
0002b0 00 7e 9d a7 29 38 89 ac 2f ad d8 b1 44 0c cc a6
       -4.3712863e-15 -3.9000092e-12 -6.306116e-09 -1.4158668e-15
0002c0 10 52 70 2d 70 43 27 b4 2f bc a3 a8 cd 8f 4c b6
       1.3660642e-11 -1.557762e-07 -1.8178247e-14 -3.0482072e-06
0002d0 7f b3 98 af d6 38 5f a7 e5 a5 80 ac 82 b3 2f a7
       -2.7776179e-10 -3.0978278e-15 -3.656397e-12 -2.438344e-15
0002e0 8e 1c 5c a6 ce 14 08 a7 27 7e ca 29 b4 2e 65 35
       -7.636653e-16 -1.888507e-15 8.992486e-14 8.537711e-07
0002f0 97 69 5f a5 db 97 42 27 09 e7 5a a7 ac ed 23 27
       -1.9377942e-16 2.700523e-15 -3.0378822e-15 2.2749636e-15
000300 ba 29 a0 bc 79 81 fe 37 36 1e 28 ba b4 8d da 3c
       -0.019551147 3.033945e-05 -0.0006413193 0.026678897
000310 30 d8 d3 bc 0b 2b 57 b9 a7 2d df bd 8d 70 07 be
       -0.025859922 -0.00020520033 -0.10897379 -0.13226528
000320 0e 04 6d bc cb 18 95 ba ff c1 0a bc fb 36 41 bc
       -0.014466299 -0.0011375187 -0.008469104 -0.0117928935
000330 34 bb 4a b5 7b 11 07 31 e5 03 12 b7 86 61 a2 b7
       -7.552328e-07 1.9655022e-09 -8.703185e-06 -1.9357318e-05
000340 5b e3 3a b9 ca c1 4d bb 8e 8b de bb 51 27 17 bd
       -0.00017823039 -0.0031396025 -0.0067915386 -0.03690273
000350 0d 18 13 bc b7 1e 66 bd b2 52 22 b3 90 31 f7 bb
       -0.008977902 -0.056181636 -3.7793775e-08 -0.00754375
000360 cb 66 8b bc e9 db 5c ba f1 55 43 bc 0b 54 ce bc
       -0.017016789 -0.0008425103 -0.0119223455 -0.02518656
000370 8f 9c 17 b8 21 33 2b bb 6c 10 5f bc 44 2f 9a bb
       -3.6147012e-05 -0.0026123004 -0.013614755 -0.0047053415
000380 2d d2 34 2c 09 a7 60 35 c8 ef d2 26 69 3d 0c 3b
       2.569621e-12 8.368957e-07 1.463667e-15 0.0021398908
000390 33 85 84 27 2a 9c 07 36 d1 3c 91 2f 62 7a 6a 2e
       3.6781775e-15 2.0207467e-06 2.641856e-10 5.3314138e-11
0003a0 c6 55 dd a7 96 2c cb a6 26 64 26 27 d2 c7 0e a8
       -6.1432818e-15 -1.409804e-15 2.3091418e-15 -7.925913e-15
0003b0 44 b3 08 29 5b e6 9c 2f ca ba cb 31 34 3e 48 27
       3.0353554e-14 2.8539912e-10 5.929313e-09 2.7789296e-15
0003c0 42 cd d1 b2 aa 3a d7 33 47 be 42 2d e0 b1 98 b6
       -2.4424143e-08 1.00223886e-07 1.1069873e-11 -4.5506604e-06
0003d0 ed 27 19 32 98 f8 94 a9 38 f6 63 ad 6f 9b c3 26
       8.91485e-09 -6.6156444e-14 -1.2958128e-11 1.3572973e-15
0003e0 d6 81 0d a8 35 4c 26 27 c0 da a8 2b 38 bc 80 37
       -7.855226e-15 2.307844e-15 1.1997833e-12 1.5346435e-05
0003f0 32 4c 58 a7 78 23 c8 a6 5f 4f 26 a7 d9 4b 31 27
       -3.0017327e-15 -1.3887402e-15 -2.3080155e-15 2.4604802e-15

Fea.gcn4.w f4 [32, 32]
000000 9c 64 db 33 58 ed 40 2e 3d f4 17 ae 6b 09 24 ae
       1.0216283e-07 4.386655e-11 -3.4550352e-11 -3.7297648e-11
000010 c7 cf a5 ad 12 22 e9 ac 67 f7 16 af f9 23 0f 2e
       -1.88506e-11 -6.626041e-12 -1.3730315e-10 3.2546386e-11
000020 13 a5 2f b2 54 d0 89 ac cd 6b 92 2d 6a 47 1a 2e
       -1.0223874e-08 -3.9169033e-12 1.6646151e-11 3.5078974e-11
000030 2e 09 8a 2e c8 18 a0 2e ff 1b 1c 2c f3 57 0f ae
       6.277144e-11 7.2803596e-11 2.2184474e-12 -3.259255e-11
000040 5a 2f 61 2f 20 17 09 2f 02 99 39 ae 54 62 43 2e
       2.0480453e-10 1.2468293e-10 -4.2200028e-11 4.44252e-11
000050 5b 85 ef ad b3 9a dd 2e 12 06 0b ae 7a c7 8b 2e
       -2.7230376e-11 1.00773966e-10 -3.1610332e-11 6.356422e-11
000060 d4 20 8b ae 99 62 e4 2e 6e 27 61 ae 21 59 d7 2d
       -6.3268196e-11 1.0385754e-10 -5.1194098e-11 2.4482251e-11
000070 4f 5a 16 2d 57 d0 9d ad a4 1c b3 2e 00 3d 97 ad
       8.546565e-12 -1.7941355e-11 8.145065e-11 -1.7193802e-11
000080 1a e5 1b 35 ee 3d 3f 37 6c c0 a8 33 30 9f 30 35
       5.8075386e-07 1.1398906e-05 7.858111e-08 6.579676e-07
000090 8a 9e cc 34 02 17 8f 36 af 7a 44 36 9c d5 94 b6
       3.8113313e-07 4.2644106e-06 2.9277687e-06 -4.435611e-06
0000a0 d3 d0 cd b4 c8 70 e3 b6 1e 9f 46 b5 51 5b ee 37
       -3.8336165e-07 -6.7782566e-06 -7.3992294e-07 2.8414333e-05
0000b0 d6 85 a2 b8 d2 f1 2f b7 1d 5a 7d b6 ae 72 e2 32
       -7.749691e-05 -1.0487116e-05 -3.775239e-06 2.6362013e-08
0000c0 22 82 e9 b7 1d 34 bb b4 e6 6a 77 b5 2b 11 94 37
       -2.7836362e-05 -3.4869382e-07 -9.217023e-07 1.765097e-05
0000d0 21 8a 1d b7 87 bd ea b6 08 aa 21 b7 11 ef 86 b6
       -9.39009e-06 -6.9958073e-06 -9.635936e-06 -4.021342e-06
0000e0 ab c6 fc 35 2e 00 67 b4 41 5d 65 b7 9c 23 6b b6
       1.8833283e-06 -2.1513617e-07 -1.3671176e-05 -3.5038456e-06
0000f0 4f 69 20 36 21 e1 d3 37 3d 12 4d b4 87 12 b1 34
       2.3903156e-06 2.5257994e-05 -1.9098748e-07 3.29823e-07
000100 60 00 a5 a9 86 4f 95 27 63 0e 48 aa 67 50 88 a8
       -7.327537e-14 4.1442027e-15 -1.776856e-13 -1.5133902e-14
000110 80 1b 1e a9 18 71 2e aa 0a ea a8 29 3d 9a dd a9
       -3.51069e-14 -1.5493542e-13 7.501298e-14 -9.8411276e-14
000120 5a aa 43 a9 c2 08 a9 28 af d9 00 29 21 7f 75 a8
       -4.3446454e-14 1.8766567e-14 2.861052e-14 -1.3627799e-14
000130 ce fb 80 28 41 67 a4 29 45 67 25 aa 3f c2 04 a8
       1.4320058e-14 7.300975e-14 -1.4690773e-13 -7.369592e-15
000140 90 98 5e 29 e3 72 40 a9 dc 4a 2b a9 68 f2 d8 a8
       4.942623e-14 -4.2732212e-14 -3.8034558e-14 -2.4085944e-14
000150 fe 3e be 29 0d fc a2 aa 95 0a 46 a9 f8 32 a0 26
       8.4486224e-14 -2.8951876e-13 -4.397401e-14 1.1116045e-15
000160 e3 4b aa 29 b2 a3 94 29 38 9f 1e a9 4a 32 72 28
       7.562681e-14 6.600917e-14 -3.5221148e-14 1.3444603e-14
000170 3d 74 28 28 b0 18 01 a8 9f d0 a3 a8 7d 7c 4c a6
       9.3510786e-15 -7.166292e-15 -1.818711e-14 -7.094543e-16
000180 7d 46 5f 3b ba 7a 84 bc 9a e8 aa 31 2b 3f ec 3a
       0.0034069114 -0.016171802 4.974095e-09 0.0018024197
000190 d9 5e fb bb 0c 3a cb 3a 85 7e d0 39 a7 a9 44 bb
       -0.007671219 0.001550497 0.00039767116 -0.0030008347
0001a0 7c 9c 31 3c c6 0d a5 b9 d7 05 03 bc 16 55 4f 3c
       0.010840531 -0.00031481514 -0.007996998 0.012654563
0001b0 65 6d 49 bd 19 cb 7b bd 7c c5 39 ba 41 b7 51 36
       -0.049176592 -0.061472986 -0.00070866174 3.1250095e-06
0001c0 3b 19 13 bd e6 b5 84 b9 40 b7 4a ba fc 35 e7 3c
       -0.035912734 -0.00025312527 -0.0007732995 0.028223984
0001d0 92 c6 42 3b 06 cf 6d 38 12 74 1b bc 4f 74 10 bc
       0.0029720408 5.669801e-05 -0.009488123 -0.008816793
0001e0 f8 83 c1 3b 7e 77 a8 ba d5 14 ce ba b7 7c a4 3b
       0.0059056245 -0.0012852994 -0.0015722761 0.00501975
0001f0 05 4a 52 3a 6b 7c cd 3c d7 c9 97 b8 71 ab 90 b5
       0.0008021894 0.025083741 -7.237837e-05 -1.0778732e-06
000200 ef 2a 72 aa a8 6f 0d b0 ba 4a a1 a9 e0 11 3e 2a
       -2.1508813e-13 -5.1454174e-10 -7.162799e-14 1.6881592e-13
000210 56 b7 de 28 62 a0 c6 a7 59 da 4b 2d d2 66 04 b6
       2.472646e-14 -5.5129927e-15 1.1587697e-11 -1.9729382e-06
000220 a0 15 79 30 53 d0 54 a9 c1 2d 41 30 39 10 93 a9
       9.0616403e-10 -4.725415e-14 7.027801e-10 -6.5309256e-14
000230 d1 24 eb 2a ba 65 45 2a a5 3a af ac 1d 83 34 2b
       4.1769932e-13 1.7532408e-13 -4.98031e-12 6.41308e-13
000240 5e af dd aa 29 8c 0c 2c 20 ba e0 ac 87 c1 d4 ae
       -3.9379172e-13 1.9973001e-12 -6.387127e-12 -9.675021e-11
000250 d2 af 65 a9 d3 ce 92 36 fe fd 84 2d f6 68 1f 37
       -5.1000714e-14 4.3752166e-06 1.5119458e-11 9.501577e-06
000260 bc 64 9f 2b a3 b7 1d ac ea 3f 6f 2c 3c d9 81 29
       1.1325589e-12 -2.241298e-12 3.3999422e-12 5.766435e-14
000270 6f 57 1a 2d cc ce 00 2c ea c3 b2 2a ae 5b 3e 2a
       8.773301e-12 1.830469e-12 3.1755094e-13 1.6907198e-13
000280 00 6b 27 b7 3f 6c a7 b8 0e db 5c 2f 1c 46 b1 b7
       -9.978889e-06 -7.983343e-05 2.0086707e-10 -2.1132691e-05
000290 5d b0 41 35 5b d4 29 b5 3a d8 e7 37 1c b9 88 b6
       7.2154745e-07 -6.3266424e-07 2.7638034e-05 -4.0746654e-06
0002a0 e2 34 05 b8 f5 7c d4 b5 5d a5 39 35 71 4d 0c b8
       -3.1758922e-05 -1.5831598e-06 6.9158506e-07 -3.3450724e-05
0002b0 69 bc 28 b8 df a2 62 b8 f6 c6 a3 b6 37 64 ad 32
       -4.0229792e-05 -5.4034284e-05 -4.8809407e-06 2.0185423e-08
0002c0 a7 7b de 39 92 b3 23 35 dd b4 da b6 d0 7e 45 38
       0.00042435268 6.098354e-07 -6.5179615e-06 4.7086563e-05
0002d0 31 1b 69 b7 2a 96 f0 37 19 a9 7d 38 c7 31 f8 36
       -1.3894213e-05 2.8680155e-05 6.0477385e-05 7.396771e-06
0002e0 ab 54 2f 37 a6 3c 1e 37 d3 ff eb b7 8d 5c 17 b8
       1.0450526e-05 9.431655e-06 -2.813331e-05 -3.60874e-05
0002f0 ab 0e 9e 36 a8 c8 3f 37 c9 a6 f7 31 b4 a3 97 32
       4.7104745e-06 1.1431206e-05 7.2076074e-09 1.7653157e-08
000300 25 d9 ea bc 6b 4d f8 3d 01 a1 76 bc 15 29 d7 bc
       -0.028667996 0.12124141 -0.015053035 -0.026264707
000310 a9 fb e7 bd aa 16 a6 bc dc 11 e6 3d 1b bd 76 3a
       -0.11327297 -0.020274479 0.11233875 0.0009412334
000320 eb d4 14 bd fa 2d 13 bd 01 fb 6a 3b 0b 96 67 3c
       -0.036335867 -0.03593252 0.0035855176 0.014134894
000330 3f 1d 4d 3e fa f5 ad 3c 79 d3 db 3a 5d f2 06 bd
       0.20030688 0.021235455 0.0016771398 -0.03294598
000340 eb fb 59 3d 43 13 5f 3d 2e 46 38 bd 9d 5a 9f bd
       0.053218763 0.05446173 -0.044988804 -0.07780955
000350 5c 72 61 3c 5f b9 b8 3c ae c6 83 bd 9a e5 e6 3d
       0.013760176 0.02254933 -0.064343795 0.11274262
000360 66 fb 82 3c 77 72 ba 3c 70 f2 02 3d 2c c4 36 bc
       0.015989017 0.02275966 0.031969488 -0.011155169
000370 41 31 cb bc bf 84 ad 3d b4 aa f0 bc 98 4c 0b 3c
       -0.02480376 0.08472585 -0.029378273 0.008502148
000380 ae 53 e3 bd be d0 d9 3c d4 ad 6e bb 79 f0 05 bc
       -0.11099945 0.026588794 -0.0036419528 -0.008175009
000390 74 51 91 bd 22 ed 35 3d 51 c4 0e 3b 73 54 ac bc
       -0.07095614 0.0444156 0.0021784494 -0.021036362
0003a0 e7 96 24 3d e9 e7 54 bd 90 92 08 bd f3 13 50 3b
       0.040182974 -0.05197898 -0.033342898 0.0031750172
0003b0 b4 63 0f be 1a e4 26 be ab a3 94 3c 19 8c 44 bc
       -0.14002877 -0.16297951 0.01814445 -0.0119962925
0003c0 1d a5 4a 3c 74 55 bc bc f7 6e 8e 3b e7 88 76 3d
       0.012368468 -0.022989966 0.004346724 0.060189154
0003d0 48 0a 88 bb 8a 49 98 bc 34 f0 ba bd 2d 28 1b bd
       -0.0041516162 -0.018589754 -0.09127846 -0.03788011
0003e0 16 97 1b 3c c5 0b a7 bd 2b e8 04 3c 13 7d 0c bb
       0.009496471 -0.08156542 0.008111994 -0.0021436855
0003f0 2c 06 29 bd ae fb 19 3e 20 19 9c ba c5 3c 9a 3b
       -0.04126565 0.15037414 -0.0011909343 0.0047069513

Fea.fc1.weight f4 [32, 2]
000000 9f bf 8b b9 0c c5 ad a8 65 29 b3 bc 59 ec 0d aa
       -0.00026654915 -1.9292314e-14 -0.021870324 -1.2605315e-13
000010 75 b3 93 b6 20 d7 4c a7 25 cc dc bc 26 f3 64 b2
       -4.401833e-06 -2.8427307e-15 -0.026952812 -1.3326632e-08
000020 d4 e4 9d bb 8e 0d 09 a9 5d 3d 34 bb 12 7b 60 27
       -0.004818538 -3.0431868e-14 -0.0027502396 3.1152961e-15
000030 79 85 f9 bd 90 93 9e bd 0a dd 1b bb 2e 64 41 28
       -0.12183661 -0.07742989 -0.0023782873 1.0735375e-14
000040 60 28 35 bc 08 1a 0b 29 0a a2 c4 b5 e8 34 e9 27
       -0.011056989 3.088678e-14 -1.4650298e-06 6.4727852e-15
000050 48 a3 b8 bc 24 08 92 3a 96 0e 99 bc 18 eb f3 29
       -0.022538796 0.0011141342 -0.018683713 1.083215e-13
000060 61 8d 19 bc ae 93 66 2c c8 12 b5 bb 3d 16 1d 29
       -0.009372086 3.2766945e-12 -0.0055259205 3.488029e-14
000070 68 08 11 bd 9f 8d 03 2d b7 03 ea bb 1c be 02 a9
       -0.035408407 7.477934e-12 -0.007141556 -2.9030692e-14
000080 ea 49 70 bc 6c 80 51 29 01 4f 02 bd d3 53 15 32
       -0.01466606 4.651871e-14 -0.031813625 8.692001e-09
000090 27 7b 02 bd 06 4f c2 b2 e0 2f db bc 90 33 e0 29
       -0.03185573 -2.2620508e-08 -0.026756227 9.956543e-14
0000a0 50 53 8b bb 41 f6 2f a9 00 44 5b bc b0 df 23 3a
       -0.004251875 -3.9071397e-14 -0.013382912 0.00062512886
0000b0 86 bd 12 3e 96 47 2f bf 74 2a 5f bb 10 01 b2 27
       0.1433011 -0.68468606 -0.0034052404 4.9406077e-15
0000c0 3e a4 8e bc ee a3 5b a9 29 67 c4 ba 74 0b 0b 29
       -0.017412301 -4.8769955e-14 -0.0014984357 3.0874134e-14
0000d0 af e3 f1 bb 15 21 b7 28 f4 5c aa bc 55 8d f7 2b
       -0.0073818783 2.0331428e-14 -0.020796277 1.7589633e-12
0000e0 22 9f 1f bc 1e b8 a2 bc bd 3f f0 bc f1 06 13 aa
       -0.00974253 -0.019863185 -0.029327268 -1.3058631e-13
0000f0 8c ca 17 bc bd 3b 1d 2a 8a e1 fc bc 0a 87 b2 2c
       -0.0092645995 1.3965127e-13 -0.030869264 5.0740566e-12

Fea.fc1.bias f4 [32]
000000 db 8a d1 27 53 a9 8e 2d e9 5e 71 a8 0a 98 04 b5
       5.81597e-15 1.6218726e-11 -1.3398768e-14 -4.939508e-07
000010 6c 27 02 a9 b5 f7 09 a8 0d 86 19 bd 2d 5d 84 a9
       -2.889999e-14 -7.658741e-15 -0.037481356 -5.878141e-14
000020 02 a7 4c 29 f9 60 a1 28 4e 67 72 3a 52 ea e7 ae
       4.5441956e-14 1.7916646e-14 0.0009246961 -1.05462875e-10
000030 0d d6 c8 30 a0 24 03 28 9f 80 08 b9 05 91 a9 27
       1.4612752e-09 7.279903e-15 -0.00013017886 4.7064153e-15
000040 4f bf 47 ab 75 59 3f 30 a3 b4 0f b5 22 76 9b 2a
       -7.0964496e-13 6.961252e-10 -5.353451e-07 2.7615502e-13
000050 49 1b 99 a9 4b 80 6c 39 ed f0 ba bf 4a bb 10 aa
       -6.799298e-14 0.00022554507 -1.4604775 -1.2854748e-13
000060 5a e6 8e a9 cd 1d 6f 28 46 8a 44 2a 0b 21 d9 ac
       -6.3460264e-14 1.3273627e-14 1.745627e-13 -6.1711795e-12
000070 8d 70 b5 bc 36 27 10 ab 61 f6 84 2a 95 bf e9 ad
       -0.022148395 -5.1213493e-13 2.361887e-13 -2.6574113e-11

Fea.output_1.weight f4 [24, 1056]
000000 b4 31 b7 bc fa 7e c5 3c ba 0e ad bc 68 c3 7d 3c
       -0.022362567 0.024108399 -0.021125186 0.015488483
000010 68 29 d6 bb 21 79 e2 bc 04 62 9e 3c 84 03 0b bc
       -0.0065356977 -0.02764565 0.019333847 -0.008484725
000020 10 f0 ac 3c 18 0f ec 3b d0 aa bb 3b 44 0e 86 3c
       0.021110564 0.0072039478 0.0057271495 0.016364224
000030 5e 70 3a bc 60 c0 1b 3b 90 d7 d8 ba 30 05 04 3c
       -0.0113793295 0.0023765787 -0.0016543735 0.008057877
000040 80 b7 ea 3a 80 09 b3 3b d0 7a c5 bb 57 4b 82 bc
       0.001790747 0.005463779 -0.0060266033 -0.015905065
000050 30 9f 33 3b 0b bd d5 bc ec 6c d2 bc c6 1b 66 bc
       0.0027408116 -0.02609112 -0.025686704 -0.014044708
000060 3b 45 83 bc e2 18 9e 3c 03 31 c7 bc 68 58 96 3b
       -0.016024223 0.019298974 -0.024315363 0.0045881756
000070 2c a8 6a bc 78 22 ef 3b 60 ee 90 3a bc bf 02 3c
       -0.014322322 0.00729781 0.0011057369 0.007980283
000080 f4 bd 85 bc 3c 7c 46 3c 58 98 3b 3c e0 7d 5b 3c
       -0.016325928 0.012114581 0.011449896 0.01339671
000090 b0 f2 91 ba 00 3c ba 3b 00 03 ba 3a 7a 92 2a bc
       -0.0011134949 0.005683422 0.0014191568 -0.010410899
0000a0 54 79 a7 bc da 98 43 bc f0 4a 19 3c 40 11 ac 3c
       -0.020443596 -0.011938298 0.009356245 0.02100432
0000b0 e0 df a0 3b d0 cd 50 3c 34 5b ad 3c 20 b9 94 3c
       0.0049095005 0.012744382 0.021161653 0.01815468
0000c0 40 e7 60 3b a0 b1 c9 bb 88 6a e5 3b 26 c2 8f bc
       0.0034317523 -0.0061552078 0.007001225 -0.017548632
0000d0 80 12 76 3a 7c 94 c9 bc 14 af 87 bc e0 96 21 3b
       0.0009386912 -0.024606936 -0.016562976 0.002465658
0000e0 70 e0 b7 3b 80 05 19 3a c0 4a aa bc fc 22 11 bc
       0.005611472 0.00058373064 -0.020787597 -0.008858439
0000f0 d2 c1 8f 3c a0 77 69 bb 44 48 fa bb ea 1f c7 3c
       0.017548475 -0.003562428 -0.0076380093 0.02430721
000100 8c ea 58 3c fc 87 96 3c 30 5d 73 bc 1a c0 b4 bc
       0.013239514 0.01837539 -0.014853761 -0.022064257
000110 de d8 29 bc 00 45 18 3a ec ec 5e bc 68 86 2f bc
       -0.010366647 0.00058086216 -0.013606291 -0.010713197
000120 64 d8 9d 3c b2 72 c9 bc ae f3 e5 3c f4 0c cb bb
       0.019268222 -0.024590824 0.028070297 -0.0061966125
000130 18 45 52 3c ae e0 14 bc 88 13 5c bb e0 4c 37 bc
       0.012833856 -0.009086771 -0.0033580977 -0.011187762
000140 5c 5e e9 3c 1e 25 38 bc 38 c2 17 3c 40 f5 4d bb
       0.028487377 -0.011239318 0.009262614 -0.0031426698
000150 04 14 17 3c 40 9a c2 3c c0 e0 12 ba 64 4d cb bc
       0.009221081 0.023755193 -0.00056029484 -0.024817176
000160 52 4f ed bc 66 57 a6 3c 6f e3 92 bc d1 d9 c5 bc
       -0.028968487 0.020305347 -0.017930714 -0.024151715
000170 c6 5c df bc 7c 22 d2 3c 34 42 2b bc 30 6f a9 3b
       -0.027265918 0.025651209 -0.010452796 0.0051707253
000180 2c 4e 45 3c 70 f5 44 3c 38 66 08 3c a4 68 fa 3c
       0.012042563 0.0120214075 0.008325152 0.030567475
000190 1e b4 f4 3c 98 18 15 bc d8 65 a8 bb c4 74 a7 bc
       0.029871043 -0.009100102 -0.005139094 -0.02044142
0001a0 b4 6a 38 3c 3c b6 92 3c 4d ec f8 bc 70 48 4e 3b
       0.011255909 0.017909162 -0.030386114 0.0031476282
0001b0 40 db bf 3b 24 ab a5 bc 28 e6 e4 3b 10 12 ca ba
       0.005854994 -0.020223208 0.0069854446 -0.001541676
0001c0 72 0b f6 bc c8 4e 1c bc c2 21 80 3c eb b3 d8 bc
       -0.030034754 -0.009540267 0.015641097 -0.02645298
0001d0 14 41 d8 3c b0 18 e6 ba da 1e 88 bc 34 be 0e 3c
       0.02639822 -0.0017554965 -0.016616274 0.00871234
0001e0 7e 4e c2 3c bb cf 85 bc 20 ab 93 bb ea 6d 9a 3c
       0.023719069 -0.016334405 -0.0045064837 0.01885124
0001f0 16 4f 90 3c 93 10 ad bc 22 5c 24 bc de 7f b9 3c
       0.017615836 -0.021126067 -0.010031732 0.02264398
000200 f6 4c e8 bc ac 2a 36 bc 1a fd ab bc ba 4a e3 3c
       -0.02835701 -0.011118572 -0.020994712 0.027745593
000210 98 c8 d8 3b b8 4c e2 bc f0 82 2c bc fe 6d 9a 3c
       0.0066157095 -0.027624473 -0.010529265 0.018851276
000220 c1 c8 c6 bc d4 51 fa bc 70 c6 8f bc 7e 3b 32 bc
       -0.024265649 -0.030556597 -0.017550677 -0.010878442
000230 98 a0 a5 bc 6e d6 94 bc f2 52 4a bc f2 c7 d1 3c
       -0.020218179 -0.018168654 -0.012348877 0.025608037
000240 90 d8 97 3b 1c 2a 35 3c 00 f9 b6 3c b8 cf 4a 3c
       0.0046339706 0.011057403 0.02233553 0.012378626
000250 51 f8 8e bc a0 fc ca 3c f6 46 98 bc 28 cd 1d 3c
       -0.01745239 0.024778664 -0.018588524 0.009631433
000260 b0 03 67 3b ae ea dc 3c 84 6d 9f bc 9a 4a b3 3c
       0.003525 0.026967373 -0.0194614 0.021886159
000270 7d c7 da bc e0 41 5d 3c 74 4c 47 3c 84 54 f6 bb
       -0.026706452 0.013504475 0.012164224 -0.0075173993
000280 22 46 c1 3c 28 b3 08 bb 00 f8 41 39 26 25 8b 3c
       0.023593012 -0.0020858739 0.00018498302 0.016985487
000290 80 df ba 3c 4e 5a b8 3c 64 3f b0 bc 82 15 a7 3c
       0.022811651 0.022503998 -0.021514602 0.020395998
0002a0 c8 2d 1a bc e8 67 94 3b 20 e6 4d 3c 62 f0 bc 3c
       -0.009410329 0.004528988 0.012567073 0.023063842
0002b0 b0 07 f6 3c 76 bc 87 3c aa 39 88 3c 4e 3f ea bc
       0.030032963 0.016569357 0.016629059 -0.02859464
0002c0 60 fc fe 3b a8 b8 7a bb 6c cf 00 bc a0 42 dd bc
       0.0077815503 -0.0038257036 -0.007861953 -0.027009308
0002d0 24 c4 d0 bc bc 89 9b 3c a0 1a f6 ba 0e c5 be bc
       -0.025484152 0.018986575 -0.0018776245 -0.023287322
0002e0 90 7d 89 3c c0 07 56 ba d4 d4 ae 3c 05 62 e5 bc
       0.016783506 -0.0008164607 0.021341719 -0.02800084
0002f0 f0 a5 7a bb 80 23 c4 3b c0 89 ed b9 50 5e ba 3c
       -0.003824588 0.0059856772 -0.00045306794 0.02275005
000300 c0 3e 8e 3a d8 f8 09 3c 00 a5 eb b8 10 3d d7 3b
       0.0010852441 0.008421145 -0.00011236407 0.0065685585
000310 29 90 e8 bc 54 38 9f bb 28 cc c9 3c 1f d3 9b bc
       -0.028389053 -0.0048590098 0.024633482 -0.019021569
000320 2c ee 91 3c 00 b0 35 3a 88 96 9f bb a2 70 72 bc
       0.017813765 0.0006930828 -0.0048702396 -0.014797362
000330 2d fc f5 bc 5c fb 73 3c e0 cd 9c 3a 48 9c db bb
       -0.030027473 0.014891472 0.0011963211 -0.00670198
000340 21 42 f6 bc ba fe 36 bc c4 9a 2d 3c fd 2f a7 bc
       -0.03006083 -0.01116913 0.010595981 -0.020408625
000350 96 cc 82 bc a5 50 fa bc 7c a0 ad bb 3a ac f2 3c
       -0.015966695 -0.030556032 -0.0052986722 0.02962314
000360 9a 48 82 3c 30 0c bf ba 38 54 56 bb 1a 70 4c bc
       0.01590376 -0.0014575776 -0.0032704007 -0.012477899
000370 2a 16 9c bc 98 a4 cb bb 9c 35 fa bb 80 3b 14 3c
       -0.019053537 -0.0062146895 -0.0076357853 0.009047389
000380 00 86 dc 3a f5 cc 8d bc 28 83 80 3b 80 85 46 3b
       0.0016824603 -0.017309645 0.003921885 0.0030291975
000390 46 47 e7 bc 96 51 ea 3c c0 d9 9a 3a 40 7e 8c bc
       -0.028232228 0.028603356 0.0011814162 -0.017150044
0003a0 9e 55 6c bc ec 6e af 3c 60 d6 59 3b e0 1f f7 3b
       -0.01442471 0.021415196 0.003323935 0.0075416416
0003b0 60 a0 88 bc 84 03 84 3c bf 53 d6 bc d4 b4 f9 bb
       -0.016678035 0.016114958 -0.02616298 -0.0076204333
0003c0 50 15 9c 3b 50 ea 11 bb 90 f2 b6 ba 2c 47 b9 bc
       0.004763283 -0.0022264905 -0.0013957787 -0.022616945
0003d0 d1 63 9a bc 7e 28 f4 3c e8 ad c3 3b d0 a8 b1 3b
       -0.018846424 0.029804464 0.005971659 0.0054217353
0003e0 00 6f 8d bb 78 a5 89 3c 3a 8a ef bc 02 a7 a4 3c
       -0.0043162107 0.016802534 -0.029240716 0.020099167
0003f0 5a 35 b3 3c d8 4d da 3c e2 a6 b9 bc 20 1b df bb
       0.021876026 0.026648447 -0.022662584 -0.0068086535

Fea.output_1.bias f4 [24]
000000 98 27 e7 3b b3 dc 8a bc c4 09 87 bc 5f 18 95 bc
       0.0070542805 -0.01695094 -0.016484149 -0.018200098
000010 3c fe 8e bb c0 e1 26 3c dc 4e 84 bc d0 01 a6 3b
       -0.004363803 0.010185659 -0.016150884 0.005066134
000020 d0 01 e1 3c 60 0e a3 3a a0 73 31 ba a4 b1 72 3c
       0.027466685 0.0012440197 -0.00067692436 0.014812861
000030 40 2c e2 b9 aa aa 8d 3c aa 93 c2 3c d0 06 2e 3b
       -0.00043139048 0.017293293 0.023752052 0.0026554354
000040 60 96 df bc 5e 81 0a bc 78 3f e0 bb 1e 58 8e 3c
       -0.027293384 -0.008453695 -0.0068435036 0.017376002
000050 28 d1 80 3b 5c c6 70 bc ce f3 f4 3c 44 14 d5 bb
       0.0039311834 -0.01469573 0.029901411 -0.00650266

Fea.fc2.weight f4 [32, 1056]
000000 1a 43 bf bc b5 0a ad bc 5b ef 97 3c 16 ae 68 3c
       -0.023347426 -0.02112327 0.01854675 0.014201662
000010 b7 de 86 3c fd ca fc bc ac 68 55 3c 99 63 d3 b9
       0.01646362 -0.030858511 0.013025444 -0.00040319262
000020 f7 a1 02 bc bd 23 b0 39 01 35 04 bb 0b 8f de bb
       -0.007973186 0.00033595963 -0.0020173194 -0.0067919544
000030 f4 14 3a 3c 8c 18 42 bc 91 d2 47 3c 44 e2 c3 3b
       0.011357535 -0.011846673 0.012196199 0.0059779007
000040 9f 53 97 bc 6f b4 00 3c 22 64 b3 3b cc 02 bc bc
       -0.01847249 0.007855519 0.0054745832 -0.022950552
000050 39 dc 7b bc a6 19 f0 bc ed b2 49 3d 7f 01 9c bb
       -0.015372329 -0.029309105 0.049242903 -0.0047609205
000060 45 98 15 bb 19 b3 2e 3c 4d 36 e9 3c ad c9 ee bb
       -0.0022826355 0.010662817 0.028468275 -0.007287225
000070 5d 22 c6 bc bc 29 9f ba 61 6b a6 ba 5a 71 8a bc
       -0.024186308 -0.0012143175 -0.0012696796 -0.016899753
000080 c5 db 9f bc 8c b9 89 3b f3 96 47 3c d2 e1 b2 3b
       -0.019513974 0.004203027 0.012181985 0.005459049
000090 45 cb f6 3c e2 80 fc bc c6 ce 67 3b d8 2b 5e 38
       0.030126223 -0.030823175 0.003537105 5.2969757e-05
0000a0 b1 a8 21 bb 20 c3 c7 ba e9 de c5 38 d0 b4 36 bb
       -0.0024667198 -0.0015240647 9.435212e-05 -0.0027878769
0000b0 e5 67 a5 3c 41 60 fb bc d4 25 53 3c 7a 79 06 3c
       0.020191142 -0.030685546 0.012887437 0.008207673
0000c0 6f c4 97 bc ab 42 26 3c 32 b3 71 3c b7 9e 1c bd
       -0.018526284 0.010147731 0.014752196 -0.0382373
0000d0 1e 12 d5 bc 11 d0 89 bc a3 ef ea 3c cc 3e 11 bc
       -0.026009616 -0.016822847 0.02867872 -0.00886507
0000e0 45 c3 f9 bb 55 cd c5 3b 6b 37 ef 3c f5 04 ca bb
       -0.007622155 0.0060364404 0.02920123 -0.0061651417
0000f0 61 43 4d bc d4 2b 0b bc 4e 51 74 ba 52 dc 7b bb
       -0.012528271 -0.008494336 -0.00093199767 -0.0038430882
000100 29 1d ee bc d4 83 21 bb 5d e0 bb 3c 17 e8 cd 3c
       -0.029066639 -0.0024645226 0.022934133 0.025135083
000110 64 e2 e7 3c fb c6 0c bd 05 42 36 3c b1 a7 c9 38
       0.028306194 -0.03436945 0.011124139 9.615662e-05
000120 50 9c 73 bc 31 5b bb 3a 85 40 50 ba cb 95 7d bb
       -0.014868811 0.0014294145 -0.00079441845 -0.003869402
000130 89 ea 1d 3c 12 02 2a bd a3 29 e4 38 93 96 33 3b
       0.009638437 -0.04150588 0.00010879643 0.0027402982
000140 98 ed 8c bc bc 23 61 39 2d f9 0f 3c 6f 32 84 bc
       -0.017203137 0.00021470984 0.0087874355 -0.01613733
000150 5a 1b 62 bc 3a 98 ba bc 2b 41 08 3d b5 a2 08 bc
       -0.013800466 -0.022777665 0.033265274 -0.008339574
000160 97 82 7e ba ce 3c 4f 3c 2c f8 05 3d 0e 67 3f bc
       -0.00097087905 0.012648774 0.03270738 -0.011682285
000170 bc 12 a5 bc e2 7f 8e bc 39 75 ed b8 cb 68 7d ba
       -0.020150535 -0.017394964 -0.00011322875 -0.00096667995
000180 2f b9 4b bd 06 49 f5 ba 3e 5e a4 3c 76 90 10 3c
       -0.04973715 -0.0018713779 0.02006447 0.008823505
000190 f1 7e 4e 3c d3 6b e8 bb 31 c4 0c 3c 6b bd c5 3b
       0.012603507 -0.007092932 0.008591698 0.0060345433
0001a0 0b f6 60 bc aa 0e d7 39 5a 31 08 39 80 99 ac bb
       -0.013730536 0.0004101892 0.00012988356 -0.005267322
0001b0 71 10 80 3c 85 24 d9 bc f8 ac 9d 3b eb c9 bd 3b
       0.01563284 -0.026506672 0.0048118792 0.0057918928
0001c0 b1 ff 86 bc c1 03 98 3b ca 0e 4b 3c bf 24 9e bc
       -0.016479345 0.0046391194 0.012393663 -0.019304631
0001d0 b9 6e 78 bc de ff 35 bc 82 ae 15 3d 75 cb f7 bb
       -0.015163117 -0.011108367 0.036543377 -0.0075620958
0001e0 1a b6 1c bb 8a 9e 50 3c 61 18 3c 3c 4e c4 43 bc
       -0.0023912252 0.012733111 0.011480422 -0.011948658
0001f0 8a 7b b8 bc 84 8d 53 bc 8c dd af ba e3 bf 45 bc
       -0.022519846 -0.012912158 -0.0013417467 -0.012069675
000200 09 b1 51 bc b0 e6 09 ba 8f 43 09 3d 97 e1 42 3c
       -0.012798556 -0.00052605104 0.033511695 0.011894605
000210 d4 9d ec 3c 65 90 8e bc a3 a8 91 3b 4e b2 d5 35
       0.028883852 -0.017402837 0.004445152 1.592163e-06
000220 10 5e e3 b7 fd 37 49 bc 78 10 31 ba d9 b6 88 3a
       -2.710431e-05 -0.012281415 -0.0006754468 0.0010430469
000230 e3 53 0b 3d 26 dd 26 bd c5 90 4c 3b 09 7a 1f 3a
       0.034015547 -0.040738247 0.003121422 0.00060835533
000240 12 ad c4 bb bc 3e 82 3a 05 af 8c 3a fc cf 84 39
       -0.006002077 0.0009936909 0.0010733312 0.00025331962
000250 b2 a0 75 3a 66 d1 f3 bc 98 cf d5 3c 1c e3 36 ba
       0.0009369954 -0.029762935 0.026099965 -0.0006976591
000260 b5 c5 96 ba f5 ff ca 3c a4 34 ec 3b 56 8b 5e bc
       -0.0011503013 0.024780253 0.0072084237 -0.013583025
000270 ed b5 19 bc ad be 43 bb 21 76 6b 39 7d 22 3d ba
       -0.009381753 -0.002986829 0.00022455353 -0.0007214917
000280 8a 03 41 bc dd 7c 07 3a 01 5b 08 3c d1 52 4f 3b
       -0.011780629 0.00051684474 0.008322478 0.0031635056
000290 a2 20 9a 3c fe 57 0e bd dc 84 8f 3b ee 42 ba ba
       0.018814389 -0.034751885 0.0043798517 -0.001421062
0002a0 b4 b0 e7 ba 91 36 21 bc 25 f4 0a 3a fa be ae 3a
       -0.0017676563 -0.00983967 0.00053006626 0.0013332062
0002b0 4b 8b 93 3c 05 55 23 bd 54 58 6f 3b 34 76 81 3b
       0.018010756 -0.039876003 0.0036521154 0.0039508585
0002c0 13 db 3e bc 53 09 94 3b e6 bb 1f 39 55 4d 3b ba
       -0.011648911 0.004517713 0.00015233419 -0.0007145007
0002d0 90 e4 b4 39 38 ca e0 bc 1f 4a 02 3d bd 9d 7a 3a
       0.00034502568 -0.027440175 0.03180897 0.0009560248
0002e0 56 fc 3e bb d4 07 04 3d 6f 4e a4 3c 8d e8 22 bc
       -0.0029142103 0.032234028 0.020056931 -0.00994314
0002f0 27 44 87 bc dc 06 f4 37 ff bc 8a bb a4 ef 1d bc
       -0.01651199 2.909026e-05 -0.004233956 -0.009639654
000300 62 e9 e5 bc 66 37 3d bc fe f8 9e 3c 1b 1d d7 3c
       -0.028065387 -0.011548853 0.019405838 0.026258996
000310 b7 e9 49 3c 4d 87 a5 bc e2 63 80 3b 96 b6 b6 3b
       0.012323788 -0.020206118 0.003918157 0.005575965
000320 9c 38 03 ba 77 f1 7b b9 a4 b6 b3 ba e2 88 c8 bb
       -0.0005005689 -0.00024027178 -0.0013711047 -0.0061198333
000330 b6 b8 5c 3b f5 24 1a bd a5 e5 67 3c ec a3 29 3c
       0.0033679432 -0.0376329 0.014153873 0.010354023
000340 11 ec db bc 0f 82 3e 3c 62 81 8d 3c 36 2a e7 bc
       -0.026845964 0.011627688 0.017273609 -0.02821837
000350 48 8b c0 bc 52 50 0b bd 11 12 01 3d 83 34 64 bc
       -0.023503914 -0.034012146 0.03151137 -0.013928535
000360 7c 87 81 ba 08 49 3b 3c f8 f7 5c 3c 77 04 40 bc
       -0.0009882296 0.011430986 0.013486855 -0.0117198145
000370 1a 00 97 bb 77 e4 de bb a1 2d 0c ba f6 db e9 bb
       -0.0046081664 -0.0068021375 -0.00053473754 -0.007136817
000380 81 86 f8 bc 0b 53 74 bc ca c8 14 3d 01 9f b5 3b
       -0.030337574 -0.014912377 0.0363243 0.0055426364
000390 25 1a b4 3c d8 2a 1b bd 97 4d ba 3c 3c 74 1d 3c
       0.021985123 -0.037882656 0.022742076 0.009610232
0003a0 ab 3c 70 ba 36 52 38 3a 18 63 8e 3a 73 ee 87 bc
       -0.00091643137 0.00070312934 0.0010863272 -0.016593194
0003b0 73 87 3f 3c f2 96 ae bc fe 34 b8 3a 0d 9d 97 3a
       0.011690008 -0.02131221 0.0014053879 0.001156719
0003c0 6e aa 38 bc 56 b6 5c 3c 1e 42 57 3c 56 ef eb bc
       -0.011271102 0.013471207 0.013138322 -0.028800648
0003d0 b7 d2 81 bc 84 39 90 bc c3 41 e5 3c ba 99 8a bc
       -0.015847547 -0.01760555 0.02798546 -0.016919006
0003e0 5d e1 1a 3a e5 c0 78 3b 11 39 8f 3c 47 ed c7 bb
       0.00059082155 0.003795677 0.017483266 -0.0061012837
0003f0 64 a8 5f bc 6b 18 a7 bc 5c 63 93 b9 d9 53 1b bb
       -0.013650987 -0.020397386 -0.00028112053 -0.00237011

Fea.fc2.bias f4 [32]
000000 a0 89 83 bc 88 fb 5b bd 84 b0 47 bd a5 c8 93 bd
       -0.016056836 -0.053706676 -0.048752323 -0.07216004
000010 ca 08 13 bd 45 09 59 3d 0e 36 74 bc 47 a4 1f bd
       -0.035897054 0.052987356 -0.014905466 -0.038975026
000020 11 64 91 bd a6 a2 55 bd a2 45 9a bd d5 33 84 bd
       -0.07099164 -0.052157067 -0.07532813 -0.06455199
000030 e3 e9 35 bd c4 a6 90 bd 12 6a 23 bd 8b 4f 80 3c
       -0.044412505 -0.07063058 -0.03989608 0.015662929
000040 a7 4e 82 bd 56 df 9d 3c 3b 2d 46 bd c3 8a 93 3d
       -0.06362658 0.019271534 -0.04838298 0.07204201
000050 60 c3 27 bd 00 c6 16 bd 6c 23 34 bd c4 32 30 3c
       -0.04095781 -0.03680992 -0.043979093 0.010754291
000060 c2 b0 29 bd 0e cf ef 3c d0 72 28 3d e8 b3 57 3c
       -0.041428335 0.029273536 0.04112512 0.013165452
000070 8f 07 71 3c 26 f5 cc bd 6e 61 94 bd 5a 4c 9f bd
       0.014711275 -0.10007696 -0.07245146 -0.07778235
