domain_adaption/best_ts_net2.pth.tar (torch, 264565 bytes, 16 tensors)

gcn1.w f4 [10, 32]
00000000: 6f0d 623e 8ebc 3a3e 373a e33d 1936 a03e
00000010: 9034 b03e d50c 413e de17 9d3e 7684 ec3e
00000020: 4f0a df3e 42ff d73e a11f 2c3e 21df be3e
00000030: 77c9 d03e 74f0 563e 32dc 983e cfc0 cc3e
00000040: 69cc 243e c8ab e13e 4ea0 ac3e 46a0 d13e
00000050: d07e c13e 91ff ad3e 5a26 d13e 0917 be3e
00000060: bf8a 723e a3ba b73e b432 2ebe d42f 983e
00000070: 3629 383e 9fe7 1f3d 74af 763e 52ea ae3e
00000080: 8ea5 a33e d83f b53e a915 0e3e 8a80 8a3e
00000090: d599 883e a22e 813e 7d28 3b3e 45ae a13e
000000a0: ce09 2c3e e7fe 643e b724 b13e 8206 ba3e
000000b0: 977a c33e 428c 633e c959 bf3e 5275 8f3e
000000c0: 0e6b a83e 0da2 0d3e 2e9b 4d3e 39cf 853e
000000d0: d5f3 b43e 6ba9 4a3e 58d6 923e 55ae 463e
000000e0: f1fd ad3e 4fe0 633e 7bc3 03bd 5242 ba3e
000000f0: 3675 273e be94 febd 4a3a 9f3e 5254 d03e
00000100: 19cb 343e b7c7 ae3e b9b4 bc3e 2f60 a33e
00000110: 1940 933e 8e90 8f3e 472c a33e 4df5 903e
00000120: e163 f33d fac1 983e 590f 7b3e d590 753e
00000130: 1068 a33e 344b 053e 98a0 1f3e 2a89 f43e
00000140: 3028 e23e debd 353e 6eea 253e ef8f 413e
00000150: 141d cb3e 2d66 913e b33e 293e 8c23 993e
00000160: ca52 c53e e6a4 853e 77b9 cfbd 1078 8d3e
00000170: 4105 c63e d82c 11bb 45d0 8e3e abbb ce3e
00000180: 378c aa3e 1033 e43e 045b cc3d 5937 7b3e
00000190: 42ba ec3e 91f1 9d3e ae76 b53e 0560 313e
000001a0: d085 b83e 8924 8c3e 72cf d13d 42fc 523e
000001b0: d9b1 d93e 9275 f43e edf9 0c3e 22a4 a03e
000001c0: 899c bc3e ea22 e13e e979 673e c79c 733e
000001d0: 3fb2 d53e 8d6f a93e e50d dc3e 3053 bd3e
000001e0: 5158 803e 591e ba3e 4345 37be 4e0a f13e
000001f0: b433 893e 97e2 b9bd dd4d 023e 193c d13e
00000200: 6cb1 5b3e 56b2 dc3e 3d83 9e3d 75ed 823e
00000210: ccec 723e 975b f23e 7df4 803e d17a c73e
00000220: 34b0 693e eb6e b63e 80ce 1b3e 8e9e 993e
00000230: bc87 623e 45f8 593e fe52 983e 6a3f 753e
00000240: ac52 423e d5ba 823e 8636 043e 9ea3 d83e
00000250: 9cf2 3b3e 6065 d73e 63a0 ba3e bf20 e43e
00000260: 82bc 1c3e 8596 b13e bec4 f7bc 14d6 b93e
00000270: 3ee8 bc3d 4952 babc a856 b43e 129d 5f3e
00000280: 6454 f73e d44e ab3e ea10 ac3d e91a 3e3e
00000290: fd89 333e 6974 a63e f0b5 eb3e 5f39 113e
000002a0: 9e92 2e3e 4ce8 c23e 24e7 a43e f74c c03e
000002b0: edde af3e 72ae d33e 2399 6d3e 008a 6f3e
000002c0: 5fb9 953e 6768 f23d 5928 b43e d232 8d3e
000002d0: 3900 623e 8ea7 f53e d6dd 533e 5650 8d3e
000002e0: 4ffd 713d 7045 693e dac8 91bd 8905 5d3e
000002f0: 9bf7 293e 7d18 6e3d f99c ed3e 4c40 2e3e
00000300: 8cdb e83e 4c63 a93e ca6e ba3e a5b7 5d3e
00000310: f0b4 413e ec0a 293e f489 5e3e 8638 843e
00000320: 30f3 b83e 8c22 fa3d dcbc cc3d f39a 843e
00000330: 0f1b d73e 8fda df3e 7f37 c63e a675 123e
00000340: f655 553e 83ab 933e 6e8e c93d 8550 f53e
00000350: faa3 4e3e 84df b23e c153 313e 2d51 083e
00000360: 7a4b 243e 79c8 833e e32c 8fbd 3815 553e
00000370: b797 543e 80ec bebd 55e6 f13e 9530 8a3e
00000380: 5ea0 923e c43d 7f3e 8504 053e 3779 cf3d
00000390: 474e 2c3e ea4c 8e3e e9f7 b43e 1848 e03e
000003a0: 5d97 e43d 3809 463e c251 b53e 4ffa 103e
000003b0: 7e43 bf3e be25 123e 497e e63e 915c c83e
000003c0: 078c f13e 3326 ab3e 6a98 a63e 0021 bd3e
000003d0: 10ea 403e 3bf7 863e 78fc c63e 18db 563e
000003e0: 05da 8a3e 4bcf e63e 550f 2f3c f79a 2e3e
000003f0: 526e 7f3e ca6d 26be 592f e33d ef1e c83e
0.22075437 0.1823599 0.11095088 0.31291273 0.34415102 0.18852551 0.30682272 0.4619481
0.43562552 0.42186934 0.1680894 0.3727961 0.40778705 0.20990163 0.29855496 0.3999085
0.16093601 0.4407637 0.33716053 0.4094259 0.37792063 0.33984044 0.40849572 0.3712695
0.2368574 0.3588458 -0.17011529 0.2972399 0.1798447 0.03903925 0.24090368 0.34163147
0.31962246 0.3540027 0.1387545 0.27051193 0.26679865 0.2523089 0.18277164 0.3157827
0.16800615 0.22362863 0.34598324 0.3633309 0.38179466 0.22221473 0.37373188 0.28019196
0.32894176 0.13831349 0.20078728 0.2613466 0.3534228 0.1979119 0.28679156 0.1940244
0.33982804 0.22253536 -0.032168847 0.36378723 0.16353306 -0.12430714 0.3109916 0.4068933
0.176556 0.34136745 0.3685663 0.3190932 0.2875984 0.28039974 0.31869718 0.2831215
0.11884285 0.29835492 0.24517573 0.2398103 0.3191533 0.13016969 0.15588605 0.47760898
0.44171286 0.1774821 0.16202709 0.18902563 0.39670622 0.28398266 0.16527824 0.29909933
0.38539726 0.2610237 -0.101427965 0.27630663 0.38675883 -0.0022151973 0.27893272 0.40377554
0.333101 0.44570208 0.09978297 0.24532832 0.46235853 0.30848363 0.35442108 0.17321785
0.3603959 0.27371624 0.10244645 0.20604041 0.425185 0.4774595 0.13767214 0.31375223
0.36838177 0.4397195 0.22605099 0.23790275 0.41737553 0.3309292 0.4297935 0.3697753
0.2506738 0.36351278 -0.17897515 0.47078174 0.2679726 -0.09076422 0.12725015 0.40866163
0.214544 0.4310481 0.077398755 0.2557179 0.23723143 0.47335503 0.2518653 0.3896089
0.22821122 0.356315 0.15215492 0.3000378 0.22122091 0.21286114 0.29750818 0.23949972
0.1897685 0.25533167 0.12911424 0.4231233 0.18354267 0.4206953 0.3645049 0.44556233
0.15306285 0.3468515 -0.030245181 0.3629614 0.09223984 -0.022744315 0.35222363 0.21837261
0.48306572 0.3345858 0.084016636 0.18564953 0.17533107 0.3251069 0.46037245 0.14182042
0.17048118 0.38067853 0.32207596 0.3755872 0.34349766 0.4134403 0.23202948 0.23392487
0.2924299 0.118363194 0.35187033 0.27577835 0.22070397 0.47979397 0.20690092 0.27600354
0.059079465 0.22780395 -0.071183875 0.21584143 0.1659836 0.058128823 0.46408823 0.17016715
0.4548 0.3308357 0.3641265 0.21652086 0.18916678 0.16508073 0.21732312 0.25824374
0.36123037 0.122136205 0.099969596 0.25899467 0.42012832 0.43721434 0.38714215 0.14302692
0.20833573 0.2884179 0.098416194 0.47912994 0.2017974 0.34936154 0.17317106 0.13312216
0.16044417 0.25738886 -0.06990983 0.20808876 0.20761 -0.093224525 0.47246042 0.2699019
0.28637975 0.24925905 0.12990005 0.10130542 0.16826735 0.27793056 0.3534539 0.43805003
0.11161683 0.19339454 0.3541394 0.14157985 0.3735618 0.1427221 0.45018223 0.39133123
0.47177145 0.3342758 0.32538158 0.3693924 0.18839288 0.26360497 0.38864493 0.20982015
0.2711946 0.45080027 0.010684808 0.17051302 0.24944428 -0.16252819 0.11093015 0.390861

gcn2.w f4 [32, 32]
00000000: 2898 b6be e0a4 9bbe 47aa 473e 5737 1fbe
00000010: 9b84 b4be 02f8 c7be 987e dcbe e609 5abe
00000020: 7e58 d4be 2a30 a6be b6c8 a2be 0f75 c5be
00000030: 5e13 92be 831a e63e fda5 6dbe c4fe 27be
00000040: e6bb cc3e 7ffb 9e3e 4a27 143e abc8 473e
00000050: 5dcc ae3e f550 b83e ed26 c8be 7070 eb3e
00000060: 26cd 053e 2ead 99be c0f3 2fbe f51f 953e
00000070: 9e37 653e a08c 8bbe 483e c1be 6289 55be
00000080: b111 a6be 21e2 d9be 0b2c ea3e aaa2 cebe
00000090: 7ae0 7cbe 4c4a efbe ad0c 04be 5298 b4be
000000a0: 08b9 b8be 0b99 b6be a4a1 92be 7502 e5be
000000b0: 905f f0be 05d8 ef3e db8a 33be 72f8 d2be
000000c0: 6468 e03e 4070 9d3e 7893 923e fdb2 793e
000000d0: 0da2 ec3e 96c5 e33e b7ae 45be ecf3 493e
000000e0: cc6d e53e e67f 27be ba0b d7be 7390 9e3e
000000f0: 0f8d 763e be12 cdbe 23f3 a2be 158b 57be
00000100: 8439 22be b91e 08be 8056 c83d 6f62 d5bd
00000110: 2cfb 9abe fd93 bebe 5e2b 33be e180 d2bd
00000120: b59e 5bbe 4dc4 2cbe d984 8fbe 4409 4abe
00000130: ce4c abbe 333f ca3e 7814 7dbe 030a 28be
00000140: 23de 963e a51d 0d3e c1ca 48bd 3917 e93d
00000150: b144 2c3e 3b23 983e b6e2 b3be 0701 6b3e
00000160: b276 ac3e 8e09 93be 7f33 52be 6559 cd3e
00000170: 0981 0a3e d6dd b4be 43a2 88be e2ae 64be
00000180: 68db c1be 19d4 b6be 2a89 ea3e d57f 33be
00000190: 3ec7 edbe bb4d b1be 21e2 a3be 6fdb 71be
000001a0: f4df 1bbe 82f1 acbe 331d f2bd eea7 82be
000001b0: 3bd9 d9be 5522 f53d 08e1 debe 3823 e4be
000001c0: b199 dd3d bc5a c83e 32a1 613e 325a 393e
000001d0: 6b99 bf3e 4121 023e 176b a2be c0a7 1e3e
000001e0: cd96 7d3e 9dd2 1abe 24f2 d1be e9e9 c03e
000001f0: 00c6 b83e 3707 97be 9373 25be 2d4c e0be
00000200: 8803 14be 4290 18be e09b d53e 35e8 99bd
00000210: 5433 e3be 1af1 34be 08df 16be 7196 7bbe
00000220: 5b29 80be 4735 cdbe 3305 d0be eaf6 68be
00000230: c008 90be 76f6 dd3e 1b0e 93be 7dfe 06be
00000240: d0a0 f23e 873e d43e 9f37 8a3e b1ae 933e
00000250: be45 a73e d111 793e c517 91be f953 573e
00000260: ff29 ad3e aba8 f2be e382 edbd 589f 003e
00000270: 934f 953e 5aba 0cbe 0611 cbbe 3e0c 5fbe
00000280: 4dfe 44be 8040 65be c62b a33e 1520 9bbe
00000290: 150e abbe 646b c0be a8dc c9be 6259 d4be
000002a0: a8de 67be 99d3 94be df7e e6be aa4d a4be
000002b0: b19d 9fbe 549f 893e d503 c5be 39a1 7abe
000002c0: 63a3 b03e 3b68 de3e 645e 7d3e 7153 8a3e
000002d0: 2fdb 713e e6b9 bb3e c9a5 c4be c5c2 643e
000002e0: 6a23 e83e 9a30 9abe 5b54 a4be 3bc8 bb3e
000002f0: b3bb a93e d2e0 c0be c042 7dbe 1be0 e5be
00000300: 59d5 0cbe 02bd 43be c459 a93e 0780 c5be
00000310: 0337 e5be 088a 77be 9106 bdbe 5e97 50be
00000320: cfa7 0dbe 25ea 98be 78af adbe 5841 e0be
00000330: 7bff 60be a3e1 ea3e f540 c6be 4515 8dbe
00000340: c183 a63e f9d8 d23e c410 453e 60af c93e
00000350: 3849 d93e 721a ae3e 7c27 eabe 64ac 653e
00000360: da5e e33e e03c 8cbe a34a 78be 851e ab3e
00000370: 8202 453e d122 76be 06e8 cfbe 940a 55be
00000380: 2127 74be ce78 eabd 6633 d43e 00ca 9cbe
00000390: d545 13be dd0e 74be 0f11 acbd 97bc 45be
000003a0: 5895 adbe 0523 59be a920 cfbe 8469 6bbe
000003b0: 7769 ebbe 8049 463e 2bf1 75be 6e06 bcbe
000003c0: 9a53 b63e 0f2f b33e 650b b03d bc6f c03e
000003d0: bab7 d33d ec41 043e aa2c 8dbe d605 843e
000003e0: 2f3f d83e 207e d8be 378a aebe 06a9 373e
000003f0: 3d02 0a3e f984 6bbe 253e 43be b232 afbe
-0.3566296 -0.30399227 0.1949855 -0.15548454 -0.3525742 -0.39056402 -0.43065333 -0.21292838
-0.41473764 -0.3245862 -0.31793755 -0.3856587 -0.285304 0.44942102 -0.23207851 -0.16405779
0.39987105 0.3105125 0.14468113 0.19510143 0.34140292 0.35999265 -0.39092198 0.4598422
0.13066539 -0.30014938 -0.17182827 0.29125944 0.22384498 -0.27255726 -0.3774283 -0.20853189
-0.32435372 -0.42555335 0.45736727 -0.40358478 -0.24695006 -0.46736372 -0.1289546 -0.3527246
-0.36078668 -0.35663638 -0.28638947 -0.44728437 -0.46947908 0.46844497 -0.17533438 -0.41205174
0.43829644 0.30749702 0.28628135 0.24384685 0.46217385 0.44486684 -0.1930493 0.19721955
0.4481033 -0.16357383 -0.42001134 0.3096958 0.24077247 -0.40053362 -0.31826124 -0.2104915
-0.15842253 -0.1329297 0.097821236 -0.10419165 -0.30269754 -0.3722228 -0.17497012 -0.10278488
-0.2144726 -0.16871758 -0.28031042 -0.19730097 -0.33457035 0.39501342 -0.2471484 -0.16410069
0.29466352 0.1378084 -0.049021486 0.113813825 0.16823079 0.2971438 -0.35133904 0.2294961
0.33684307 -0.28718227 -0.20527457 0.40107265 0.13525786 -0.35325497 -0.26686296 -0.22332337
-0.37862706 -0.35708693 0.45807773 -0.17529233 -0.46441072 -0.34629616 -0.3200846 -0.23618864
-0.1522215 -0.33778006 -0.118219756 -0.25518745 -0.42548546 0.11969439 -0.4353106 -0.4455812
0.1082033 0.39131725 0.22034147 0.18100813 0.37421736 0.12707998 -0.31722328 0.15493679
0.24764557 -0.15119405 -0.4100505 0.3767846 0.36088562 -0.29497692 -0.1615737 -0.43808118
-0.14454472 -0.1489878 0.41720486 -0.07514993 -0.44375098 -0.17670098 -0.14733517 -0.24569108
-0.25031552 -0.4007971 -0.40628967 -0.2275044 -0.28131676 0.43352097 -0.287217 -0.13183017
0.47388315 0.41453955 0.2699556 0.28844216 0.32670397 0.24323203 -0.28338447 0.21028127
0.33821103 -0.47394308 -0.1159723 0.12560785 0.29162273 -0.13742962 -0.39661425 -0.21782014
-0.19237633 -0.22387886 0.31869334 -0.30297914 -0.3340918 -0.37581933 -0.3942616 -0.41474444
-0.2264353 -0.29067686 -0.4501867 -0.32090503 -0.31174996 0.2687937 -0.38479486 -0.24475564
0.34499654 0.43438897 0.24743038 0.27016786 0.23618768 0.36665267 -0.38407734 0.22339924
0.4533952 -0.30115205 -0.32095608 0.366762 0.33151016 -0.37671524 -0.24732494 -0.4489754
-0.1375326 -0.1911507 0.33076298 -0.3857424 -0.44768533 -0.24173748 -0.36919072 -0.20370242
-0.13833545 -0.29866138 -0.33922935 -0.43799853 -0.21972458 0.45875272 -0.38721433 -0.2755529
0.32522395 0.41181162 0.19244677 0.39391613 0.42438674 0.3400455 -0.4573325 0.22429043
0.44408303 -0.27390194 -0.24247222 0.33421722 0.19239238 -0.24036719 -0.40606707 -0.20804816
-0.23843051 -0.11448823 0.41445464 -0.30622864 -0.14382108 -0.23833795 -0.08401691 -0.19310223
-0.33903003 -0.21204765 -0.40454605 -0.2298947 -0.459789 0.19363976 -0.2401778 -0.36723655
0.35610658 0.3499684 0.08595923 0.37585247 0.103377774 0.12915772 -0.27573138 0.25785702
0.42235705 -0.42283726 -0.34089825 0.17935571 0.13477416 -0.22999944 -0.19066675 -0.34218365

gcn3.w f4 [14, 32]
00000000: bd30 b33e da89 273e b94a 893e e8dc 893e
00000010: a5e1 463e fd01 5d3e 996e dd3e fb66 b0bc
00000020: bfad 343e 4683 983e d653 043e 6d32 eb3e
00000030: 7d78 893e 5d26 6b3e 73c8 2c3e ac7c b83e
00000040: a795 e73e afdd 5abc b875 c03e d572 af3e
00000050: 95d1 ad3e 7cd2 b33e 6803 9b3e 9d17 9e3e
00000060: 60f3 9d3e 3b26 9d3e afba ac3e 28aa ee3e
00000070: 6712 1fbe a48e c53e 8c81 f13e e93f b03e
00000080: afd8 423e 8b4b 863e 1870 3d3d 4692 183e
00000090: dd9e 8f3e 8531 b53d d82c 8c3e 358b 1dbe
000000a0: 9f5c b73e 6f7a 933e b680 693e efce 7f3e
000000b0: 8042 3d3e 71af 363e a163 f23e 5ea5 c63e
000000c0: b770 d73e b095 90bd 41d5 ad3e a753 983e
000000d0: 7453 d73e dbbb c63e 0ac8 4c3e 1aa4 253e
000000e0: e315 d53e 8da4 de3e 9b95 753e 4ea4 253e
000000f0: ec47 89bd 7467 993e 92ec f03e 6c3f 3f3e
00000100: c322 863e adec 773e 89f5 41bd 238d b03e
00000110: b884 d73e abf6 403e 44ec db3e ed5a bbbd
00000120: ed31 a03e 9f2f bc3e d109 8e3e dc15 ce3e
00000130: 499f 843d f552 8b3e 20f7 653e fb49 2f3e
00000140: 4901 cf3e a46e 3ebc c47e b23e 3ae3 8c3e
00000150: 0629 6e3e 2a71 8b3e 0141 0e3e fb00 933e
00000160: c932 cf3e 0e17 bf3e d708 7f3e c02d a03e
00000170: 7456 dfbd 6f7c 293e e435 d03e d674 f33e
00000180: d408 e13e e652 983e c752 133c ec8b c73e
00000190: 86b9 983e 84b8 d33e 1985 c83e bab2 173e
000001a0: b481 813e ada8 e43e 0037 c63e 4dfa c53e
000001b0: a53d e53c d450 a63e 8e29 013e b82d 6f3e
000001c0: 5ce0 0c3e 4c86 ab3d a5ca f33e b44b 683e
000001d0: 7458 de3e 7263 9f3e a94a 5f3e d513 b73e
000001e0: c935 cc3e 7b28 3d3e b057 fd3d e314 523e
000001f0: 4a4a 4abd 72b4 553e 5bd9 783e 9c94 d13e
00000200: 8c1e 853e 6fd1 493e 1b3c be3d 1bd9 e53e
00000210: 7dec 353e de8d 4e3e a1eb de3e 8474 a63c
00000220: 99c9 a13e 2a6b d63e 968c da3e 8b29 f63e
00000230: 2780 f13c a1b4 913e 3ca4 8a3e c40f 533e
00000240: d545 b03e f3bf 97bd f18f 993e e6a8 313e
00000250: 5ce8 3e3e 1fff a23e a93d d43e 8f05 db3e
00000260: 149f b93e e48d 3e3e b157 663e 8e2d a33e
00000270: a20c 843d 3fc0 273e 530e db3e d7a4 0f3e
00000280: c724 ca3e 8f24 a53e 2f34 e23b e6d7 953e
00000290: 0c06 be3e 6978 873e a4c5 043e f59a f03d
000002a0: 258d b93e a79c e63e d2c8 4c3e d9ee f43e
000002b0: 2aaa 8b3d 3c8d b63e 37cb d53e 1b07 ac3e
000002c0: a7e1 5e3e 8d31 76bc 7da8 e93e 6f99 ca3e
000002d0: 4c93 c93e 8f03 b43e 3b57 b63e 2fac d23e
000002e0: d709 a23e 6edb 993e b697 bd3e ae33 dc3e
000002f0: d254 3bbe b149 353e 7354 133e 5c3e a63e
00000300: c5ff 6d3e 362e 613e 2c46 1f3e 4c61 e13e
00000310: bb0d 8b3e db60 953e 127a 003e bf8c e0bd
00000320: 5d51 843e 2cb6 cf3e daab 4e3e 7255 843e
00000330: 0d3a 9f3c b36a 123e b275 b43e 5189 493e
00000340: 1da9 823e dacd 0cbd 197c d73e 18dc 963e
00000350: f62a 923e ffa9 e73e 5dee e53d 422b a33e
00000360: 552f 9d3e b454 ca3e f373 923e 38fd 283e
00000370: ce9e a23d 82bd 8c3e 113a cb3e 9868 da3e
00000380: bddc b13e 7ca6 213e 9697 793d b99c 873e
00000390: c31c eb3d 58c5 193e f9ac 733e 40d4 80bd
000003a0: e246 443e b776 f43e 235e 333e 1d58 813e
000003b0: 92ba aa3d 2187 403e 74f9 8c3e e250 c43e
000003c0: 91ef d03e 2c47 9939 d083 e73e 5a9c d23e
000003d0: 6fd7 ce3e 404a dd3e 5600 d53e c928 a43e
000003e0: 1eca 183e 19be ac3e 303c 103e 2ece a93e
000003f0: 9acd ebbd 7936 a33e 19b7 a63e 3c68 3d3e
0.34998122 0.1636118 0.2681482 0.2692635 0.19422014 0.2158279 0.43248442 -0.02153348
0.17644404 0.29787654 0.12922606 0.4593691 0.26849738 0.22963853 0.1687334 0.36032617
0.45231363 -0.013358518 0.37589812 0.34267297 0.3394896 0.35121524 0.30276036 0.3087739
0.30849743 0.3069323 0.33736178 0.46614194 -0.15534364 0.3858539 0.4716915 0.3442376
0.1902797 0.2622951 0.04624948 0.14899549 0.2805089 0.08847336 0.27377963 -0.15385135
0.35812852 0.28804347 0.22803006 0.24981283 0.18482399 0.17840363 0.47341636 0.3879804
0.42078182 -0.070598006 0.33951762 0.29751322 0.42055857 0.38815197 0.19998184 0.16175881
0.4161826 0.43484917 0.23982851 0.16175959 -0.06703171 0.2996174 0.4705549 0.18676537
0.26198396 0.24211378 -0.0473533 0.3448268 0.42093444 0.18844096 0.42953694 -0.09148202
0.3128809 0.36755082 0.27741864 0.40251052 0.06475694 0.2721173 0.22457552 0.17118065
0.40430668 -0.0116230585 0.3486234 0.2751711 0.23257837 0.27234775 0.13891985 0.28711686
0.40468433 0.37322277 0.24905716 0.31284904 -0.109051615 0.16551374 0.40666115 0.47550076
0.43952048 0.29750746 0.008991904 0.3897394 0.29829043 0.41351712 0.39164045 0.14814273
0.25294268 0.4465994 0.38713837 0.38667527 0.027983496 0.32483542 0.12613508 0.23357284
0.13757461 0.083752245 0.47615543 0.22685128 0.4342686 0.31130558 0.21805824 0.35757318
0.39884785 0.18472473 0.12370241 0.2051578 -0.049387254 0.20869616 0.24301665 0.40933692
0.25999868 0.19708799 0.09288808 0.448922 0.17765994 0.20171306 0.43539146 0.02031923
0.3159912 0.41878635 0.42685384 0.4807857 0.029480053 0.2845812 0.27078426 0.20611483
0.34428278 -0.07409658 0.2999263 0.17349586 0.18643326 0.31835267 0.41453293 0.42777678
0.3625418 0.18608814 0.22494389 0.31870693 0.06447722 0.1638193 0.42784366 0.14027725
0.39481184 0.32254454 0.0069031934 0.2926628 0.37113988 0.26459053 0.12966019 0.11748306
0.36240497 0.4504139 0.19998482 0.47838476 0.068195656 0.35654628 0.41756603 0.3359917
0.21765767 -0.015026462 0.4563636 0.39570186 0.3937019 0.35158965 0.35613427 0.4114699
0.31648132 0.30050224 0.3702981 0.43008178 -0.18294075 0.17703892 0.14387684 0.3246945
0.232421 0.21990284 0.15554112 0.44019544 0.27158913 0.29175457 0.12546566 -0.10964345
0.25843325 0.40568674 0.20182744 0.2584644 0.01943686 0.14298515 0.35246044 0.19681288
0.25519648 -0.034376003 0.42086866 0.29464793 0.28548402 0.45246884 0.11227105 0.3186894
0.30700174 0.39517748 0.28604087 0.16502845 0.07940446 0.27488333 0.3969274 0.42657924
0.34738722 0.15786165 0.06093558 0.26486757 0.11480095 0.15016687 0.23796453 -0.062904835
0.19167665 0.47746822 0.17516379 0.25262538 0.08336367 0.18801548 0.27534068 0.3834296
0.40807775 0.0002923546 0.45217752 0.41134912 0.40398738 0.4322071 0.4160182 0.32062367
0.14920852 0.33738783 0.1408546 0.33165115 -0.11513825 0.31877497 0.32561567 0.18496794

gcn4.w f4 [32, 32]
00000000: 5d66 a7be 5af4 c7be c71f b03e 9e1f 273e
00000010: ffb5 b73e dceb 85be 8e77 0f3e 3a40 133e
00000020: 896e d1be 3daa d83e adbc 46be dbd4 823e
00000030: 42a8 9cbe dbf1 fa3d d3af 233e d423 85be
00000040: b0ac c73e 85f7 dd3e 8f33 7fbe 18e7 543e
00000050: 8709 143e 81a8 8abe 7426 ddbe 8519 c4be
00000060: ff11 dabe 274a 1abe e547 9bbe dcf2 d6be
00000070: 828d ed3e 6176 f83e be6a 80be 67e2 b43e
00000080: ebf9 d9be 2b5f c8be bdfc 703e 4ace b63e
00000090: 5979 b63e 0d95 c7be a18d 4b3e b26f 233e
000000a0: 4f04 d8be 3236 a83e 3534 81be 0c4f 5c3e
000000b0: 5a27 0cbe 6925 e93e 6fe1 c33e 1175 90be
000000c0: 40f2 3e3e 35ea c33e 54aa cbbe 4b5d df3e
000000d0: 7e26 c43e bfd4 5cbe 6520 99be 3fd9 a4be
000000e0: bc54 9cbd f348 dcbe 8126 25be cdd8 e2be
000000f0: 9c1f df3e 2855 a43e 3b07 80be 7fc1 6c3e
00000100: 587b 0abd ce92 80be 42f3 873c 0761 a93e
00000110: fac2 053e 77ca c2be 3390 7a3e ffdd 3b3d
00000120: 3d54 abbd cb1d 743e d47c 43be d3e7 3f3e
00000130: d52f 6fbd 8983 923e 605b fd3d 9c25 cbbd
00000140: 0a9f b33d 855e a13d b690 5bbd 5fe8 0c3d
00000150: 6c78 763d 70ad 8cbe 657a a0be 3b56 29be
00000160: 868b 8cbe 4249 88be ee5c fabc b975 6ebe
00000170: 0b20 633e 5350 233e 665d 08be 804e 6e3e
00000180: 4f55 77be ece8 babe a5b6 d63d 752b a93e
00000190: a05e e03e 5a26 6abe 288f a03e 5be5 7f3e
000001a0: d075 21be cf11 c93e 0ffe 78be d6d6 b63e
000001b0: bbfa 1bbe a233 d23e 6e5a c13e b87d 84be
000001c0: 9a39 dd3e 0627 923e 441e b5be d58c 4c3e
000001d0: fa25 dd3e 7ab3 e1be e91a ecbe f29c b2be
000001e0: 5bfd c6be dc21 89be bf06 11be 8756 71be
000001f0: 402c d63e 2bd1 813e dc27 8ebe 91be c53e
00000200: 4b18 15be 9d7d f0be a336 b93e 630a 463e
00000210: 4b5e 6e3e 9927 b2be f1a0 8f3e 8f7d dc3e
00000220: b145 10be ef51 ac3e 8bc7 7fbe 54e1 603e
00000230: 6302 b3be c9f7 b93e 8332 f63e 6379 01be
00000240: e992 eb3e 2c85 4f3e 8050 b2be 7942 ec3e
00000250: 6db7 1b3e ec09 52be 9a52 21be 4b40 abbe
00000260: d78e 4fbe caa4 95be 4589 1abe 2b1c 2fbe
00000270: 59d4 443e e77b f03e 7adc 2bbe 4b6f c93e
00000280: 901b 33be df57 76bd 3da0 083e 68f3 ed3d
00000290: 4fe3 8a3e a1c0 41be d316 9b3e 7fb4 1b3e
000002a0: b249 e6bd 76e1 3b3e 4b0b 12be b590 6d3e
000002b0: 9cd9 85be 7f5c 893e 1830 e93d d05c a5be
000002c0: 6d3c e13d 8142 b13e dbeb c7be 0172 cd3e
000002d0: c9c1 d83e 1b9c 6dbe 7548 e1bd 294b 5dbe
000002e0: ea94 5abe 1eb3 cbbe 2e55 7abe a0c6 dabe
000002f0: 3466 9a3e 870d d63e ee2b 42be 333c 9c3e
00000300: 612f ecbe bc95 7abe 17e9 9b3e 0ba3 943e
00000310: 742c c93e 10ba aebe 8765 d33e 7ae2 c33e
00000320: 3caa 6fbe 2979 ee3e 4a1e 25be e869 9f3e
00000330: 9433 a8be 0be6 863e b062 383e d7eb 92be
00000340: 1718 b23e b1f8 f93d bed9 9dbe 7887 813e
00000350: 78b9 e03e db22 66be 2722 25be 630a e8bd
00000360: 42c5 8bbe 4272 debe ef94 93be 83fc 43be
00000370: a036 d23e adec ff3d 4974 04be eb88 0e3e
00000380: f48b 353c 2fd1 b83d 55f5 80bd 3163 283d
00000390: 2029 14bd 2984 0dbc 8ca9 0fbe e2bf 20be
000003a0: b99e 45bd 00a4 22be 40a3 af3c 3b4d 61bc
000003b0: 270d febb 9af7 673d ceea 07be bd76 dc3d
000003c0: a429 2a3e 9124 b33d cfc6 8e3d dabc 053c
000003d0: ec2e e1bd 23b7 bebb cb32 e73d 46e6 a33d
000003e0: 0456 15bc 445c fc3d 0936 f43c d93b 63bd
000003f0: 5e68 9f3d e7f0 1dbe 8d0b 79bc 7399 a2bc
-0.32695284 -0.39053613 0.34399244 0.16320655 0.3588104 -0.2615651 0.1401045 0.14379969
-0.40904644 0.42317382 -0.19407912 0.2555302 -0.3059712 0.122531615 0.1598504 -0.26003897
0.38998938 0.43352905 -0.24922012 0.2079128 0.1445676 -0.27081683 -0.431934 -0.3830072
-0.42591855 -0.1506735 -0.3032829 -0.41982162 0.46397024 0.48527816 -0.25081438 0.3532898
-0.42573485 -0.39135107 0.23533912 0.3570426 0.35639456 -0.38980904 0.19878246 0.15960577
-0.42190787 0.32853848 -0.25235143 0.21514529 -0.13686886 0.45536354 0.3825793 -0.28214315
0.18647099 0.38264623 -0.39778388 0.43625864 0.38310617 -0.21565531 -0.29907528 -0.32196996
-0.07633349 -0.43024406 -0.1612797 -0.4430603 0.43578804 0.3209622 -0.25005516 0.23120688
-0.033809036 -0.25112003 0.016595487 0.33081838 0.13062659 -0.38045093 0.2446907 0.04586601
-0.083656766 0.2383949 -0.19090587 0.18740778 -0.058395226 0.28615978 0.12370944 -0.09919283
0.08770569 0.07879356 -0.053604804 0.034401294 0.060173437 -0.27476072 -0.3134338 -0.165368
-0.27450198 -0.2661839 -0.03056189 -0.23287095 0.22180192 0.1594861 -0.13316879 0.23272133
-0.24153636 -0.3650583 0.104840554 0.33040968 0.43822193 -0.22866192 0.3135922 0.24989836
-0.15767598 0.392714 -0.24315666 0.35710782 -0.15232365 0.41055018 0.37764305 -0.25877166
0.4320801 0.28545398 -0.35374653 0.19975598 0.43193036 -0.44082242 -0.4611428 -0.34885365
-0.3886517 -0.26783645 -0.1416273 -0.23568164 0.41830635 0.25354895 -0.27764785 0.38621953
-0.14560048 -0.46970835 0.36174497 0.193399 0.23278157 -0.34795836 0.28052476 0.43064544
-0.14089085 0.3365626 -0.24978463 0.21960956 -0.34962758 0.36321858 0.48085412 -0.12643962
0.4601052 0.20265645 -0.34827042 0.46144465 0.1520669 -0.20511597 -0.15754166 -0.3344749
-0.20269333 -0.29227287 -0.15091427 -0.17100589 0.19221629 0.4696953 -0.16783324 0.39342722
-0.17490983 -0.060142394 0.13342376 0.11618692 0.27126548 -0.18921138 0.3029085 0.15205573
-0.11244525 0.18347725 -0.1426212 0.23199733 -0.26142585 0.2682838 0.11386126 -0.32297373
0.109978534 0.3462105 -0.3904713 0.4012604 0.42335346 -0.23204081 -0.11000148 -0.21610703
-0.21345869 -0.39785093 -0.24446556 -0.42729664 0.301561 0.41807196 -0.1896207 0.30514678
-0.46129897 -0.24471182 0.3045127 0.29030642 0.39291728 -0.3412633 0.41288397 0.38258725
-0.23404783 0.46576813 -0.16124836 0.31135488 -0.3285185 0.26347384 0.18006396 -0.28695557
0.34784004 0.12205637 -0.30830187 0.25298667 0.438915 -0.22474234 -0.1612631 -0.11330106
-0.27298933 -0.43446547 -0.28824565 -0.19139294 0.410573 0.12496314 -0.12934984 0.13919418
0.011080731 0.090242736 -0.06296793 0.04111022 -0.036172032 -0.0086374665 -0.14029521 -0.15698197
-0.048247073 -0.15882874 0.021440148 -0.013751323 -0.0077530327 0.056632616 -0.13273165 0.10764835
0.16617447 0.08747209 0.069715135 0.0081627015 -0.10995278 -0.0058201714 0.11288985 0.080029055
-0.009114746 0.12322286 0.029810922 -0.055476997 0.07783578 -0.15423928 -0.015200508 -0.01984856

fc1.weight f4 [32, 2]
00000000: c6f5 78be 254c 42be 6a09 1c3e 48d9 9c3d
00000010: f213 d538 4d0a b938 818d 703f 6a5b e03c
00000020: 9f06 163f 7dc4 703f 250d 743f 9abb a2be
00000030: e482 a73e e67a 743e ea48 7b3f 3840 913e
00000040: 2715 703f ed74 183f a1d4 003f 6afe 653f
00000050: b4a5 8cbe f42a 24be bd34 853e 7ba0 243f
00000060: 1400 ac3e cffa b0bc 89eb 8a3d b3f3 bbbd
00000070: 70c7 293f 1e50 4dbe 2a85 733f a3ae 0f3f
00000080: f109 ad3e c995 4d3f 97ac d83c 8d7c 0cbe
00000090: b263 493f c169 3d3f 570f b4be ae62 7c3b
000000a0: 9909 b73e 3e4c ae3e 1213 703f fd71 26be
000000b0: e399 3b3f ab33 4e3f 0a96 4b3d bfa6 83be
000000c0: 9be3 bbbd c4b0 5eb9 c826 813e 7a65 693f
000000d0: 3800 86be 6986 6f3f 318c 5ebe 2aef 0b3b
000000e0: 1983 a7be d27e 9f3d 7505 52bd 00cb a43d
000000f0: dc54 803f 2fea 293e 55b1 e2bd be92 033f
-0.24312505 -0.1897436 0.15237966 0.076586306 0.000101603466 8.823406e-05 0.9396592 0.02738734
0.58603853 0.9404982 0.95332557 -0.31783754 0.3271705 0.23875007 0.98158133 0.28369308
0.93782276 0.59553415 0.50324446 0.8984133 -0.2747017 -0.1603201 0.260168 0.64307374
0.3359381 -0.02160397 0.06783206 -0.09177341 0.6631994 -0.20050094 0.9512507 0.5612585
0.33796647 0.8030668 0.026449485 -0.13719387 0.7866775 0.7398949 -0.35167953 0.0038510966
0.3574951 0.34042543 0.937791 -0.1625442 0.7328169 0.8054759 0.049703635 -0.25713155
-0.09174272 -0.0002123742 0.252249 0.91170466 -0.26172042 0.9356447 -0.21733166 0.002135227
-0.32717207 0.07787861 -0.051274735 0.08046532 1.0025897 0.1659324 -0.1106898 0.51395786

fc1.bias f4 [32]
00000000: 3012 5d3f b2f9 753f f1d9 e2bd ff24 94be
00000010: 49cd 3e3e bcca 793f b140 643f 9cfc 2d3f
00000020: 48d9 4bbe f277 ff3e e1a5 7ebd bd75 5f3f
00000030: a786 343f 2c79 21be bc1f 6c3f ba71 263f
00000040: f58a 533e 89e1 79bd 483f 86be e1ad 0cbe
00000050: 9b30 02bf 8175 663f a8ed 7b3f f166 773f
00000060: 7878 cabe 3e2d 29be fef5 4a3f f653 4ebc
00000070: ac07 e0be 2822 733f c661 103f 53e6 113f
0.86355877 0.9608413 -0.11076725 -0.28934476 0.18632998 0.97574973 0.8916121 0.67963576
-0.19907105 0.498962 -0.062169913 0.8728903 0.70517963 -0.1576888 0.9223592 0.6501728
0.20658477 -0.061006103 -0.26220155 -0.13738205 -0.50855416 0.90023047 0.9840951 0.9664145
-0.39545035 -0.16521165 0.79281604 -0.01259326 -0.43755853 0.94973993 0.5639919 0.5699207

output_1.weight f4 [24, 1056]
00000000: 80e0 09bc 270b a9bc bcec da3c edc7 bfbc
00000010: 552d cdbc 2cce da3c 1617 923c e385 8fbc
00000020: d07b 833b 7635 8abc 688d acbb d84c d93c
00000030: d238 02bc 52ae 933c 70d4 28bc c4a9 623c
00000040: 0750 edbc ec6f c33c b2c2 e73c c0ae 763b
00000050: 75fa cabc 06c8 ed3c eeba ee3c 8ad0 ac3c
00000060: 3ce2 a83c ec19 b9bc 4973 d0bc c050 4e3a
00000070: 64bd 953c 50c1 283b d262 eb3c 1e88 8dbc
00000080: e2ff 4ebc 4422 b5bc 48f0 253c 7fcc 8ebc
00000090: a00e aeba 8cf6 e93c 80d1 df39 9cb6 e23c
000000a0: 4edb ea3c 786d 993b f8ad 453c b048 00bb
000000b0: e897 ad3c 30e7 b4bc c618 873c 2836 f53b
000000c0: 0647 ab3c 14c0 d43c 4f7b d1bc 3cc6 9bbc
000000d0: 083a ccbc e0f9 6aba ed7d 89bc 6896 1abb
000000e0: 6c61 e33c 80fd 6a3b 2a32 a23c d005 92bb
000000f0: 5023 4b3b 6408 ae3c 28a8 9fbb aad9 d5bc
00000100: b0c3 dbba a0b3 a83b d095 ecba c63f f9bc
00000110: 3b67 8cbc 4cf6 6fbc 5ea3 9d3c e084 493b
00000120: d8e3 59bc f23e 9e3c d6f9 18bc 0a56 1fbc
00000130: 6ecc d5bc 1a4c 5dbc 7660 ab3c 88b9 d63b
00000140: a1d3 e7bc bcfe 62bc b886 993c d0f1 c33b
00000150: 80f3 913b f063 0a3c a099 913c 42ff a53c
00000160: 0e7d 9d3c 707d c7ba eac7 d6bc 3e25 8b3c
00000170: f069 893b 2439 0e3c 20ff d93b 509c 633c
00000180: f28f 78bc e007 3c3b 0016 d83c 924d 6cbc
00000190: 083d 4abb a89a cbbb 68f0 73bc c023 22bb
000001a0: 996c d3bc 32b3 60bc 648b bb3c 3075 043c
000001b0: f809 68bb 88e0 aebc f2f0 35bc a4b9 6b3c
000001c0: 2c3e a23c 00c6 d53a 002b 1e39 d24f e73c
000001d0: 28dd 663c 4806 bebc a24c ae3c 691c 95bc
000001e0: f4ed 973c a4f4 d03c 9cb7 9abb 32c9 22bc
000001f0: aa85 80bc f415 9dbc 00de ca3b 86e2 d33c
00000200: c2e1 52bc d097 393b 0050 2b38 3e69 c2bc
00000210: 8064 fcbb 6c7d 0fbc b819 51bb 1445 183c
00000220: 29b7 c2bc ff42 7bbc c0fc 003a b8e3 b83b
00000230: 6253 c7bc 76df 923c a0a2 dbbc 5e01 c53c
00000240: 5c78 3a3c 42aa 903c 2435 08bc 463c d13c
00000250: 6c00 5c3c 1481 143c 3c32 d6bc c02f c23b
00000260: 2c5d 613c c37f 8fbc 6808 9a3b 2c37 bcbb
00000270: 004d 9f3c 30f7 23bb 022e eb3c 186e 153c
00000280: 0efb c53c f43b 7d3c c76d ccbc da65 eb3c
00000290: 8402 e73c 2255 d0bc f6b7 c1bc cc69 003c
000002a0: 9eea d33c ce80 e43c 9e2e 8a3c 5479 3dbc
000002b0: d850 db3b 20be df3b 6563 f9bc bcdc e5bc
000002c0: 3495 273c 00b9 cebc 0631 92bc 4896 c73b
000002d0: 78b3 b33c 2c35 7d3c 841a 17bc 3e37 b6bc
000002e0: 63c6 bcbc f8b8 aa3c 48ca bb3b 8070 cbbc
000002f0: f6ba d4bc d863 d03c 46af e73c 6449 9b3c
00000300: 1a85 e2bc 42ff 963c e2d7 b63c deec 53bc
00000310: 58e8 0d3c 809b df3a 489d 173c 3224 85bc
00000320: 88ee df3b 6a27 9f3c b88d 943b 4afa e7bc
00000330: 44da 883c 56fa b5bc 5a87 fb3c d4ff 5a3c
00000340: d9b8 ebbc 5441 97bb e040 883c 1015 6abc
00000350: 00e4 183b 2ec9 5abc de8f 98bc 5a2f 973c
00000360: fcb2 773c c8b9 193c 90ab 783c cec1 e03c
00000370: 8dd3 7ebc 3482 babc b85a b63c c1c5 d1bc
00000380: 2611 debc 5619 ec3c feb5 cebc b6db fa3c
00000390: f068 233b 50a9 f2ba 3ae9 9e3c 08d3 cabb
000003a0: 80d9 e7bc f02f 6dbb 8289 0bbc a47f 06bc
000003b0: 826a abbc 4089 403c 64fc f53c ec27 06bc
000003c0: 9c8f c73c eee2 0bbc 5f52 e5bc 2415 cebb
000003d0: 968e b03c 60e0 953a 8860 3d3c f031 a73b
000003e0: 082f 463c 40ae 6c3b 44f6 c8bc c03c 043c
000003f0: ded3 b5bc da10 e03c c025 903a 805b eaba
-0.008415341 -0.0206352 0.026724212 -0.023410762 -0.02504603 0.026709639 0.017833274 -0.017519897
0.0040125623 -0.016871195 -0.0052658804 0.0265259 -0.007948117 0.018027458 -0.010304555 0.013834421
-0.028968824 0.02385708 0.02829108 0.003764078 -0.02477763 0.029026043 0.02914187 0.021095533
0.02061569 -0.022595368 -0.025445597 0.0007870309 0.018278785 0.002574999 0.028733645 -0.01727682
-0.012634249 -0.022111066 0.010128088 -0.017431496 -0.0013279505 0.028559946 0.00042689964 0.027674966
0.028669026 0.004682239 0.012065403 -0.0019574575 0.021190599 -0.022082895 0.016491305 0.0074832626
0.02090789 0.025970496 -0.025571493 -0.019015424 -0.024930015 -0.0008963626 -0.016783679 -0.0023588184
0.027756415 0.0035856664 0.01979931 -0.0044562593 0.003099639 0.021244235 -0.0048723407 -0.026104767
-0.0016766693 0.005148366 -0.0018050019 -0.030425917 -0.017139068 -0.014646124 0.019242939 0.0030749366
-0.013298951 0.019317124 -0.009336909 -0.009725103 -0.026098456 -0.013506914 0.02092002 0.006552879
-0.028299155 -0.013854679 0.018740997 0.005979754 0.0044540763 0.0084466785 0.01777345 0.020263318
0.01922467 -0.0015219878 -0.026218373 0.016985532 0.004193537 0.008680616 0.0066527277 0.013892248
-0.015171038 0.0028691217 0.026377678 -0.014422791 -0.0030859131 -0.006213505 -0.01488886 -0.0024740547
-0.02580862 -0.0137145985 0.022893615 0.00808458 -0.0035406332 -0.0213473 -0.011104809 0.014387522
0.019805036 0.0016309619 0.00015084073 0.028236303 0.014090814 -0.023196355 0.021276776 -0.018202024
0.018546082 0.025507279 -0.004721595 -0.009935664 -0.015688736 -0.019175507 0.0061910152 0.02586485
-0.012871208 0.0028319247 4.0844083e-05 -0.023731824 -0.00770241 -0.00875793 -0.0031906199 0.009293813
-0.023768978 -0.015335797 0.0004920475 0.0056423806 -0.024331752 0.01792882 -0.026810944 0.024048503
0.011381235 0.01765931 -0.008313451 0.025541436 0.013427835 0.009063978 -0.026147 0.0059261024
0.013755124 -0.017516976 0.004700709 -0.0057438817 0.019445896 -0.0025019161 0.028708462 0.009120487
0.024167564 0.0154561885 -0.02495469 0.02873509 0.028199442 -0.02543122 -0.02364729 0.007837724
0.02586871 0.02789345 0.016867932 -0.011564571 0.006692987 0.0068280846 -0.030442903 -0.028059356
0.010228444 -0.0252347 -0.017845642 0.006090913 0.021936163 0.015454572 -0.00922263 -0.022243138
-0.023043817 0.020840153 0.005730901 -0.024833918 -0.025968056 0.025438234 0.02828182 0.018955894
-0.027651358 0.018432263 0.022319738 -0.0129348915 0.008661352 0.0017059892 0.009253807 -0.01625261
0.006833855 0.019427974 0.0045334958 -0.02831759 0.01670564 -0.022214096 0.03070419 0.013366658
-0.028774666 -0.004615942 0.016632497 -0.014287248 0.0023329258 -0.013353629 -0.018623289 0.018455196
0.015118357 0.009382673 0.015177622 0.027436163 -0.015553367 -0.022767164 0.022260055 -0.025606992
-0.027107786 0.028820675 -0.025233265 0.030622344 0.0024934374 -0.0018513594 0.01939832 -0.0061897077
-0.028301954 -0.0036191903 -0.008516671 -0.008209143 -0.02092481 0.011751473 0.030027576 -0.008188229
0.02436047 -0.008537991 -0.02799338 -0.0062891413 0.021552365 0.0011434667 0.011558659 0.0051023886
0.012096174 0.0036114603 -0.024531491 0.008071125 -0.022195753 0.027351785 0.0010997579 -0.0017880052

output_1.bias f4 [24]
00000000: f03a 133c 3ecc 9b3c e48d 6e3c 7c8e a7bb
00000010: 2091 5ebc 08fb 20bb aa15 9dbc 12cd b8bc
00000020: 14bd e0bc 88d6 abbc 00b6 b33b 794b 8fbc
00000030: 42e0 c63c 6d7b 99bc 6e56 bf3c 0cc4 9ebc
00000040: 18ac f53c 4ae9 80bc 1566 c2bc 80d6 8a3a
00000050: 9823 52bb 28fb ff3b fcb5 bcbc f0bb f3ba
0.00898622 0.019018289 0.014560197 -0.005113421 -0.013584405 -0.0024563689 -0.01917537 -0.022558723
-0.02743391 -0.02097632 0.0054843426 -0.017492043 0.024276856 -0.018735612 0.023356643 -0.019380592
0.029989287 -0.01573624 -0.023730317 0.001059249 -0.0032064673 0.0078119226 -0.023035996 -0.0018595438

fc2.weight f4 [32, 1056]
00000000: 4ead 73be 1650 82be 85c8 863e df80 50be
00000010: 1f67 7bbe 4582 5dbe c426 80be 93bb 3ebe
00000020: 5c49 83be 3967 8dbe 4de0 73be 4c21 59be
00000030: 4378 71be 0d35 893e 688e 85be fcf8 8fbe
00000040: 720f 693e 806e 8a3e 69f6 733e 280b 8b3e
00000050: 35ed 553e 2367 533e 469a 87be 6150 573e
00000060: 710d 863e 0bb8 70be 6638 6fbe 432a 623e
00000070: f508 3e3e 9789 65be aacd 79be fc67 89be
00000080: 1b7c 87be be47 80be 10eb 903e 5e60 3dbe
00000090: 4ab9 92be dba1 4dbe a48e 6bbe f1d7 4dbe
000000a0: fef2 59be 19ac 6bbe 740d 76be d2e7 79be
000000b0: 2da4 67be 03f6 4a3e bb77 8ebe d88e 6bbe
000000c0: 177c 603e a4e8 823e 4031 5e3e 6a3f 743e
000000d0: 025c 853e 9c17 893e 4d3d 84be 9d64 833e
000000e0: 44aa 5d3e 5fb8 7abe 7e1e 81be fbe8 5c3e
000000f0: 3919 4c3e 0a38 91be 3dad 60be e349 6abe
00000100: c353 81be 0eb4 5dbe 1320 623e 9137 4dbe
00000110: bf1e 8ebe 6658 72be d8ef 8abe 9878 44be
00000120: 27ef 7dbe e739 8bbe 46be 47be e6e3 78be
00000130: 483e 6bbe 390e 843e cb8f 77be f7ce 82be
00000140: 4730 923e 5c82 823e 07b9 613e af28 703e
00000150: 5e56 613e 4a9b 613e f767 83be 983c 823e
00000160: bc1e 8c3e 2b77 6fbe 4369 68be f53e 743e
00000170: 8e70 703e a307 8abe 82c7 57be 6db2 84be
00000180: 2848 8bbe 8337 5abe 5701 813e 4fa4 5dbe
00000190: fa58 65be db50 5fbe 613a 86be 6a7a 62be
000001a0: 4381 74be 2d82 92be ee3c 59be 719e 85be
000001b0: ef22 67be 1338 833e 36c8 5bbe 0075 86be
000001c0: 1ff0 893e 3594 9a3e 2ca8 813e 8e3c 853e
000001d0: e5d4 863e 611d 5a3e f7d0 7dbe cc08 8c3e
000001e0: aa59 773e c6d9 6fbe d6ae 83be 063c 573e
000001f0: b379 5b3e 4073 88be 54aa 8bbe 0c2c 8bbe
00000200: 7e86 7bbe 0eb8 91be abbb 573e 5c55 5ebe
00000210: f6bb 77be 7ce3 5dbe 6a6f 85be 242b 4cbe
00000220: bf3c 8abe 50ca 57be 5b3f 89be ebc6 7dbe
00000230: 715c 71be 948e 713e 3a4c 74be d2e9 86be
00000240: 49c1 7d3e 8165 7f3e eac2 4e3e 052a 943e
00000250: ac7a 783e 0bce 3f3e 4a23 85be 7b06 7a3e
00000260: f5af 893e 94e7 67be 902e 74be 7db7 673e
00000270: 0fdb 413e 7c83 6bbe 9579 8ebe df04 82be
00000280: 3bdc 6abe bf10 88be a1e1 6f3e 09a8 47be
00000290: 2823 8dbe df5f 46be 68c6 84be ceaa 62be
000002a0: 492f 81be 066d 80be 1a3c 81be 4bc4 70be
000002b0: 0645 69be 4a8b 8c3e 9056 76be 0b94 88be
000002c0: 26f0 603e ca1f 703e 7e79 453e ba93 833e
000002d0: 617b 573e d7f8 833e 4dfe 8cbe 68f0 913e
000002e0: bf88 783e 4cdb 83be b2a1 85be eb99 763e
000002f0: 30da 663e ef1d 86be c713 8ebe f2b4 8abe
00000300: e7be 7abe a019 89be 591c 7b3e 0959 65be
00000310: 1979 94be 55ea 7bbe c813 5abe 95dd 75be
00000320: 1676 77be 0727 8bbe 73fa 86be 1e61 83be
00000330: 5969 67be dc73 873e 30c8 68be e779 84be
00000340: 2d3b 953e a739 8e3e 0daf 483e 12f9 793e
00000350: a0db 5e3e 5c58 5d3e 8a88 6dbe f23d 8d3e
00000360: 1ffb 8d3e 8211 52be 1874 93be c85d 843e
00000370: b234 693e a2cb 83be 6657 87be 1716 83be
00000380: 3ef2 61be ad2a 85be 5c73 853e d7e8 66be
00000390: c2c7 5dbe 4c52 59be 20cb 5dbe c937 66be
000003a0: 450d 82be 4e7d 53be 3dbd 68be 7ae0 6abe
000003b0: 4d72 81be 0a7e 843e 94c7 7fbe ceb0 6dbe
000003c0: 1985 7c3e ed92 6a3e 30cc 3c3e 6402 733e
000003d0: 421d 6f3e 345c 883e d792 7ebe 5fed 903e
000003e0: 7ac1 913e d8f4 86be 284f 8bbe 192d 513e
000003f0: c567 6f3e d229 68be 5c55 6abe 8ccc 6cbe
-0.23796579 -0.25451726 0.2632486 -0.2036166 -0.24551056 -0.21631725 -0.25029576 -0.18626241
-0.25641906 -0.27617815 -0.23816033 -0.21204108 -0.23581032 0.26798287 -0.2608521 -0.28119648
0.22759798 0.2703743 0.23824467 0.2715695 0.20891269 0.20644812 -0.2648489 0.21026756
0.2618213 -0.23507707 -0.23361358 0.22086434 0.18558104 -0.22415768 -0.24394861 -0.26837146
-0.26461872 -0.25054735 0.28304338 -0.18493792 -0.2865699 -0.20081274 -0.23003632 -0.20101906
-0.212841 -0.23014869 -0.2402857 -0.24404839 -0.22621222 0.19820409 -0.27825722 -0.2300371
0.21922337 0.25568116 0.21698475 0.23852316 0.2604676 0.26775825 -0.2582802 0.256627
0.21646982 -0.24484394 -0.25218576 0.2157325 0.19931497 -0.28363067 -0.21941085 -0.22879748
-0.25259218 -0.21650717 0.22082548 -0.20040728 -0.27757832 -0.23666534 -0.2713611 -0.19186628
-0.2479826 -0.27192613 -0.19506177 -0.24305686 -0.22972977 0.257921 -0.24175946 -0.25548527
0.28552458 0.2549008 0.22043239 0.2345302 0.22005603 0.22031894 -0.25665256 0.25436854
0.27367198 -0.23385303 -0.22696404 0.23852141 0.23480436 -0.2695895 -0.210722 -0.25917378
-0.27203488 -0.21310239 0.25196335 -0.2164471 -0.22397223 -0.21808188 -0.26216415 -0.2211701
-0.23877434 -0.2861494 -0.21214649 -0.26097444 -0.2257192 0.2562872 -0.21463093 -0.2626114
0.2694101 0.30191198 0.25323617 0.26022762 0.263343 0.2130027 -0.24786745 0.2735046
0.24155298 -0.23422918 -0.25719327 0.21018991 0.21433143 -0.2665043 -0.27278388 -0.27182043
-0.24563023 -0.28460735 0.21067683 -0.2171225 -0.24192795 -0.2166881 -0.26061565 -0.19938332
-0.2699947 -0.2107327 -0.2680615 -0.24782912 -0.2357042 0.23589545 -0.23857203 -0.26350266
0.24780764 0.24941064 0.20191541 0.28938308 0.24265546 0.18730943 -0.26003486 0.24416535
0.26892057 -0.22646934 -0.23845887 0.22628589 0.1893122 -0.22999376 -0.27827135 -0.2539434
-0.22935574 -0.26575276 0.23425914 -0.19497694 -0.27565885 -0.1937251 -0.25932622 -0.2213547
-0.25231388 -0.25083178 -0.25241166 -0.2351238 -0.22780237 0.2745002 -0.24056458 -0.26675448
0.2196661 0.23449627 0.19284627 0.25698644 0.21043159 0.25775787 -0.27537766 0.28503728
0.24270914 -0.25753248 -0.26099926 0.24082153 0.2254417 -0.26194713 -0.27749464 -0.27091175
-0.24486886 -0.26777363 0.24522533 -0.22397245 -0.2899864 -0.2460111 -0.21296608 -0.24010308
-0.2416614 -0.27178213 -0.26362953 -0.25660032 -0.2259878 0.2645558 -0.22732615 -0.25874254
0.2914671 0.2777836 0.19598027 0.24411419 0.21763468 0.21615738 -0.23196617 0.27586323
0.27730653 -0.20514491 -0.2879951 0.258528 0.22774008 -0.25741297 -0.26433867 -0.2560279
-0.22065064 -0.26009122 0.26064575 -0.22549759 -0.21658233 -0.212228 -0.21659517 -0.22482218
-0.2540075 -0.20653269 -0.22728439 -0.22937194 -0.25282517 0.2587741 -0.24978477 -0.23211977
0.24660148 0.2290761 0.18437266 0.2373138 0.23351005 0.26632845 -0.24860702 0.283061
0.28467923 -0.26358676 -0.2720883 0.2042736 0.23379429 -0.22672203 -0.22884125 -0.23124903

fc2.bias f4 [32]
00000000: d3f0 733e 325a 9a3e 05d4 afbc 7b1c 02bd
00000010: 97bd 53bc 773b 6d3e 3ae3 923e f815 5ebb
00000020: 53e1 6e3e c491 773e ee79 873e a3f3 943e
00000030: 9df7 40bc b66d 3dbc 34cf 703e d442 a9bc
00000040: b20c 8d3e a67b 6b3e a0d0 1dbd f9d0 7e3e
00000050: 3d2d 1ebc d2b2 1fba fcb7 9dbc 1f2e 903e
00000060: 8c8f 653b 428d 4abc 0afe c0bc 03eb 913e
00000070: ccf2 853e 250e 913e ba3a 243c 8f88 923e
0.23822336 0.3014694 -0.021463403 -0.031765442 -0.01292362 0.23167215 0.28688985 -0.0033887606
0.23328142 0.24176699 0.26460212 0.2909213 -0.011777786 -0.011561802 0.23516542 -0.020661749
0.27548748 0.22996387 -0.03852904 0.24884404 -0.00965434 -0.0006092015 -0.01925277 0.28160188
0.0035028188 -0.01236278 -0.023558635 0.28499612 0.26161802 0.28331104 0.010023767 0.2861981

fc3.weight f4 [10, 32]
00000000: 4e80 2cbe 1673 4bbc fd74 d13c 183b 2e3e
00000010: fbe4 e5bd b882 b53d 0fe6 09bd 3597 503d
00000020: 88f1 49bd c1cb 01be 0ee0 1c3d e399 66bc
00000030: 9199 483c 6379 1bbe 5da1 95bd 27e2 f23d
00000040: 54a4 013d e596 213e fd7c 01be 9295 ca3d
00000050: a107 ad3d 6183 45bc 2bb1 3f3e 58c1 8c3d
00000060: 6ede f43b 906c 34bd d0e4 763d 01d4 673c
00000070: 8446 f0bc d179 1e3e 3355 8dbd 5688 11be
00000080: efbc 14be 3b5f 973d ee7d 8c3d 890f 4238
00000090: 505f c63d 41bd aa3c 3eba 31bd 2fc4 cc3a
000000a0: 96c4 49bd b360 0f3e 1be9 ce3c 7cbc f0bd
000000b0: 702f 0d3e cacc b1bd 1a8f a43d c078 0cbd
000000c0: 50b2 143d c33f 203d f928 21be defa 843d
000000d0: d452 013e 25c2 203e 8f5b 94bd a855 093e
000000e0: 7a50 67bd 5b83 73bd 37df 303e 3494 2bbe
000000f0: 40f0 83bd 988e 05be 341c e23b 11c7 db3d
00000100: 7875 1f3e fad3 6fbd 220a aa3d e490 993d
00000110: 52b5 6ebd 7be4 59bd bda3 933d e493 52bd
00000120: c880 acbd d9a6 9e3d 1d3b 843d 29a0 c73c
00000130: 9524 f33d fb38 97bd 49e7 1a3d 0312 56bd
00000140: 6aae 0fbd 7adb d03c 81f0 96bd ad8e cc3d
00000150: 4882 263e fcbb de3d 5240 063d fbe6 07be
00000160: 063d 0d3e a33d d3bd 257f ba3d dd86 fc3d
00000170: 620e 8abd d214 1bbe 3352 08be f9d7 babd
00000180: 6a3c 39bd d249 7fbd a09d ba3d 450f e7bd
00000190: 8bdb 07bd f212 17be 57c9 10be 728c dd3d
000001a0: fb57 c33d 08a8 d53d 9041 443c 01b6 0a3e
000001b0: dfb5 4ebd 43ba 313e caba 2ebd 6c5e 44bd
000001c0: c32b fbbd 1d4e 213d faf9 14be 3780 9c3c
000001d0: 5df0 403e 923d de3d 6622 af3d 00ac 073c
000001e0: 4b6b 003e 60c2 21bd 2c8b 9dbc 0607 c03d
000001f0: 0b8a 0cbc e9d5 b5bd cb19 72bd 1b05 213e
00000200: 31c8 283d 52a8 e0bc 421b cd3d d6dc 94bd
00000210: 00d2 d23c f8dc 8b3d 80b6 073e 9c73 43bd
00000220: 0160 84bd c2dc adbb 7d59 28be 165e a0bd
00000230: c60a 103e b3cf 323e 23a8 023e 7b72 00be
00000240: 0d8d 4fbe 031c 033e 8a2d dc3d 944c 1bbe
00000250: 7e25 f53d 8dfe 2f3c f768 18be b027 233d
00000260: d6ea afbb ca2c febd 566b 8639 2531 b43d
00000270: 5294 b03d 9155 c7bd d8d1 ae3d 8587 b73d
00000280: 7063 5c3c af2e d03d 5af1 90bd 1007 9bbd
00000290: 6436 a8bd adc7 45bd 582e 18be a297 8e3d
000002a0: c1b2 e0bd 4812 18bc 9739 243b 6f16 043b
000002b0: 5724 15be ea98 12bd fbbb 27bc 3bfa 213b
000002c0: 856a d93d 4ca0 4c3e cec0 203d 919f 0cbe
000002d0: 030c 1ebe ee89 143e 6cae 153d 565b 92bd
000002e0: 2b69 b83c c176 25bc 70ff b6bb ff46 46bd
000002f0: f46f 343e f95e 063d f840 e33d 65e0 11bd
00000300: 7153 95bd aa51 f63d e837 2abd f8fe 113e
00000310: e6a9 cabd dfe2 4bbd ee33 583a d9df 02bd
00000320: 3bef 003c cf7e bf3d d67d 153e 9f02 8b3d
00000330: 18a1 6b3d 9445 fbbd eb44 c4bb 47d2 d23c
00000340: 6e75 ef3d 9f64 28be d9ef 10bd 5f8c 9e3d
00000350: 75db 213e 29a2 2a3e d098 3c3d e8b1 053e
00000360: 121a 0fbe 5c90 ecbd 0a6c 213e 464a 25be
00000370: 81ea 55bd 800b 1bbe 99fa fb3c 962c dfbd
00000380: 3b9d 1bbe c585 1b3e c954 f03d b53d 9fbd
00000390: 3d28 e4bd d755 f73d 7c02 22be 4cbf bcbc
000003a0: 161e 1ebe de7f 263e ae6e 003d f524 8ebd
000003b0: c3d5 bebd b96d 49bd aa00 04be 79a3 c53c
000003c0: 427e 1f3e 97e6 853c c138 353e 6c2f fb3d
000003d0: fbef 3a3e ad25 e9bc ff05 d43b c7eb a33c
000003e0: 9f10 2ebc 9436 bebc b9fc ce3d 5b8f ebbd
000003f0: b666 0b3e a348 2ebd 485d 313d c5c2 bebd
-0.1684582 -0.012417575 0.02556848 0.1701473 -0.11225315 0.08862823 -0.033666667 0.050925452
-0.049302608 -0.12675382 0.038299613 -0.014074775 0.012243644 -0.15183024 -0.07306168 0.118595414
0.031650856 0.15780218 -0.12645335 0.098918095 0.08448721 -0.012055249 0.18719928 0.06872815
0.0074728047 -0.044048846 0.060276806 0.014149667 -0.0293305 0.15476157 -0.06901016 -0.14212164
-0.14525197 0.07391211 0.06859957 4.6267673e-05 0.09686148 0.020842196 -0.043390505 0.0015622432
-0.049259745 0.14001732 0.025257638 -0.117547005 0.13787627 -0.086816385 0.08035107 -0.034294844
0.036302865 0.039123308 -0.15738286 0.064931616 0.12629253 0.1569906 -0.07244026 0.13411582
-0.056473233 -0.059451442 0.1727265 -0.16755754 -0.064423084 -0.13042676 0.0069003347 0.10731328
0.15572155 -0.058551766 0.08302714 0.07498339 -0.05827839 -0.05319641 0.07208965 -0.05141057
-0.084230006 0.077466674 0.064565875 0.024368363 0.11872212 -0.07383915 0.037818227 -0.05226327
-0.035078444 0.02549528 -0.07370091 0.09988151 0.16260636 0.10875699 0.032776184 -0.13271706
0.1379281 -0.10314491 0.09106282 0.12330411 -0.067410246 -0.15144661 -0.13312607 -0.09123225
-0.04522363 -0.06232626 0.09112096 -0.11282209 -0.033168357 -0.14753321 -0.14139305 0.108178034
0.09538265 0.1043244 0.011978522 0.13545991 -0.050466415 0.1735621 -0.042658605 -0.04794161
-0.12264206 0.039381135 -0.14548483 0.019104106 0.18841691 0.10851587 0.08551483 0.008280754
0.12540929 -0.03949201 -0.019231401 0.093763396 -0.008577834 -0.08878691 -0.05910663 0.15724604
0.041206542 -0.027424011 0.10014965 -0.072686836 0.025734901 0.06829256 0.13253212 -0.047717676
-0.06463624 -0.0053058574 -0.16440387 -0.078304455 0.1406661 0.17462043 0.12759452 -0.12543671
-0.2026865 0.12803654 0.107508734 -0.15165931 0.11970042 0.010741842 -0.14883791 0.03983277
-0.005368571 -0.124108866 0.00025638443 0.08798436 0.0862204 -0.09733117 0.08536118 0.08961395
0.013451442 0.10165154 -0.07077284 -0.075697064 -0.08213499 -0.04828613 -0.14861429 0.069625154
-0.109715946 -0.009281702 0.002505874 0.0020154973 -0.14564644 -0.03579036 -0.010237689 0.00247158
0.1061602 0.19983023 0.039246373 -0.13732745 -0.1543427 0.14505741 0.036543295 -0.07146327
0.022511085 -0.010099114 -0.0055846497 -0.04840755 0.17620832 0.032805417 0.11096376 -0.03561439
-0.07291306 0.12027295 -0.041557223 0.14257419 -0.09895687 -0.049776908 0.0008247484 -0.03195176
0.007869537 0.09350359 0.14598784 0.06787609 0.057526678 -0.1226913 -0.005989661 0.025735034
0.1169232 -0.16444634 -0.035384987 0.077416174 0.15806372 0.16663422 0.04604417 0.13056147
-0.13974789 -0.11550972 0.1576387 -0.16141614 -0.052225593 -0.15141106 0.030759143 -0.10897176
-0.15196697 0.15187748 0.117349215 -0.077754416 -0.11140487 0.120769195 -0.1582126 -0.023040436
-0.15441164 0.16259715 0.031355552 -0.06940643 -0.093181156 -0.049176905 -0.12890878 0.024125801
0.15575507 0.016345305 0.17697431 0.122649044 0.18255608 -0.028460348 0.0064704414 0.020009888
-0.01062408 -0.023219384 0.10106797 -0.11501952 0.136134 -0.04254974 0.04330185 -0.09314493

fc3.bias f4 [10]
00000000: 9d5c 00be 99a4 29be f96e 113d 23c6 5f3d
00000010: 1d76 9abd 5238 b43d a546 c63d b673 253e
00000020: 46d8 183e 7a95 28bc
-0.12535329 -0.16566695 0.035506222 0.054632317 -0.075420596 0.08799805 0.09681443 0.16157421
0.14926252 -0.010289544
